Models/TrainedModels/FCNNs/FCNN2.pt (torch, 92171 bytes, 25 tensors)

fc1.weight f4 [64, 22]
0	0x3d8dddc4	0.06927064
1	0x3ea0c579	0.3140066
2	0x3ef442b3	0.47707137
3	0x3e8a2b57	0.2698619
4	0xbecce3b7	-0.40017483
5	0x3e1b6ac1	0.15177442
6	0x3f99d2fc	1.2017512
7	0x3e12ec64	0.14347988
8	0x3e653ced	0.22386523
9	0x3f2c3968	0.67275095
10	0x3f059453	0.5217945
11	0x3e8b9478	0.2726171
12	0xbf7556f9	-0.95835835
13	0x3ebc2ee9	0.3675454
14	0xbf0c50e0	-0.54810905
15	0x3f6ced1e	0.9254931
16	0xbe1de879	-0.15420713
17	0x3e908c85	0.28232208
18	0x3e9385cb	0.28813013
19	0xbd7c5a7a	-0.061609723
20	0xbe7450a1	-0.23858882
21	0x3f16a2df	0.5884227
22	0xbf5c8f33	-0.86156005
23	0x3fb9c183	1.451218
24	0x3e059c4a	0.13047901
25	0xbf180c2a	-0.5939356
26	0x3d447785	0.047965545
27	0xbed3e08d	-0.41382256
28	0x3eb20f6f	0.347774
29	0xbcf76dd5	-0.03020374
30	0x3e7dbf97	0.24780117
31	0xbd9a934d	-0.07547627
32	0xbea9de2b	-0.33177313
33	0x3ebb95f0	0.3663783
34	0x3f0a1873	0.53943557
35	0x3cd6f7aa	0.026241142
36	0xbe8162f8	-0.2527082
37	0x3ef96e5f	0.4871702
38	0xbf4fa591	-0.8111201
39	0xbe33bf64	-0.17553478
40	0xbcf79241	-0.030221106
41	0xbea73830	-0.32660055
42	0xbf25fc57	-0.64838165
43	0xbf240551	-0.6407061
44	0xbecf17da	-0.40447885
45	0x3eec45f2	0.46147114
46	0x3e873f72	0.26415592
47	0x3e98a018	0.29809642
48	0xbd9cef10	-0.07662785
49	0x3e4f4490	0.20240998
50	0x3f4fb09a	0.8112885
51	0xbf0bb42b	-0.5457179
52	0x3e1de2ba	0.1541852
53	0x3f88d97f	1.0691375
54	0x3e8c25ab	0.27372488
55	0xbe37c5d0	-0.17946553
56	0xbf182738	-0.59434843
57	0x3e9d3987	0.30707952
58	0x3dc658a0	0.096848726
59	0xbd4d00f3	-0.050049733
60	0xbef65df3	-0.48118553
61	0x3ec6de8f	0.38841674
62	0x3e3be153	0.18347673
63	0xbe3c119c	-0.18366092
64	0xbea02781	-0.3128014
65	0x3e03e415	0.12879975
66	0xbd863bbb	-0.065543614
67	0xbec8906a	-0.3917268
68	0x3ebc1bda	0.3674
69	0x3f39c30e	0.72563255
70	0xbe43b578	-0.19112194
71	0x3e07a614	0.13246948
72	0xbe5bbb92	-0.21458271
73	0xbec78cd0	-0.3897462
74	0xbe5b90b6	-0.21441922
75	0x3f390cb0	0.72284985
76	0xbe45d49e	-0.19319388
77	0x3e933957	0.28754684
78	0xbd6de525	-0.058079857
79	0xbf252475	-0.64508754
80	0x3afd9b18	0.001934859
81	0x3e543d71	0.20726563
82	0x3e6ae85d	0.22940202
83	0x3d0260bd	0.031830538
84	0xbee6c484	-0.45071805
85	0x3f7abd03	0.9794466
86	0x3f5c30fa	0.8601223
87	0xbefbc091	-0.49170354
88	0x3ebe2235	0.37135473
89	0x3d9ad23a	0.07559629
90	0x3ed950f6	0.4244458
91	0x3f74367d	0.9539564
92	0x3e23c473	0.15992908
93	0xbc478a17	-0.012178919
94	0x3e9b9742	0.30388838
95	0x3f94b018	1.161624
96	0x3e8cf3f3	0.27529868
97	0xbef2db9e	-0.4743318
98	0x3f1347a4	0.5753119
99	0xbe199ff8	-0.1500243
100	0xbecfd11e	-0.4058923
101	0xbe9e55da	-0.30924875
102	0x3e787ec3	0.24267106
103	0x3f1a00ee	0.6015767
104	0x3f874549	1.0568019
105	0xbd364323	-0.04449762
106	0xbc34bd55	-0.011031468
107	0x3d17b151	0.037034336
108	0x3ec21aab	0.3791097
109	0xbf715c60	-0.9428158
110	0xbecd0de4	-0.4004966
111	0x3ddb7891	0.107163556
112	0xbe0f6e7b	-0.14006989
113	0x3ebb8d8f	0.36631438
114	0xbf086d09	-0.53291374
115	0xbed20ba7	-0.41024515
116	0xbd042dec	-0.032270357
117	0x3f64424f	0.8916368
118	0x3d21c509	0.039494548
119	0xbeb31015	-0.34973207
120	0x3e4f75fe	0.20259854
121	0xbf5a0909	-0.85170037
122	0xbe216788	-0.1576215
123	0xbdf941cc	-0.12170753
124	0x3e4518d9	0.1924776
125	0xbf86812e	-1.0508173
126	0xbf022c12	-0.50848496
127	0xbee61596	-0.44938344
128	0x3f362166	0.7114471
129	0x3efbaa74	0.49153483
130	0xbd1ab0b0	-0.03776616
131	0xbf1cc96b	-0.6124484
132	0xbf44340d	-0.76641923
133	0x3ecdd06e	0.40198082
134	0x3e7238ce	0.23654482
135	0xbda9d685	-0.082928695
136	0x3dea4fce	0.11441003
137	0xbf0e086b	-0.55481595
138	0x3f3ed190	0.74538517
139	0x3dbfc738	0.0936417
140	0x3e2bd418	0.16780126
141	0x3e0c327e	0.13691136
142	0xbe10a99f	-0.14127205
143	0xbc805aa8	-0.015668228
144	0x3e2214af	0.15828203
145	0x3f08e610	0.5347605
146	0x3f1530a0	0.5827732
147	0x3eff00b1	0.49805215
148	0xbbd66482	-0.006542743
149	0xbea306d2	-0.3184114
150	0x3e2ee119	0.17078055
151	0xbe4afec1	-0.19823743
152	0x3ebeb9c7	0.37251112
153	0x3fcc384d	1.5954682
154	0xbed11f05	-0.4084398
155	0x3f48278d	0.7818535
156	0x3e512875	0.2042559
157	0x3e833cdf	0.25632378
158	0x3eeef1b7	0.4666879
159	0xbea4f540	-0.3221836
160	0x3e40a29a	0.18812028
161	0xbf518802	-0.81848156
162	0xbda9a8c1	-0.082841404
163	0xbb8c70d1	-0.0042859097
164	0x3ea63778	0.32464194
165	0x3eafc7fb	0.3433226
166	0x3dcbd049	0.099518366
167	0x3efe9000	0.49719238
168	0x3e02a550	0.12758374
169	0x3f35969e	0.7093295
170	0x3efe07a2	0.49615198
171	0xbece49d2	-0.40290695
172	0xbf70542a	-0.93878424
173	0x3f6f24ff	0.93415827
174	0xbe98c206	-0.29835528
175	0x3f116282	0.56790936
176	0x3f0dfc40	0.5546303
177	0x3ecf3c5f	0.40475747
178	0xbd03c70c	-0.032172248
179	0xbf7f63b9	-0.9976154
180	0x3ee194b2	0.44058758
181	0xbebc38e9	-0.3676217
182	0x3e02530e	0.12726995
183	0xbf24b288	-0.6433492
184	0xbc26931b	-0.010166909
185	0xbdad6816	-0.084671184
186	0xbefabf2c	-0.48973978
187	0xbe804e5c	-0.25059783
188	0x3f8b2923	1.0871929
189	0xbe9c53f6	-0.30532807
190	0xbede4f43	-0.43419847
191	0xbf4c241c	-0.797426
192	0x3e66018e	0.2246153
193	0xbeb36907	-0.35041067
194	0xbf0aeb65	-0.54265434
195	0x3da7d725	0.081953324
196	0x3eb080ce	0.3447327
197	0xbe919de0	-0.28440762
198	0x3f5e3c91	0.86811167
199	0xbe0da242	-0.13831428
200	0x3e145b00	0.14487839
201	0x3e6e6a1a	0.23282662
202	0x3f556384	0.83354974
203	0x3eca91b8	0.395643
204	0xbf0d96dc	-0.5530832
205	0xbdbbe672	-0.09174813
206	0x3ea949e0	0.33064175
207	0x3e8471a5	0.25867954
208	0xbf380ec9	-0.7189756
209	0xbd9c27ed	-0.07624803
210	0x3e8e311e	0.27771848
211	0x3ea5e736	0.32402962
212	0x3bab819e	0.0052339574
213	0xbf5133f2	-0.8171989
214	0x3e8dbfd9	0.2768543
215	0x3f213a5a	0.6297966
216	0x3f295bcb	0.6615569
217	0x3e853a3f	0.26021
218	0xbe4d8364	-0.20069653
219	0x3edb90f4	0.42884028
220	0xbfa4495b	-1.2834886
221	0x3e97247a	0.29520017
222	0xbdd9fc4e	-0.106438264
223	0x3d62c309	0.05536178
224	0x3badef2c	0.0053080525
225	0xbf16427e	-0.5869521
226	0xbf1c1105	-0.6096347
227	0xbee6d838	-0.45086837
228	0x3ea202a4	0.3164264
229	0x3e7d48dd	0.24734826
230	0x3c1f3b4b	0.009718726
231	0xbe5ea0e7	-0.21741067
232	0x3e6c0284	0.23047835
233	0x3d8766ea	0.06611426
234	0xbeaeb16c	-0.34119737
235	0xbdbbde5d	-0.09173272
236	0x3ee9cf62	0.45666033
237	0x3e5aafa7	0.21356069
238	0xbeba1581	-0.3634453
239	0x3ecd6e98	0.4012344
240	0x3e01a8cd	0.12662049
241	0xbf5874bf	-0.8455314
242	0x3eb0f298	0.34560084
243	0xbd1e79c8	-0.03869036
244	0xbedee646	-0.4353506
245	0x3e4ff076	0.20306572
246	0xbe163d73	-0.14671879
247	0xbdb3d04f	-0.08779966
248	0xbeacaa60	-0.33723736
249	0xbf33efa6	-0.7028755
250	0xbef11146	-0.4708349
251	0xbba9e90b	-0.0051852516
252	0xbd6a93d3	-0.057269882
253	0x3f0e9cc8	0.5570798
254	0x3d8c214c	0.068422884
255	0xbf2f16f1	-0.6839438

fc1.bias f4 [64]
0	0xbc9d40a5	-0.019195864
1	0xbf5439f6	-0.8290094
2	0xbeb626c7	-0.3557646
3	0xbf637e7d	-0.8886488
4	0xbf02b051	-0.5105029
5	0xbe91c2e5	-0.28469005
6	0xbfd4946f	-1.6607798
7	0xbf290c03	-0.66033953
8	0xbde9edb4	-0.114222914
9	0xbd0e400f	-0.03472906
10	0xbfb51427	-1.4146775
11	0x3b9675f5	0.0045916983
12	0xbf3161f1	-0.6929007
13	0xbf0b2f9c	-0.5436952
14	0xbe9152d8	-0.28383517
15	0x38b3284b	8.54289e-05
16	0x3dfbff9c	0.12304613
17	0xbedc1c1a	-0.4299019
18	0xbf9e38b6	-1.2361057
19	0xbe9ee341	-0.31032756
20	0xbf447b50	-0.7675066
21	0xbf012120	-0.5044117
22	0xbea8a590	-0.32938814
23	0x3e0f3906	0.13986596
24	0xbf339e77	-0.70163673
25	0xbf835a59	-1.0261947
26	0x3e9c9c85	0.30588165
27	0xbeab43c4	-0.3345014
28	0xbef0e541	-0.47049907
29	0xbf20dea2	-0.6283971
30	0xbf8ade0f	-1.0849017
31	0x3ef1e0a1	0.4724169
32	0xbcdf6de1	-0.027274074
33	0xbfc6908e	-1.5512865
34	0xbdd0da82	-0.10197927
35	0x3ead8af1	0.33895066
36	0xbe5c87c4	-0.21536165
37	0xbf7ffcb3	-0.99994963
38	0xbf738e9d	-0.95139486
39	0xbf857370	-1.0425854
40	0xbec7aff5	-0.39001432
41	0xbf2e3728	-0.6805291
42	0xbebf4886	-0.37360018
43	0xbf055630	-0.52084637
44	0x3d877906	0.0661488
45	0x3ef1e664	0.47246087
46	0xbf895201	-1.0728151
47	0x3dec29db	0.11531421
48	0xbf6b1f90	-0.91845036
49	0xbf764731	-0.9620238
50	0xbfbabe73	-1.458937
51	0x3ed1209e	0.40845197
52	0xbf542345	-0.8286632
53	0xbf22d6d1	-0.63609034
54	0xbf93e6f3	-1.1554855
55	0x3d7b1de0	0.061307788
56	0xbdacd685	-0.08439354
57	0xbfd1f023	-1.6401409
58	0xbfa2c8ca	-1.2717526
59	0x3dc4911a	0.095979884
60	0x3ddce4b1	0.10785807
61	0xbc8ecca8	-0.017431572
62	0xbf3b8d0a	-0.73262084
63	0xbf68d559	-0.9095054

fc2.weight f4 [128, 64]
0	0xbe28d43a	-0.16487208
1	0xbd0972a4	-0.033556595
2	0x3e7ec79d	0.24880834
3	0xbf285bac	-0.6576488
4	0xbe775ac2	-0.24155715
5	0xbe895d05	-0.2682878
6	0x3e098033	0.1342781
7	0x3c12b857	0.008955083
8	0xbe87d0ef	-0.2652659
9	0x3f25805a	0.64648974
10	0xbe9adaf5	-0.30245176
11	0xbca85a39	-0.020550834
12	0xbedc88f9	-0.43073252
13	0xbf3973e4	-0.7244246
14	0x3e4985f1	0.19680001
15	0x3df5d9f9	0.120044656
16	0x3bf69860	0.0075254887
17	0xbbeafa33	-0.0071709394
18	0x3f58e69a	0.8472687
19	0x3ea8d066	0.32971495
20	0xbf335456	-0.7005056
21	0xbf722b61	-0.9459744
22	0xbf2be06d	-0.6713932
23	0xbd1229cc	-0.03568439
24	0xbe7e410d	-0.24829502
25	0xbf0b3862	-0.5438291
26	0xbf824741	-1.0177995
27	0xbead5422	-0.3385325
28	0x3eadbeb6	0.33934563
29	0xbe4c9dd1	-0.19982077
30	0x3ef38d2f	0.47568652
31	0x3f49e0da	0.7885872
32	0xbe90067a	-0.2812994
33	0xbea254c5	-0.317053
34	0xbdcc9a34	-0.099903494
35	0xbeae07ef	-0.33990428
36	0xbe876813	-0.2644659
37	0x3d83df22	0.064390436
38	0x3e5f8e4f	0.2183163
39	0x3eae96ea	0.34099513
40	0x3f036547	0.5132641
41	0x3e9fdfe4	0.31225502
42	0xbf01a3c6	-0.50640523
43	0xbe3faaae	-0.18717453
44	0x3e8306d2	0.2559114
45	0xbe81a844	-0.2532369
46	0xbe3ff671	-0.18746354
47	0x3e12790a	0.14303985
48	0xbe206a67	-0.1566559
49	0xbe84a11d	-0.2590417
50	0xbed80037	-0.42187664
51	0xbecd348f	-0.40079162
52	0xbde37e60	-0.111080885
53	0xbd8e901c	-0.069610804
54	0x3f232df7	0.6374201
55	0xbea317d1	-0.31854108
56	0xbd9870af	-0.07443368
57	0xbe4bf2df	-0.19916867
58	0xbe429c62	-0.19004968
59	0xbe016565	-0.12636335
60	0xbe390e4a	-0.18071857
61	0xbe61a2e2	-0.22034791
62	0xbf0533c6	-0.52032125
63	0x3e1d24f7	0.15346132
64	0x3e57081c	0.20999187
65	0xbe88bde0	-0.26707363
66	0xbf00ea4c	-0.5035751
67	0x3dc1dcba	0.094659284
68	0xbd9664d8	-0.07343453
69	0xbf1455a5	-0.57943183
70	0xbf076b77	-0.52898353
71	0xbf12bb94	-0.5731747
72	0x3dbda3c5	0.09259752
73	0x3c802fd2	0.015647803
74	0xbeac6de7	-0.336776
75	0xbe0cec71	-0.1376207
76	0x3f2e8375	0.6816934
77	0x3eb10713	0.3457571
78	0xbf1efab6	-0.62101305
79	0x3e798014	0.24365264
80	0x3f0ab367	0.54179996
81	0xbed5f391	-0.4178739
82	0x3e373d94	0.17894584
83	0xbf1c04b7	-0.60944694
84	0xbe976f22	-0.29576975
85	0xbf14881c	-0.58020186
86	0xbeb44d41	-0.3521519
87	0x3f14c379	0.5811077
88	0xbf0f2399	-0.5591369
89	0x3f238312	0.6387187
90	0x3e556c23	0.20842032
91	0xbfa56cfe	-1.2923887
92	0xbf33e966	-0.7027801
93	0x3ba71ff8	0.0051002465
94	0xbec50bc7	-0.38485548
95	0x3f196403	0.5991823
96	0xbe34b7b1	-0.17648198
97	0xbf09a235	-0.53763133
98	0x3f5759ba	0.84121287
99	0x3e1015db	0.14070837
100	0x3e2f4bde	0.17118785
101	0xbed36a11	-0.4129186
102	0xbf02c303	-0.51078814
103	0xbe438420	-0.1909337
104	0xbcd8eb74	-0.02647946
105	0x3e165f74	0.1468485
106	0xbf0adba7	-0.5424141
107	0xbee31db7	-0.44358608
108	0xbdac7a34	-0.08421746
109	0xbee5429c	-0.4477738
110	0x3e435aa3	0.19077544
111	0xbeb19dea	-0.3469079
112	0xbed3b0c0	-0.41345787
113	0x3eb24e37	0.34825298
114	0x3eacf49f	0.3378038
115	0xbe03d66d	-0.12874766
116	0x3f34ce47	0.70627254
117	0xbf08a27e	-0.53372943
118	0xbeb4ad7e	-0.35288614
119	0x3f438f97	0.76390976
120	0x3e30fd34	0.1728409
121	0xbede3620	-0.4340067
122	0xbe7a9e81	-0.24474527
123	0xbd25c126	-0.040467404
124	0x3e45dd7a	0.19322768
125	0x3cc06db1	0.023489805
126	0x3e16987f	0.1470661
127	0xbf958121	-1.1680032
128	0xbec81e1f	-0.3908548
129	0xbeb147b6	-0.34625024
130	0x3f21f216	0.6326002
131	0x3df4e1b6	0.119571134
132	0xbedac20d	-0.42726174
133	0xbc4395d3	-0.011937576
134	0x3e0545fb	0.13014977
135	0x3d4ece78	0.050489873
136	0xbf297a95	-0.6620267
137	0x3f1f12df	0.6213817
138	0xbe9d5a68	-0.30733037
139	0xbd544346	-0.05182197
140	0xbf008356	-0.502004
141	0x3edf55d3	0.43620166
142	0x3e89cad6	0.26912564
143	0x3e22105e	0.15826556
144	0xbee3a5b5	-0.44462362
145	0xbf3fa38a	-0.74858916
146	0x3ec1f059	0.37878683
147	0xbe99e997	-0.30061027
148	0x3cfe7000	0.031059265
149	0x3e8ddcb8	0.27707458
150	0xbeba15eb	-0.36344847
151	0xbefc7c9c	-0.4931382
152	0xbea3c1a8	-0.31983685
153	0x3e8d36dd	0.2758092
154	0xbea307cb	-0.31841883
155	0xbf2d045a	-0.67584765
156	0xbf13e3a1	-0.5776921
157	0xbef3fce2	-0.47653872
158	0x3e03fff3	0.12890606
159	0xbea3dbe0	-0.3200369
160	0x3d5ae89f	0.0534445
161	0x3e087597	0.13326107
162	0xbf948df4	-1.1605821
163	0x3d04d556	0.032430016
164	0xbecd2f11	-0.4007497
165	0xbe97271a	-0.2952202
166	0xbe741a54	-0.23838168
167	0x3e2f6d6f	0.1713159
168	0x3ecb41aa	0.39698535
169	0xbef0e9c8	-0.4705336
170	0xbbfb1a57	-0.007663052
171	0x3ccc1ca0	0.024915993
172	0x3d77c14c	0.060487077
173	0x3e5dd6f6	0.21664032
174	0x3c12b493	0.008954185
175	0x3da222d7	0.079168014
176	0x3f4417fb	0.7659909
177	0x3f2b7f20	0.6699085
178	0xbf2e619a	-0.6811768
179	0xbf29fd5f	-0.6640224
180	0x3e11203c	0.14172453
181	0x3f21a547	0.6314282
182	0xbe361d1c	-0.17784542
183	0xbd1ac134	-0.03778191
184	0x3d565cea	0.052334704
185	0x3f2e9cfe	0.682083
186	0x3d54059a	0.051763155
187	0x3f2c243d	0.67242795
188	0x3e634fa7	0.22198354
189	0x3d134a33	0.035959434
190	0xbea3948f	-0.3194928
191	0x3c993e91	0.018706592
192	0xbd414c1a	-0.047191717
193	0xbdf87457	-0.12131565
194	0x3f0653fb	0.52471894
195	0xbe052b0b	-0.13004701
196	0x3d097e1f	0.033567544
197	0x3e18a717	0.1490749
198	0xbef4cb88	-0.47811532
199	0xbe84c793	-0.25933513
200	0x3e0f58e9	0.1399876
201	0x3f292bc2	0.66082394
202	0xbdee0ac9	-0.11623151
203	0x3f257468	0.64630747
204	0xbe1fbd19	-0.15599479
205	0xbd5c69b1	-0.053811733
206	0xbe91e0db	-0.28491864
207	0x3e1f4cb8	0.1555661
208	0xbdc359e1	-0.095386274
209	0xbf22a407	-0.63531536
210	0x3ecd28c6	0.4007017
211	0x3d8cd03a	0.068756536
212	0xbe213eeb	-0.15746658
213	0xbeeef656	-0.46672314
214	0xbd8e7659	-0.06956167
215	0x3ed08b3d	0.4073123
216	0xbe0cc6c3	-0.13747697
217	0x3da63846	0.08116202
218	0xbf540807	-0.8282475
219	0xbd9b39c6	-0.07579379
220	0x3f2a1158	0.66432714
221	0x3ecd9e0d	0.40159646
222	0xbe481d2e	-0.19542381
223	0x3e7cf23f	0.24701785
224	0x3f217f08	0.6308446
225	0xbeba6943	-0.36408433
226	0x3f09bc44	0.53802896
227	0x3cdb1178	0.026741728
228	0x3d2ecc89	0.04267553
229	0xbe209491	-0.15681674
230	0xbe9c54c3	-0.30533418
231	0x3fb9adb2	1.4506133
232	0xbed1fdd0	-0.41013956
233	0x3de789f4	0.11305609
234	0x3d3bcf49	0.04585198
235	0xbe6a3d2b	-0.22874896
236	0xbd6558ab	-0.055992763
237	0xbf0b87d1	-0.54504114
238	0x3ef4d449	0.4781821
239	0x3f198a91	0.5997706
240	0xbf34f544	-0.70686746
241	0xbf150d76	-0.58223665
242	0x3cd4dd6d	0.02598449
243	0x3d50b9d7	0.05095848
244	0xbf0908a1	-0.5352879
245	0x3e081056	0.13287482
246	0x3f095c30	0.5365629
247	0xbeb0ef2b	-0.3455747
248	0xbe1a85be	-0.15090081
249	0x3d9cc958	0.07655591
250	0xbe3ef131	-0.18646695
251	0x3d303009	0.04301456
252	0x3f0c358a	0.54769194
253	0x3e1256a9	0.1429087
254	0xbe550993	-0.20804434
255	0xbe407d49	-0.18797792

fc2.bias f4 [128]
0	0xbe07f035	-0.13275225
1	0x3e876afd	0.26448813
2	0xbf4a479a	-0.79015505
3	0xbf3a5a8f	-0.7279443
4	0x3ed8b1ce	0.42323154
5	0x3a2c72bc	0.0006578376
6	0xbf927749	-1.1442653
7	0xbec77def	-0.38963267
8	0xbe055647	-0.13021193
9	0x3cf377ab	0.029720148
10	0xbf359a0c	-0.7093818
11	0x3e36197d	0.1778316
12	0xbf57cdb5	-0.8429826
13	0xbea19026	-0.3155529
14	0xbf99d740	-1.2018814
15	0xbe3a4b67	-0.18192826
16	0x3edc42b1	0.43019632
17	0xbe97a921	-0.29621223
18	0xbf38556f	-0.7200536
19	0xbf03b2e3	-0.51444834
20	0x3e0cdd15	0.13756211
21	0xbe1a88d3	-0.15091257
22	0xbbb3c3fe	-0.0054860106
23	0xbf3f84d7	-0.7481207
24	0xbc502749	-0.012704679
25	0xbf02cef8	-0.5109706
26	0xbeb699df	-0.3566427
27	0xbf266839	-0.6500278
28	0xbe90e473	-0.28299293
29	0xbf495069	-0.7863832
30	0xbe89e473	-0.26932105
31	0xbf047caf	-0.5175275
32	0xbe7b61f2	-0.24549082
33	0xbdeede62	-0.1166351
34	0xbdce975b	-0.100874625
35	0xbf3f6480	-0.74762726
36	0xbeb2afc9	-0.34899738
37	0xbe5d841f	-0.21632431
38	0xbf0acbc9	-0.542172
39	0xbf36b698	-0.71372366
40	0x3e8aaba5	0.2708408
41	0xbf1c3fb3	-0.610347
42	0x3c5ed5f0	0.013600811
43	0xbf22c6c3	-0.63584536
44	0xbe8bd995	-0.2731444
45	0x3e6f4e92	0.23369816
46	0xbf06914e	-0.5256547
47	0x3e371b6f	0.17881559
48	0xbf4f18db	-0.808973
49	0xbf0978ff	-0.5370025
50	0x3e72c034	0.23706132
51	0xbe8ea5a8	-0.2786076
52	0xbf066992	-0.5250484
53	0xbece23a5	-0.4026157
54	0x3f1538d2	0.58289826
55	0xbf8790eb	-1.05911
56	0xbf2fb5fa	-0.6863705
57	0xbe712712	-0.2355006
58	0xbe884684	-0.266163
59	0xbe2bd2d6	-0.16779646
60	0xbf36be5b	-0.7138421
61	0xbe919d88	-0.284405
62	0x3ea9b3a3	0.33144864
63	0xbf3663ee	-0.7124623
64	0xbf3566b4	-0.7085984
65	0xbdecbe2b	-0.11559709
66	0xbef3d2d2	-0.4762178
67	0xbf138d36	-0.57637346
68	0xbe8f7442	-0.28018385
69	0xbe5275ec	-0.20552796
70	0xbf34dc09	-0.70648247
71	0x3deb2cef	0.1148318
72	0x3e62cc80	0.22148323
73	0xbf2629c4	-0.6490748
74	0xbc7d46ff	-0.015458821
75	0xbd3a5fd4	-0.045501545
76	0x3e5e61c3	0.2171698
77	0xbed6db81	-0.41964343
78	0xbf815e75	-1.0106951
79	0xbf69f905	-0.913956
80	0xbe32c71b	-0.17458765
81	0xbf2c4a20	-0.67300606
82	0xbf91e13c	-1.1396861
83	0xbe113073	-0.14178638
84	0xbefce908	-0.4939654
85	0xbf32d223	-0.69851893
86	0xbeedb692	-0.46428353
87	0xbf728b7e	-0.947441
88	0x3da85b37	0.08220523
89	0x3ea60c87	0.32431433
90	0xbea01abf	-0.31270406
91	0xbe90a201	-0.282486
92	0xbd9a1b9c	-0.07524797
93	0xbe22f22f	-0.15912698
94	0x3e20dbb0	0.15708804
95	0x3d818947	0.06325012
96	0xbf82b4ab	-1.0211385
97	0xbe06ae6d	-0.13152476
98	0xbe3582f7	-0.1772574
99	0xbdee6a32	-0.11641349
100	0xbf1772f6	-0.5915979
101	0xbecab19b	-0.39588627
102	0xbeebc62b	-0.46049628
103	0xbf34b538	-0.7058902
104	0x3e719345	0.23591335
105	0xbe8c19bf	-0.27363393
106	0xbf04cda3	-0.51876277
107	0xbef3d19f	-0.47620866
108	0xbf8bf0a2	-1.093281
109	0xbf088108	-0.53321886
110	0xbe101547	-0.14070617
111	0x3e50122a	0.20319429
112	0xbe0052d8	-0.12531602
113	0xbe710dbf	-0.235404
114	0xbd650b01	-0.055918697
115	0xbecc069f	-0.39848801
116	0xbeaf3280	-0.34218216
117	0x3e0b9557	0.13631187
118	0xbea3a3be	-0.31960863
119	0xbe014cdc	-0.12626976
120	0xbed4bbe1	-0.4154959
121	0xbef7bd3b	-0.4838656
122	0xbe091eb4	-0.13390619
123	0xbee380de	-0.44434255
124	0xbf11b629	-0.5691858
125	0x3cef96d1	0.02924672
126	0xbe5dd307	-0.21662532
127	0x3e73639f	0.23768471

fc3.weight f4 [64, 128]
0	0x3ea13cfc	0.3149184
1	0xbec041d2	-0.37550217
2	0xbda15266	-0.078770444
3	0x3d7be744	0.06149985
4	0x3dc3cc6e	0.09560476
5	0x3d67686b	0.056496065
6	0xbebbf9c9	-0.36714008
7	0x3d7d4605	0.061834354
8	0xbbe7f331	-0.007078551
9	0xbea9db89	-0.33175305
10	0x3dee4aa8	0.11635333
11	0xbf079889	-0.52967125
12	0x3f18e84c	0.59729457
13	0x3ed64b39	0.41854265
14	0x3dfd3b14	0.12364784
15	0x3de1ae09	0.11019523
16	0xbd3119e5	-0.043237586
17	0xbdd7fe63	-0.10546567
18	0x3e163c30	0.14671397
19	0xbe460262	-0.19336846
20	0xbe253ccf	-0.16136478
21	0xbe3e61b9	-0.18591966
22	0x3c9a47ac	0.018833004
23	0xbeae50eb	-0.3404611
24	0xbdf5e9f3	-0.12007513
25	0xbdd5278c	-0.104079336
26	0x3ea864d3	0.32889423
27	0xbdde8a3f	-0.10866212
28	0x3e8303d3	0.25588855
29	0x3ee8ac5b	0.45443997
30	0xbeed1914	-0.46308196
31	0x3f078302	0.5293428
32	0xbe8e8b34	-0.2784058
33	0x3c009775	0.00784861
34	0xbee03093	-0.4378706
35	0x3e81efc2	0.25378233
36	0xbe88f411	-0.26748708
37	0xbe02261f	-0.12709855
38	0xbbe0c8b9	-0.0068598655
39	0xbef2b31a	-0.4740227
40	0xbd9c029a	-0.07617684
41	0xbeea8bfe	-0.4580993
42	0xbc9f0c18	-0.019414946
43	0x3d1577ac	0.03649108
44	0x3db5a51f	0.08869385
45	0xbebb7821	-0.3661509
46	0x3e19e75f	0.15029667
47	0xbe297baf	-0.16551088
48	0xbd8cb2a4	-0.068700105
49	0x3e58bf35	0.2116669
50	0x3f18e436	0.5972322
51	0x3de1de17	0.110286884
52	0x3e7fcc70	0.2498033
53	0xbe2bdbdd	-0.1678309
54	0xbde7453e	-0.11292504
55	0xbf22cabc	-0.635906
56	0xbe817909	-0.25287655
57	0x3f0bd36c	0.5461948
58	0xbe8281cd	-0.25489655
59	0x3e8cd429	0.27505615
60	0xbddb18d9	-0.10698099
61	0xbddfa866	-0.10920791
62	0xbe4ab0d3	-0.19794016
63	0xbce29594	-0.027659215
64	0x3f84df6a	1.038068
65	0xbe0564c3	-0.13026719
66	0x3c08c62a	0.008348027
67	0xbee32d04	-0.44370282
68	0xbead3e02	-0.3383637
69	0x3d90c386	0.07068543
70	0x3e9d492b	0.30719885
71	0xbe953cf7	-0.29148075
72	0x3d28268d	0.04105239
73	0x3f2a99e9	0.666411
74	0xbe0a7421	-0.13520862
75	0x3f5080f0	0.81446743
76	0xbe6ab1da	-0.22919407
77	0xbe843dbf	-0.2582836
78	0x3f07b39a	0.53008425
79	0x3f0c5df0	0.5483084
80	0x3acdb72f	0.0015694852
81	0xbe55c673	-0.20876484
82	0xbe878c46	-0.26474208
83	0xbea8895e	-0.32917303
84	0xbe330abf	-0.17484568
85	0x3edaa5ba	0.42704564
86	0xbe9c5f2f	-0.3054137
87	0x3f6dfba8	0.9296212
88	0xbe162c80	-0.14665413
89	0xbe8fa486	-0.2805521
90	0x3ed95974	0.4245106
91	0x3e9b68fe	0.3035354
92	0xbdb238a1	-0.08702207
93	0x3ec0fdcf	0.3769364
94	0x3e185e49	0.14879717
95	0xbec8e283	-0.39235315
96	0x3e63ed36	0.22258458
97	0xbd8ab68a	-0.06773098
98	0xbed5fc56	-0.4179408
99	0xba3f7feb	-0.0007305133
100	0xbf347db6	-0.7050432
101	0x3ee5445e	0.44778723
102	0xbe2887dd	-0.16458078
103	0x3f0929f7	0.5357966
104	0xbf1011c6	-0.5627712
105	0xbc6f3ec7	-0.01460237
106	0x3ea06215	0.3132483
107	0xbe5b8cf2	-0.21440485
108	0xbe43fb22	-0.19138768
109	0x3f21e7cd	0.63244325
110	0xbea52795	-0.3225676
111	0xbcfc23be	-0.030778762
112	0x3d38c178	0.04510638
113	0xbdfb230b	-0.12262543
114	0x3df18f6e	0.11794935
115	0xbdf68b40	-0.120382786
116	0x3d550c72	0.052013822
117	0x3ef81113	0.48450527
118	0x3ea02e63	0.3128539
119	0xbec34afa	-0.3814314
120	0xbc27300c	-0.010204326
121	0xbe44fe5d	-0.19237657
122	0xbf38d4dd	-0.72199804
123	0xbde41ebd	-0.11138675
124	0x3ee8f489	0.45499066
125	0xbef1edc9	-0.47251728
126	0x3e02cb1d	0.12772794
127	0x3ea9f7cb	0.33196864
128	0xbe23f8ed	-0.16012926
129	0xbe1c5fb2	-0.1527088
130	0x3d58dc45	0.05294444
131	0x3d4866f3	0.048926305
132	0xbe6a78ec	-0.2289769
133	0x3e89b311	0.2689443
134	0x3dcb14bf	0.099160664
135	0x3e9f888d	0.31158867
136	0x3e4d8aa6	0.20072421
137	0xbe190c8f	-0.14946197
138	0xbd6a67e8	-0.057228
139	0xbe88925a	-0.26674157
140	0xbedfe4dd	-0.43729296
141	0xbdfab1e4	-0.12240961
142	0xbec54e67	-0.3853638
143	0x3e5d7e3a	0.21630183
144	0xbd11fcda	-0.03564153
145	0x3e4c4907	0.19949733
146	0xbe5ea217	-0.2174152
147	0x3ecf0c90	0.40439272
148	0x3ebb8d5a	0.3663128
149	0xbf0953a2	-0.5364324
150	0x3e7b074c	0.24514502
151	0xbd76a434	-0.06021519
152	0xbd95dcc6	-0.073175
153	0x3a8edb21	0.0010899046
154	0x3d1b64b7	0.037937846
155	0xbe2b1cfb	-0.16710274
156	0xbde02e24	-0.109463006
157	0x3a8b2307	0.0010615297
158	0x3e81fe1d	0.25389186
159	0x3deb97dc	0.11503574
160	0x3ebef5c6	0.37296885
161	0xbe30272f	-0.17202447
162	0x3e979405	0.29605117
163	0x3db334c3	0.08750298
164	0xbe27a3a6	-0.1637102
165	0x3e6479bc	0.22312063
166	0x3e54608d	0.20739956
167	0x3df1c6a6	0.11805467
168	0x3e9a59d2	0.30146652
169	0x3e98e22a	0.2986005
170	0xbe81d77f	-0.25359723
171	0xbe16988e	-0.14706632
172	0x3e8667a6	0.26250952
173	0x3d167476	0.03673216
174	0xbeae6c64	-0.3406707
175	0xbea33620	-0.31877232
176	0x3dbb6c26	0.09151487
177	0xbe8ee507	-0.2790911
178	0xbd0b0f89	-0.033950362
179	0x3df4ff44	0.119627506
180	0xba75ea32	-0.0009380906
181	0x3d9151ad	0.070956565
182	0x3eb135fc	0.346115
183	0x3ec5ab64	0.38607323
184	0xbd9220ba	-0.07135148
185	0xbe51d2c3	-0.20490555
186	0xbd902928	-0.070391
187	0xbdf0ef0f	-0.11764347
188	0xbe87cf99	-0.26525572
189	0xbdac692f	-0.084185
190	0xbc8c8b24	-0.017156191
191	0x3bf6fc62	0.0075374106
192	0x3d824b5f	0.06362032
193	0x3e902c91	0.28159
194	0x3e1e4b32	0.15458372
195	0x3f39156a	0.722983
196	0x3deb62ce	0.11493455
197	0xbd98c24c	-0.07458934
198	0xbe819c1d	-0.25314417
199	0x3e443637	0.19161306
200	0x3b63bbe2	0.0034749438
201	0xbe7f68b3	-0.24942283
202	0x3e01b72b	0.1266753
203	0xbaa3c437	-0.001249439
204	0xbe2e34fe	-0.17012402
205	0x3dd11124	0.102083474
206	0xbd963498	-0.0733425
207	0x3d61746f	0.05504268
208	0xbd946970	-0.07246673
209	0xbceea86b	-0.029133042
210	0xbe6e52d6	-0.23273787
211	0xbc474fc9	-0.012165018
212	0xbe9e2dc5	-0.30894294
213	0xbf2aaaf7	-0.6666712
214	0xbdf2f62e	-0.11863361
215	0x3d023292	0.03178651
216	0x3e062210	0.13098931
217	0xbe726ab4	-0.23673517
218	0x3e14af5a	0.14520016
219	0xbe7637cf	-0.24044727
220	0x3c1339db	0.008985962
221	0xbdf9de95	-0.12200657
222	0xbdd5a7ee	-0.10432421
223	0xbe1efec8	-0.15526879
224	0xbc27c41b	-0.010239626
225	0x3e4e5ff7	0.20153795
226	0x3e820bd3	0.25399646
227	0xbbc2a818	-0.0059404485
228	0xbe115b64	-0.14195019
229	0xbde6d99c	-0.112719744
230	0x3de3700a	0.11105354
231	0xbc5d3a28	-0.013502635
232	0xbebfdd0c	-0.37473333
233	0xbe391e49	-0.18077959
234	0xbe91e2c8	-0.28493333
235	0xbd6e3b76	-0.058162175
236	0x3ed013c3	0.40640077
237	0xbe82e83f	-0.25567815
238	0xbd5c5a55	-0.053797085
239	0x3dcd1bab	0.10015043
240	0xbcc8d793	-0.024516856
241	0x3dd46e09	0.1037255
242	0xbe1fd12f	-0.15607141
243	0xbe7d4378	-0.24732769
244	0xbea10c88	-0.31454873
245	0x3d219687	0.039450195
246	0x3e6cbc09	0.23118605
247	0x3dc645f8	0.09681314
248	0xbe3bd3d1	-0.1834252
249	0x3dee6628	0.116405785
250	0x3eacff52	0.33788544
251	0x3e6d3f73	0.23168735
252	0x3e87c175	0.26514784
253	0x3e761e1e	0.24034926
254	0xbec09b6e	-0.37618583
255	0xbcea09f6	-0.028569203

fc3.bias f4 [64]
0	0x3e6a625d	0.22889085
1	0x3e792947	0.24332152
2	0x3d46056b	0.04834501
3	0xbde8d3d7	-0.1136853
4	0xbdda8cc6	-0.10671382
5	0x3da7ea7a	0.0819902
6	0x3ddb8c39	0.10720105
7	0x3e334d30	0.17509913
8	0x3dcfbb8e	0.10143195
9	0xbeb125b6	-0.34599084
10	0xbe6430f2	-0.22284296
11	0xbe48c854	-0.19607669
12	0x3eb3eb38	0.35140395
13	0xbdf3e124	-0.119081765
14	0x3e84b894	0.25922072
15	0xbd7fca1b	-0.062448602
16	0x3ee35406	0.44400042
17	0x3d97bbfe	0.074089035
18	0x3e710870	0.23538375
19	0x3dd289d8	0.10280198
20	0x3f034800	0.5128174
21	0x3d46b1ac	0.048509285
22	0x3bcd12cc	0.0062583443
23	0x3e44a5c0	0.19203854
24	0x3e26ca49	0.16288103
25	0x3dc2dc1f	0.09514641
26	0x3dcbede3	0.09957483
27	0xbea5e618	-0.3240211
28	0x3e63d575	0.22249396
29	0xbe3afaf9	-0.18259801
30	0x3ea8927f	0.32924268
31	0xbed6d6f7	-0.4196088
32	0x3db9fce0	0.09081435
33	0x3e1b66e0	0.15175962
34	0x3daf97eb	0.08573898
35	0xbf059b0b	-0.521897
36	0xbd6f3612	-0.058401175
37	0xbd52cfe1	-0.05146778
38	0xbe11fcfd	-0.14256664
39	0x3e7a57b4	0.24447519
40	0xbe446a6b	-0.1918122
41	0xbe68b681	-0.2272587
42	0x3d6e5d5c	0.058194503
43	0x3daaadf2	0.08333959
44	0xbe3b7168	-0.1830498
45	0x3d95c42d	0.07312808
46	0xbd5fb00f	-0.054611262
47	0x3e3a8a11	0.1821673
48	0xbda8182b	-0.08207735
49	0x3ed0d922	0.4079066
50	0x3e5e2f91	0.21697833
51	0x3eb82d02	0.35971838
52	0xbf02cda0	-0.5109501
53	0x3d02e8c0	0.03196025
54	0xbf31c77c	-0.69445014
55	0xbdc1f6f0	-0.09470928
56	0x3f073a33	0.5282318
57	0x3e6d50cc	0.23175353
58	0x3df6d1c7	0.120517306
59	0x3e86e45f	0.26346108
60	0xbe013846	-0.12619123
61	0xbd6e320a	-0.05815319
62	0x3a744fdb	0.0009319761
63	0x3ddd7b80	0.108145714

fc4.weight f4 [32, 64]
0	0x3c54b630	0.01298289
1	0xbdd1338a	-0.102149084
2	0x3d2e83fe	0.042606346
3	0x3e8d0d27	0.27549097
4	0xbe5553e9	-0.2083279
5	0x3e4e6f46	0.20159635
6	0xbea4d95c	-0.32197082
7	0xbe75afa3	-0.23992781
8	0xbec07093	-0.37585887
9	0xbe740464	-0.238298
10	0xbe00b048	-0.12567246
11	0x3e0e4f0f	0.13897346
12	0xbeb3d413	-0.35122737
13	0x3e10e6be	0.14150521
14	0x3d7a8a8d	0.06116729
15	0x3eccb5ca	0.39982444
16	0xbeee1817	-0.46502754
17	0xbe2f3a70	-0.17112136
18	0xbeaafc22	-0.33395487
19	0xbd60607a	-0.054779507
20	0xbec50edf	-0.38487908
21	0x3d20889b	0.039192777
22	0x3e32433b	0.17408459
23	0x3e94d1db	0.29066357
24	0x3e1a4208	0.15064251
25	0xbe643990	-0.22287583
26	0x3e5ae2ff	0.21375655
27	0x3eb25ff4	0.3483883
28	0x3e0fad4f	0.14030956
29	0x3b5ebcc6	0.003398703
30	0x3ec8d7fb	0.3922728
31	0xbd7ec42e	-0.06219881
32	0x3edc335e	0.4300794
33	0xbc067d43	-0.008208576
34	0x3cbe5cd7	0.023237629
35	0xbe3b437a	-0.18287459
36	0xbdba2db1	-0.09090746
37	0x3db86679	0.0900392
38	0xbf0b5f8b	-0.5444266
39	0x3d7a7bd4	0.061153248
40	0x3e28318f	0.16425155
41	0x3e8161b9	0.2526987
42	0xbe9fc732	-0.3120666
43	0x3eab46c7	0.33452436
44	0xbe23b9ea	-0.1598889
45	0xbda75ce2	-0.08172013
46	0xbe282fb7	-0.16424452
47	0xbe4b4698	-0.19851148
48	0xbe29ff2b	-0.16601245
49	0x3e852e31	0.26011804
50	0xbeaa0152	-0.33204132
51	0xbe1a154c	-0.15047187
52	0x3e7cc01f	0.24682663
53	0xbeac14de	-0.3360967
54	0xbe5cc3bb	-0.2155904
55	0x3e8c99fe	0.27461237
56	0xbf2272c2	-0.63456357
57	0xbe912f84	-0.28356564
58	0x3c26bc6d	0.01017676
59	0x3e47d983	0.19516568
60	0x3d031056	0.031998
61	0x3ee58766	0.44829863
62	0xbe7848e1	-0.24246551
63	0xbf0475e1	-0.5174237
64	0x3e21752f	0.15767358
65	0x3ebbff5d	0.36718264
66	0x3cd6c8da	0.02621882
67	0xbe8d8339	-0.27639177
68	0x3e70d572	0.23518923
69	0xbe53de93	-0.20690374
70	0x3e513a89	0.20432486
71	0xbd405e41	-0.046964888
72	0xbc97cc03	-0.018529898
73	0xbe17386c	-0.14767617
74	0x3ea94879	0.33063105
75	0xbc74135a	-0.014897192
76	0x3e05210d	0.13000889
77	0xbdba9758	-0.09110898
78	0xbe038635	-0.12844165
79	0x3d9a31a4	0.075289994
80	0x3f12ea03	0.57388324
81	0xbd9ae539	-0.07563252
82	0xbe265f70	-0.16247344
83	0xbd88a2fb	-0.06671711
84	0x3e6ca5c8	0.23110116
85	0x3d048dce	0.032361798
86	0xbe642222	-0.22278646
87	0xbdb36b08	-0.08760649
88	0x3c91d5b9	0.017802106
89	0x3e3634b2	0.17793539
90	0xbe107191	-0.14105822
91	0xbe5f1ab8	-0.21787536
92	0x3d69ee00	0.05711174
93	0x3d4e57ec	0.050376818
94	0xbef25123	-0.47327527
95	0x3f01b824	0.506716
96	0xbe180a2e	-0.14847633
97	0xbd585b03	-0.05282117
98	0xbd98b5f4	-0.0745658
99	0x3f0c9f1f	0.549303
100	0x3d444c68	0.04792443
101	0xbd8c870b	-0.06861695
102	0xbe6ceb60	-0.23136663
103	0xbd532f30	-0.051558673
104	0xbd9d2675	-0.07673351
105	0xbebf05c8	-0.37309098
106	0xbead685e	-0.33868688
107	0x39915c68	0.00027725403
108	0x3e2bb1dd	0.16767068
109	0xbd2e0508	-0.042485267
110	0x3e4a75fb	0.19771568
111	0x3e947803	0.28997812
112	0x3e702504	0.2345162
113	0x3e412390	0.18861222
114	0x3e8b3fcd	0.27197114
115	0xbe1db74a	-0.1540195
116	0x3e2cd51a	0.16878167
117	0xbebe910d	-0.3722004
118	0x3e870b71	0.26375917
119	0x3dbe3fd6	0.092895195
120	0xbe6ca93e	-0.23111436
121	0xbd9be0a1	-0.07611204
122	0xbe29e1e4	-0.16590077
123	0xbd68cac1	-0.056833986
124	0xbd2bf9a8	-0.041986138
125	0x3b90a237	0.0044138688
126	0x3e256c93	0.16154699
127	0x3e129b2c	0.14317006
128	0xbe114c0f	-0.1418917
129	0xbe8c1224	-0.2735759
130	0x3dee2d74	0.11629763
131	0xbe12dc6a	-0.14341894
132	0xbefc5343	-0.49282274
133	0x3dfa49e0	0.12221122
134	0xbdc1a11a	-0.09454556
135	0x3d1df39a	0.038562395
136	0xbecb7708	-0.3973925
137	0xbe0d860c	-0.13820666
138	0xbedfc646	-0.43705958
139	0x3ee33d4a	0.44382697
140	0xbde09376	-0.10965626
141	0xbd7c2a15	-0.06156357
142	0x3e9ee56a	0.31034404
143	0xbdeb5f3f	-0.11492776
144	0xbddafe13	-0.10692992
145	0xbdaebf37	-0.08532565
146	0xbe5ab948	-0.21359742
147	0xbc37fac0	-0.011229217
148	0xbe417105	-0.1889077
149	0xbd90e545	-0.0707498
150	0xbcab4808	-0.02090837
151	0x3e11cde2	0.14238694
152	0x3e576136	0.21033177
153	0x3d8169f7	0.06319039
154	0x3e62f8b0	0.22165179
155	0x3e92628b	0.28590807
156	0x3e753758	0.23946893
157	0xbe3dde1b	-0.18541758
158	0x3edab5d4	0.4271685
159	0xbe198afc	-0.14994425
160	0x3e7965c2	0.24355224
161	0xbd66908b	-0.05629019
162	0x3e45978c	0.19296092
163	0xbec2e510	-0.38065386
164	0xbe94b476	-0.2904393
165	0xbe69fcc8	-0.22850335
166	0x3dc684a4	0.09693268
167	0x3e5f1da7	0.21788655
168	0x3ea4e2af	0.32204196
169	0x3d43ad32	0.047772594
170	0x3e2153e4	0.15754658
171	0x3eef09e6	0.4668724
172	0xbf0990ad	-0.5373638
173	0xbc58fff5	-0.013244619
174	0xbe95a21d	-0.29225245
175	0xbebcc196	-0.36866444
176	0x3c8fbd9b	0.017546466
177	0xbda58cdc	-0.080835074
178	0xbf0bbede	-0.54588115
179	0x3e8cf3c3	0.27529725
180	0x3e676fcd	0.22601242
181	0xbefca355	-0.49343362
182	0xbe856cb8	-0.26059508
183	0x3d3d477c	0.04621075
184	0xbf17ed37	-0.59346336
185	0xbe27aed1	-0.16375281
186	0x3e9d6f10	0.30748796
187	0x3e049981	0.12949182
188	0x3e09985b	0.13437025
189	0x3defe816	0.11714189
190	0xbef352c7	-0.47524092
191	0xbec5f9e3	-0.3866721
192	0xbea907db	-0.33013806
193	0xbe7558ec	-0.23959702
194	0xbe447646	-0.19185743
195	0xbd9f2ecf	-0.077726
196	0xbda49f17	-0.080381565
197	0xbe296a37	-0.16544424
198	0x3caba5a3	0.020953005
199	0xbddec1bd	-0.108767964
200	0xbd25f852	-0.04052002
201	0xbdb344b8	-0.087533414
202	0xbeec16f0	-0.4611125
203	0x3d9f7ab4	0.07787076
204	0xbf066642	-0.52499783
205	0xbd675281	-0.056475166
206	0xbe26f869	-0.16305698
207	0x3b227b70	0.0024792813
208	0xbe23ffe6	-0.16015586
209	0xbeabe160	-0.33570385
210	0x3e2a8d1a	0.16655388
211	0x3e9551c6	0.2916395
212	0xbea58978	-0.32331443
213	0x3ad0f655	0.0015942553
214	0xbcde4748	-0.027133599
215	0x3e6a0ae6	0.2285572
216	0x3cf2c6ba	0.029635776
217	0x3e115c85	0.1419545
218	0x3e4d2dfd	0.20037074
219	0x3ee543e8	0.4477837
220	0xbe150e6b	-0.14556281
221	0xbed49a7b	-0.4152411
222	0xbe29c6b5	-0.16579707
223	0xbf145505	-0.5794223
224	0x3d0645da	0.03278146
225	0xbeb4e88c	-0.3533367
226	0xbc9a47e1	-0.018833103
227	0xbe96d067	-0.29455873
228	0xbe268c2f	-0.16264413
229	0xbdaeafa9	-0.08529598
230	0x3cd2b878	0.025722727
231	0x3e0c9160	0.13727331
232	0x3e3c0471	0.1836107
233	0x3e2fa378	0.17152202
234	0xbea23164	-0.31678307
235	0x3c17f25a	0.00927409
236	0x3e18a7d0	0.14907765
237	0xbee046ff	-0.43804166
238	0xbe8c4a56	-0.27400464
239	0xbc8dde16	-0.017317813
240	0x3ca27b31	0.019834133
241	0xbeedd4f4	-0.46451533
242	0xbe4723b8	-0.1944722
243	0xbd3b7271	-0.045763437
244	0xbe425909	-0.18979277
245	0xbec4ff8e	-0.38476223
246	0xbe08556b	-0.13313834
247	0xbe2785ef	-0.16359685
248	0xbe206ae2	-0.15665773
249	0xbe05f3ea	-0.13081327
250	0xbe1aa023	-0.1510015
251	0x3e2dab7c	0.16959947
252	0x3dd4b456	0.10385959
253	0xbd15a18b	-0.036531013
254	0xbea63b6d	-0.32467213
255	0x3d939dba	0.07207818

fc4.bias f4 [32]
0	0x3ed7ddef	0.4216151
1	0x3e567319	0.20942344
2	0x3ef60372	0.48049504
3	0x3f40b3c1	0.7527428
4	0x3ee92dde	0.45542806
5	0x3a982508	0.0011607716
6	0x3f67e1c0	0.9057884
7	0x3d094f14	0.03352268
8	0x3d875e84	0.06609824
9	0x3eed8e15	0.46397462
10	0x3ef2b826	0.4740612
11	0x3e3647e2	0.17800859
12	0x3f0dfe45	0.5546611
13	0x3e853db9	0.26023653
14	0x3e89df4d	0.26928177
15	0x3f5677ae	0.83776367
16	0x3f3bacaa	0.7331034
17	0x3eb57b16	0.3544547
18	0xbeba9780	-0.3644371
19	0x3f9effbb	1.2421793
20	0x3e21c4a6	0.15797672
21	0x3ebea25a	0.3723324
22	0x3e7f614b	0.24939458
23	0x3dfbeb11	0.12300695
24	0xbd5486f7	-0.051886525
25	0x3d7799e1	0.060449485
26	0xbcc584bb	-0.024111142
27	0x3d06c7c8	0.03290537
28	0x3dd310ce	0.103059396
29	0x3e718c0d	0.23588581
30	0x3e83c7da	0.25738412
31	0x3e4f768f	0.2026007

fc5.weight f4 [1, 32]
0	0xbe540830	-0.20706248
1	0xbb3665ea	-0.0027831742
2	0xbe67a88b	-0.22622888
3	0x3ddf26f4	0.108961016
4	0x3d2a6206	0.04159739
5	0xbcc7d83b	-0.024395099
6	0xbe67ca96	-0.22635874
7	0xbca3ead3	-0.020009434
8	0xbe0d7a11	-0.13816096
9	0xbe39bace	-0.18137667
10	0x3e3f52e4	0.18683964
11	0x3dfa1315	0.12210671
12	0x3e34010b	0.17578523
13	0xbe4dc9fc	-0.20096582
14	0x3e20950f	0.15681861
15	0xbe334cc5	-0.17509754
16	0x3e25fd57	0.16209923
17	0x3db62cd0	0.08895266
18	0x378e5a1f	1.6969685e-05
19	0xbe414a7e	-0.18876073
20	0x3d585752	0.05281765
21	0x3c9ea719	0.019366788
22	0xbe07a840	-0.13247776
23	0x3e0e48fa	0.13895026
24	0xbe543027	-0.20721494
25	0x3dd5fc06	0.1044846
26	0xbda653f8	-0.081214845
27	0x3e29cab2	0.16581228
28	0x3e3f9d90	0.18712449
29	0xbe3c4ff1	-0.1838987
30	0x3e25b1ad	0.16181059
31	0xbe213b15	-0.15745194

bn1.weight f4 [64]
0	0x3f8fd049	1.1235439
1	0x3fa61211	1.2974263
2	0x3f598710	0.84971714
3	0x3f9d4b19	1.2288543
4	0x3fa348a1	1.275654
5	0x3fbf549e	1.4947698
6	0x3f8c8551	1.0978185
7	0x3f9ca98a	1.2239239
8	0x3fa2b542	1.2711565
9	0x3f9a2391	1.2042104
10	0x3f6914c7	0.9104733
11	0x3f836f28	1.0268297
12	0x3fc4ac56	1.5365093
13	0x3fa51f94	1.2900262
14	0x3f561493	0.83625144
15	0x3f5d6afa	0.8649136
16	0x3f37bc35	0.71771556
17	0x3fa49cb3	1.2860321
18	0x3f858bec	1.0433326
19	0x3fa6cf55	1.3032023
20	0x3f95b210	1.1694965
21	0x3fb880c2	1.4414294
22	0x3fbfe56b	1.4991888
23	0x3f9346e0	1.1506004
24	0x3f8e91e8	1.1138277
25	0x3faded5a	1.3588059
26	0x3fac3dba	1.3456337
27	0x3fac1c6f	1.3446177
28	0x3f909370	1.1294994
29	0x3fd32aa2	1.6497386
30	0x3f7c5a03	0.98574847
31	0x3f764962	0.96205723
32	0x3f59253a	0.8482243
33	0x3f946d38	1.1595831
34	0x3fdd04f5	1.7267138
35	0x3fae67f4	1.3625474
36	0x3f9f1ca3	1.2430614
37	0x3fb9bb1b	1.4510225
38	0x3f9193c5	1.1373221
39	0x3fb5f184	1.421433
40	0x3fb252f2	1.3931563
41	0x3f934fc0	1.1508713
42	0x3fbc18b2	1.4695036
43	0x3fe76b93	1.8079704
44	0x3fa04c4a	1.2523282
45	0x3f91fe5a	1.1405747
46	0x3f572eac	0.8405559
47	0x3fbaf323	1.460545
48	0x3f86dc07	1.0535897
49	0x3f83bf9e	1.0292852
50	0x3fd2553e	1.6432264
51	0x3f778fd3	0.96703833
52	0x3fa65524	1.2994733
53	0x3fc4c2c4	1.5371938
54	0x3f99d58d	1.2018296
55	0x3f622bae	0.883479
56	0x3f7abcc7	0.979443
57	0x3fd80a44	1.6878133
58	0x3f97c1ae	1.1855981
59	0x3faf05a7	1.36736
60	0x3f7c2f8b	0.98510045
61	0x3f8e1bc4	1.1102223
62	0x3fad7170	1.3550243
63	0x3fbf7411	1.4957296

bn1.bias f4 [64]
0	0xbe841ffb	-0.2580565
1	0x3f00b860	0.50281334
2	0xbf0b89f4	-0.54507375
3	0x3da517c1	0.08061171
4	0x3d58d0aa	0.052933373
5	0x3f461579	0.77376515
6	0xbf0ba8c6	-0.545544
7	0xbef681cd	-0.48145905
8	0x3f138589	0.57625633
9	0xbecdd428	-0.40200925
10	0x3d3a820a	0.04553417
11	0x3edf0718	0.435601
12	0x3e3cf8de	0.1845431
13	0x3c2611ce	0.010136081
14	0x3e9b178f	0.3029141
15	0xbed7d8fa	-0.42157727
16	0x3e86e5be	0.26347154
17	0x3f245787	0.64196056
18	0xbf6c6082	-0.9233476
19	0x3c7172af	0.014736815
20	0xbe91cd02	-0.2847672
21	0x3eddbc0e	0.43307537
22	0x3dcdb5ce	0.10044442
23	0x3f1fe2a9	0.6245523
24	0x3e6e5a4f	0.23276637
25	0x3d43f97f	0.04784536
26	0x3f1996d9	0.599958
27	0x3f0657de	0.52477825
28	0xbdfb4dc4	-0.12270692
29	0x3e464f84	0.1936627
30	0xbe3d52c3	-0.18488602
31	0xbd0bc74c	-0.03412561
32	0xbed97aec	-0.42476594
33	0xbf7c2d57	-0.98506683
34	0x3ec94f06	0.39318103
35	0x3eac9acb	0.33711848
36	0x3ea37267	0.3192322
37	0xbc5cb009	-0.013469704
38	0xbe807d4f	-0.25095603
39	0xbf37d696	-0.7181181
40	0x3d825888	0.06364542
41	0xbc5ed4b2	-0.013600515
42	0x3ce26332	0.02763519
43	0x3eca05ce	0.39457554
44	0xbbd33f18	-0.0064467303
45	0xbcd5d368	-0.026101783
46	0xbf161245	-0.5862163
47	0xbe0caf56	-0.1373876
48	0x3ebbde5e	0.3669309
49	0x3edb4a12	0.4282995
50	0x3ecab8d9	0.39594153
51	0x3ecab6cb	0.39592585
52	0x3eacd342	0.33754927
53	0x3db6f7c9	0.0893398
54	0xbe13ec39	-0.1444558
55	0x3e2be8e9	0.16788067
56	0x3e61ad9e	0.22038886
57	0x3e6b7fc7	0.22997962
58	0x3edf6a45	0.43635765
59	0xbdfe9fd4	-0.124328285
60	0xbdfd2d38	-0.123621404
61	0xbd5133e4	-0.051074877
62	0xbdc9c702	-0.09852411
63	0x3ed1682c	0.4089979

bn1.running_mean f4 [64]
0	0x402fc215	2.7462208
1	0x3ed08c62	0.40732104
2	0x3fb10882	1.3830721
3	0x3d96e93c	0.07368705
4	0x3ec9ef60	0.3944044
5	0x3e295ddc	0.16539711
6	0x402c3599	2.6907713
7	0x3faf43de	1.3692586
8	0x3e8be256	0.27321118
9	0x3f915535	1.1354128
10	0x3b5a799b	0.0033336643
11	0x3e907722	0.2821589
12	0x3f8a8ba4	1.0823865
13	0x3f7b0a20	0.98062325
14	0x3ebcc620	0.36869907
15	0x4019baf5	2.402036
16	0x3df32007	0.11871343
17	0x3f1e3902	0.61805737
18	0x3ea71a08	0.32637048
19	0x3f9893a4	1.1920056
20	0x3eedca40	0.46443367
21	0x3fe6bc93	1.8026298
22	0x3fbb5043	1.4633869
23	0x3fb6a67e	1.4269559
24	0x3e916071	0.2839389
25	0x3f537ccc	0.826123
26	0x4007ab37	2.1198251
27	0x3eb6a9a9	0.35676315
28	0x3f4f96d9	0.8108955
29	0x3fb529d0	1.4153385
30	0x3f07f8d4	0.53114057
31	0x401f2fc1	2.4872897
32	0x3f37651a	0.71638644
33	0x3f8d44fe	1.103668
34	0x3e9ebd74	0.31003916
35	0x3f64400a	0.89160216
36	0x3fc37f16	1.5273159
37	0x3e901628	0.28141904
38	0x400fee64	2.2489252
39	0x3f464ad1	0.7745791
40	0x3f94ce5e	1.1625478
41	0x3f470534	0.77742314
42	0x3fe8762f	1.8161067
43	0x3ed260fd	0.4108962
44	0x3fbbe936	1.4680545
45	0x3f83630f	1.0264605
46	0x3ed578ce	0.4169373
47	0x3fe29235	1.7700869
48	0x3f472ff1	0.7780753
49	0x3efd0c33	0.4942337
50	0x3da1bc67	0.07897263
51	0x3fa9049c	1.3204532
52	0x3db0f0c1	0.0863967
53	0x3fdffcd0	1.7499027
54	0x3ef18457	0.4717128
55	0x3e71d17f	0.23615073
56	0x3f09510c	0.5363929
57	0x3ec99681	0.39372638
58	0x3e3aeaff	0.18253706
59	0x40028245	2.039201
60	0x3ff12d87	1.8842019
61	0x3f102e9d	0.56321126
62	0x3f661190	0.8987055
63	0x3eaf20e6	0.34204787

bn1.running_var f4 [64]
0	0x40bde1a5	5.9337945
1	0x3f3f4907	0.74720806
2	0x40153884	2.3315744
3	0x3e0ec5d9	0.1394266
4	0x3f4b792c	0.7948177
5	0x3ed9120d	0.42396584
6	0x4027cd6f	2.6219137
7	0x400ca5e6	2.1976256
8	0x3f07c1ef	0.53030294
9	0x4007e381	2.1232607
10	0x3d354839	0.04425833
11	0x3ee63b57	0.44967148
12	0x4035968a	2.8373132
13	0x3ff575c2	1.9176562
14	0x3ef0ea00	0.47053528
15	0x4056608c	3.3496428
16	0x3e3602ff	0.1777458
17	0x3f8c8ba3	1.0980114
18	0x3ee0b4f4	0.43888056
19	0x3fc9b45d	1.5758168
20	0x3f4ddf9b	0.8041932
21	0x4014aa27	2.3228853
22	0x40420ba7	3.0319612
23	0x405c6e96	3.4442496
24	0x3f023703	0.5086519
25	0x3fb9915f	1.4497489
26	0x405e4852	3.473164
27	0x3f55c3c8	0.83501863
28	0x3fbb8177	1.4648885
29	0x40344869	2.8169196
30	0x3fab9748	1.3405542
31	0x40148ce5	2.3210995
32	0x3fa198be	1.2624738
33	0x3f8a97c0	1.082756
34	0x3f205a8d	0.6263817
35	0x40094e56	2.1454062
36	0x403bae3a	2.932509
37	0x3f7a6d76	0.97823274
38	0x40631881	3.5483706
39	0x3ff9f31b	1.9527315
40	0x403bd2b6	2.9347358
41	0x3fcf09ac	1.6174827
42	0x403229bf	2.783798
43	0x3ec8d92b	0.39228186
44	0x404cde0c	3.2010527
45	0x3fbd90bb	1.4809793
46	0x3de10314	0.10986915
47	0x403ce9f2	2.951779
48	0x3f91aa2d	1.1380059
49	0x3f3ae1e1	0.73000914
50	0x3e8dc547	0.27689573
51	0x3fe2273e	1.7668226
52	0x3e531c87	0.20616351
53	0x402f3740	2.7377472
54	0x3f10a9de	0.56509197
55	0x3edadfa1	0.4274874
56	0x3f203f29	0.62596375
57	0x3f59217e	0.8481673
58	0x3ee9fd3f	0.45701024
59	0x4040e143	3.013749
60	0x4014dc42	2.3259435
61	0x3fba68a3	1.4563183
62	0x3fe2967c	1.7702174
63	0x3f5ff71b	0.8748643

bn2.weight f4 [128]
0	0x3f7dfbd0	0.9921236
1	0x3fc0960e	1.5045793
2	0x3f9aa679	1.2082053
3	0x3f8f0e66	1.1176269
4	0x3f5713ec	0.84014773
5	0x3f9cd927	1.225377
6	0x3fe3b9fc	1.7791133
7	0x3f2dcd6d	0.6789158
8	0x3f836b20	1.0267067
9	0x3f5a32e2	0.8523389
10	0x3fd80caf	1.6878871
11	0x3f6f1774	0.9339516
12	0x3fa54059	1.2910262
13	0x3fb6c4a5	1.4278761
14	0x3f9930c2	1.1968005
15	0x3f09d9e1	0.5384808
16	0x3fb27421	1.394169
17	0x3eff3daa	0.49851733
18	0x3fba0329	1.4532214
19	0x3f7ba34c	0.98296046
20	0x3fb8a7d6	1.442622
21	0x3fbef356	1.491801
22	0x3f1818bc	0.5941274
23	0x3feddde2	1.8583338
24	0x3f47aa48	0.77994204
25	0x3f88dede	1.0693014
26	0x3f8d9304	1.1060491
27	0x3f8b9335	1.0904299
28	0x3f314b24	0.6925528
29	0x3f853eb2	1.0409758
30	0x3f9f138f	1.2427844
31	0x3fa0f856	1.2575786
32	0x3fa9a4b9	1.3253394
33	0x3ee11214	0.43959105
34	0x3faa492b	1.3303579
35	0x3f9ebb52	1.2400916
36	0x3fb92c06	1.446656
37	0x3faacf32	1.3344481
38	0x3f6b937c	0.9202192
39	0x3fcde895	1.6086603
40	0x3f20130e	0.62529075
41	0x3fac0634	1.3439393
42	0x3f6a720b	0.91580266
43	0x3fb50bbe	1.4144208
44	0x3f9b5985	1.2136694
45	0x3fdc1436	1.7193668
46	0x3fb0d5b3	1.3815216
47	0x3f986dfd	1.1908566
48	0x3f827f57	1.0195111
49	0x3fda6838	1.7063055
50	0x3f976898	1.1828794
51	0x3f814bd7	1.010127
52	0x3fb2382d	1.3923393
53	0x3f26eaae	0.6520184
54	0x3f107076	0.564216
55	0x3fa8472e	1.3146722
56	0x3f35bdb4	0.7099259
57	0x3f970269	1.179761
58	0x3f7d6fc6	0.9899868
59	0x3f532205	0.82473785
60	0x3f8b1d80	1.0868378
61	0x3f3e511c	0.74342513
62	0x3f616198	0.8803954
63	0x3f8ede97	1.1161679
64	0x3fd854ac	1.690084
65	0x3f946030	1.1591854
66	0x3fbe12bf	1.4849471
67	0x3ffc077b	1.9689783
68	0x3f83ccb1	1.0296842
69	0x3f1e7428	0.6189599
70	0x3f3f6c67	0.74774784
71	0x3f57cbe6	0.842955
72	0x3f914d19	1.1351653
73	0x3fc7c125	1.5605818
74	0x3f2e33d8	0.6804786
75	0x3f980dd6	1.1879222
76	0x3ef179db	0.4716328
77	0x3f789628	0.9710412
78	0x3fd091a0	1.6294441
79	0x3f9a31bc	1.2046428
80	0x3f9237f3	1.1423324
81	0x3fae8551	1.3634435
82	0x3fb41168	1.4067812
83	0x3f0970da	0.5368782
84	0x3fa078ab	1.2536825
85	0x3fd8b9a3	1.6931652
86	0x3f89fc9c	1.0780215
87	0x3fd309b1	1.6487333
88	0x3f77f53b	0.96858567
89	0x3fc4f0eb	1.5386022
90	0x3fa42417	1.2823514
91	0x3fab860e	1.3400285
92	0x3f5ab943	0.85438937
93	0x3fa15a30	1.2605648
94	0x3f3cecb4	0.7379868
95	0x3f8b7f27	1.0898179
96	0x3fa4cedd	1.287563
97	0x3f1be7f6	0.6090082
98	0x3fa7f214	1.3120751
99	0x3f00430c	0.50102305
100	0x3fa00bf5	1.2503649
101	0x3f66f252	0.902135
102	0x3fb0781e	1.3786657
103	0x3fe45951	1.7839757
104	0x3faefb56	1.3670452
105	0x3f9c5e39	1.2216254
106	0x3f84465d	1.0333973
107	0x3f8160cd	1.0107666
108	0x3fc06dc9	1.5033504
109	0x3f988a69	1.191724
110	0x3f7e4ff5	0.99340755
111	0x3fbd898e	1.4807603
112	0x3f4821b8	0.7817645
113	0x3f46ab24	0.7760489
114	0x3f20e3ff	0.62847894
115	0x3f81b0a3	1.013203
116	0x3f551833	0.8324005
117	0x3f9464b3	1.1593231
118	0x3f6bf52f	0.92170995
119	0x3f9a5c3d	1.2059399
120	0x3f97aa36	1.1848819
121	0x3f98b42c	1.1929984
122	0x3fb6bb70	1.4275951
123	0x3fb97a01	1.4490358
124	0x3f8da462	1.1065791
125	0x3f88bc1c	1.0682406
126	0x3fb55d0b	1.416902
127	0x3f5bd03d	0.8586462

bn2.bias f4 [128]
0	0xbdb32458	-0.087471664
1	0x3e22a8ac	0.15884656
2	0x3e8c9629	0.27458313
3	0x3f006d66	0.5016693
4	0xbe643d62	-0.2228904
5	0x3ed970be	0.42468828
6	0x3f15470f	0.5831155
7	0x3ea95fe4	0.3308097
8	0x3f4842af	0.7822675
9	0x3da5f151	0.08102668
10	0x3e99456f	0.29935786
11	0xbe2aa682	-0.1666508
12	0x3f771581	0.9651719
13	0x3cb70b1e	0.022344168
14	0x3f2a3485	0.6648639
15	0x3e3cfe94	0.18456489
16	0x3ed08a30	0.4073043
17	0x3c06607e	0.0082017165
18	0xbe5f87e1	-0.21829177
19	0x3ece2b12	0.40267235
20	0x3e87fb86	0.26559085
21	0x3c792a4f	0.015207841
22	0xbeea3249	-0.4574149
23	0xbf253444	-0.64532876
24	0x3dcef282	0.101048484
25	0x3ee62e79	0.4495733
26	0xbeb66f46	-0.3563177
27	0xbe13e461	-0.14442588
28	0x3e5c0deb	0.21489684
29	0x3d480273	0.04883046
30	0xbe0715f3	-0.13191967
31	0x3efab5db	0.4896687
32	0x3c29f5e5	0.010373567
33	0x3d8bb1b0	0.068210006
34	0x3dfc081a	0.12306233
35	0x3dfd1380	0.12357235
36	0xbf1cc38e	-0.6123589
37	0xbf59166e	-0.8479985
38	0x3d84bbf8	0.06481165
39	0xbe7b8f76	-0.24566445
40	0x3e4adf36	0.1981171
41	0x3e28b548	0.16475403
42	0xbe2d20b8	-0.16907012
43	0xbd902fee	-0.07040392
44	0xbe814941	-0.252512
45	0xbd3ab74b	-0.045584958
46	0x3d87cdc6	0.06631045
47	0x3d794aa3	0.060862195
48	0x3f207812	0.6268321
49	0xbf365785	-0.71227294
50	0xbedcc23d	-0.43116942
51	0x3d61a231	0.05508632
52	0x3ef6993d	0.48163787
53	0xbf0fc971	-0.5616675
54	0xbcc1c2eb	-0.023652514
55	0xbdad5bf0	-0.08464801
56	0xbec5e99b	-0.3865479
57	0xbee33d50	-0.44382715
58	0x3e56ba10	0.20969415
59	0x3cc2b875	0.023769597
60	0x3eef777b	0.46770844
61	0x3c37ae7c	0.011211034
62	0x3d8e400a	0.06945808
63	0xbe6b1cea	-0.22960249
64	0x3f04e27c	0.5190809
65	0xbe668807	-0.22512828
66	0x3e98686b	0.29767165
67	0xbeaf475f	-0.3423414
68	0xbf08eede	-0.5348948
69	0x3ec90c2c	0.392671
70	0xbebfb509	-0.37442806
71	0xbbaffa2d	-0.0053703994
72	0x3f22484a	0.63391554
73	0xbe0e1755	-0.13876088
74	0xbeb824a0	-0.35965443
75	0x3ea0771b	0.3134087
76	0xbf7ae7e4	-0.98010087
77	0xbe6319a1	-0.22177745
78	0xbe24f909	-0.16110624
79	0x3e1a03a2	0.15040448
80	0x3eac7b66	0.33687896
81	0xbdde3883	-0.108506225
82	0x3e0d8156	0.13818869
83	0xbe5d3b7d	-0.21604724
84	0xbe6338ed	-0.22189684
85	0x3ec73f60	0.3891554
86	0x3e088987	0.13333713
87	0x3d87e250	0.066349626
88	0x3edc3c73	0.4301487
89	0x3e311242	0.17292121
90	0xbe0f1885	-0.13974197
91	0x3e6fdf8a	0.23425117
92	0x3f34701f	0.70483583
93	0x3d8d2085	0.06890968
94	0x3e9251f0	0.28578138
95	0x3f00909f	0.50220674
96	0xbdc03e07	-0.09386831
97	0x3e6b2180	0.22961998
98	0x3d2c3e4e	0.042051606
99	0x3c59c547	0.0132916635
100	0x3d8484ba	0.06470628
101	0xbcbfedb1	-0.02342877
102	0x3f63291e	0.88734615
103	0xbe5d013b	-0.215825
104	0x3e8c26e5	0.27373424
105	0x3eaea093	0.34106883
106	0xbf31a967	-0.6939911
107	0xbd8a227a	-0.06744857
108	0x3e789c77	0.24278437
109	0x3e80140b	0.25015292
110	0x3db4b307	0.08823209
111	0x3ddc79a9	0.10765392
112	0x3ea2b8d3	0.31781635
113	0x3e2087c6	0.15676793
114	0xbd9a9b90	-0.075492024
115	0xbd505ec5	-0.05087163
116	0xbd467ea7	-0.04846063
117	0x3f036b2b	0.513354
118	0x3eae9acc	0.34102476
119	0xbf40fa2b	-0.75381726
120	0x3d4118b0	0.047142684
121	0xbf803f56	-1.0019329
122	0xbf498960	-0.7872524
123	0x3d4a934a	0.049456872
124	0x3f062d8a	0.5241324
125	0xbebf47a7	-0.37359354
126	0x3ef06019	0.46948317
127	0x3ee005d6	0.43754452
