Models/TrainedModels/FCNNs/FCNN3.pt (torch, 16199 bytes, 5 tensors)

fc1.weight f4 [64, 22]
000000 76 e2 90 3e 0e bf 44 3f b0 bb 19 3e 89 e9 a3 be
       0.28297776 0.76854026 0.15013003 -0.3201411
000010 f2 7b 2e be c2 df a3 be 20 29 c6 3e 32 1f d1 be
       -0.17039469 -0.3200665 0.3870325 -0.40844113
000020 da 9e 2a 3e fe aa 9a 3e 73 be bb be 70 04 6a 3e
       0.1666216 0.30208582 -0.3666874 0.22853255
000030 42 72 87 be c1 e7 9d be 31 72 9f 3e 77 a9 a3 3d
       -0.2645436 -0.30840877 0.3114181 0.07991307
000040 e2 25 0f 3f 86 97 c8 be 0d 3c 23 3c 1b ed 0f be
       0.5591718 -0.39178103 0.009963048 -0.14055292
000050 cc c8 73 be e2 5b 66 3d 82 6f 84 3e b1 d7 38 3f
       -0.23807067 0.05623997 0.25866324 0.7220412
000060 d3 0a 28 3e 6d 48 e8 be d1 bf f7 3e 09 87 3c bf
       0.16410379 -0.45367756 0.48388532 -0.7364355
000070 7a 23 ad be 78 b0 b3 3d aa 46 6e 3f e3 36 f9 3d
       -0.3381613 0.08773893 0.93076575 0.12168672
000080 d3 44 03 3e 6f 3c 09 bf b5 82 cf 3e ab 68 0e bd
       0.12819223 -0.5360784 0.4052941 -0.034767788
000090 06 78 e5 3d bd c4 40 bf 91 fc 21 3f 47 8d 3e bc
       0.11204533 -0.753002 0.6327601 -0.011630363
0000a0 89 fb f5 be da 14 aa 3d 23 27 b5 be ec cc f7 be
       -0.4804347 0.08304758 -0.3538142 -0.4839853
0000b0 e1 04 b4 3d da 43 14 3f 5f cc cf bd 07 06 a2 bf
       0.08789993 0.57916033 -0.101464026 -1.2658089
0000c0 56 f2 97 3f 2d 5e 83 3c 6d d0 c2 bb f8 1f 16 be
       1.187083 0.016036117 -0.0059452564 -0.14660633
0000d0 20 e5 32 3f f8 ea 2d 3f 00 cc 77 bd d6 fa 19 bf
       0.69880867 0.6793666 -0.060497284 -0.6014837
0000e0 cf a0 2b be 0f 60 21 bd cc 46 87 3e 62 8a df be
       -0.16760562 -0.03939825 0.264212 -0.43660265
0000f0 5f 8a b6 3e 6f dc a4 be a8 e6 07 3f 85 cb b9 bb
       0.35652444 -0.32199427 0.5308633 -0.0056700134
000100 5d 08 10 3e c1 4b 8f 3d d6 4e e7 bd 17 aa 45 3f
       0.1406569 0.06996871 -0.11294334 0.7721266
000110 96 74 33 be 67 d7 a2 bf a9 d1 c6 3e c1 20 da bd
       -0.17524943 -1.2721986 0.38831833 -0.106507786
000120 1e 8a b4 3e 4a 4f dd be c1 cf 14 3f e0 62 07 bf
       0.35261625 -0.43224555 0.5812951 -0.52885246
000130 78 69 97 ba d6 f9 a3 be a3 bf 53 3e 3c c5 87 3e
       -0.0011551818 -0.32026547 0.20678572 0.26517665
000140 ad e0 9d 3e ae d2 33 be dd 96 12 3f fd 37 35 bf
       0.30835477 -0.17560837 0.5726145 -0.70788556
000150 6d 95 84 3f de b8 01 be 69 fa 6c 3d e5 c2 99 3e
       1.0358101 -0.12668177 0.057855997 0.30031505
000160 50 ea 84 be 0d 85 85 be 68 e9 d0 bc b2 c5 58 be
       -0.25960016 -0.26078072 -0.025501922 -0.21169165
000170 6b db 8c 3e 19 e7 4f 3e 81 86 ea be c6 15 b0 3e
       0.27511153 0.20303 -0.45805743 0.34391612
000180 28 28 b6 3e 31 dd aa 3e f2 c2 c6 be 1c 17 68 3e
       0.35577512 0.3337188 -0.38820606 0.22665066
000190 10 e7 b3 3e 7b 69 9e 3e a6 29 c2 be 4b a7 b9 3c
       0.35137224 0.3093985 -0.379224 0.02266278
0001a0 ea c0 84 be 36 3f 3d bf 63 7e 05 3e ae a1 07 3e
       -0.25928432 -0.7392458 0.13036494 0.1324527
0001b0 00 31 18 bf 5b 53 b8 bd 98 fa 8e be 34 f9 22 3e
       -0.5944977 -0.09000274 -0.27925563 0.15915376
0001c0 3c df f6 3e f1 4f 3c 3e 29 26 dc 3e fe 0e af be
       0.4821719 0.1838987 0.42997864 -0.34191126
0001d0 03 40 1c 3b d3 80 fb 3c c6 ca 16 3f a2 be 81 bd
       0.0023841865 0.030701077 0.5890316 -0.063351884
0001e0 e3 98 c6 3e 0a 7a 81 3e 4b 48 e6 be db a7 53 be
       0.38788518 0.2528842 -0.4497703 -0.206695
0001f0 54 c5 61 3e 8a e8 23 bd 69 9f 0d 3f a8 97 d7 bd
       0.22047931 -0.04001669 0.55321366 -0.10526973
000200 14 b1 d4 3e 5c 60 64 bd ee 18 e2 3d c2 8a 8d be
       0.4154135 -0.055755958 0.11039911 -0.27644926
000210 f3 25 ee 3c b0 90 5c 3f f9 8d 31 bf 96 18 8e bf
       0.02907083 0.86158276 -0.6935726 -1.1101253
000220 29 2a 2d 3f 0f e2 84 be 79 65 3f bf 7f a3 f6 3d
       0.67642456 -0.2595372 -0.7476421 0.12042903
000230 95 23 c3 3e 57 32 f7 3d ce 9f ba be 9e b5 87 bf
       0.38113084 0.120701484 -0.36450046 -1.06023
000240 d0 89 d8 3e 9c c7 08 3f 39 e9 a2 be 9e e6 51 bf
       0.42292643 0.5342958 -0.3181856 -0.8199252
000250 c9 96 24 3f 27 88 c6 bd 59 df 1d 3b 0f 59 e4 3d
       0.6429258 -0.09693938 0.0024089424 0.11149799
000260 13 be 0a 3f 06 11 98 be e5 40 ba be f2 4e 7c 3e
       0.5419628 -0.29700488 -0.36377636 0.2463949
000270 0b 43 e2 3e 19 03 d7 be 33 ec 81 3f e1 6f 8f bf
       0.44191775 -0.4199455 1.0150207 -1.1206018
000280 ea be 71 bf a7 d3 d7 3e 50 6a 31 3f cb 0c ad 3d
       -0.94431937 0.42153665 0.69302845 0.08449706
000290 d8 73 01 bf c3 4f 61 bf e6 bd ef be 26 85 63 bf
       -0.5056739 -0.8801233 -0.4682457 -0.88875043
0002a0 9f c6 24 3e e9 c9 b5 be 95 d1 56 3f 4d 23 28 be
       0.16091393 -0.35505608 0.83913547 -0.16419716
0002b0 d6 f4 80 be 80 5a 4f 3d 84 4f 21 bf f4 0d d7 3e
       -0.25186795 0.050623417 -0.63011956 0.42002833
0002c0 09 18 cb be f0 4a c1 bd 73 3a 9a be 36 75 48 bf
       -0.39666775 -0.09438121 -0.30122718 -0.7830385
0002d0 0f 86 53 3f 91 f0 24 3e 8a d4 25 bf 7c 7b c2 3e
       0.8262643 0.16107394 -0.64777434 0.37984836
0002e0 e6 f5 5a 3c d4 bc 4e 3e c4 6f 53 3e 1f 86 d5 3b
       0.013364291 0.2018922 0.20648104 0.0065162326
0002f0 44 86 7a 3e db bf 93 3e 70 19 89 be 50 4d 92 bd
       0.24465281 0.28857312 -0.2677722 -0.071436524
000300 ea a4 af 3f 40 3a 8e 3f ea 03 60 bd 67 ac c7 3d
       1.3722203 1.1111526 -0.054691233 0.0974968
000310 3e 54 58 bf a3 fc ac 3e 0f 0a 82 be 0f 14 01 3f
       -0.84503543 0.33786497 -0.253983 0.5042123
000320 ad 09 06 3e 14 4e aa bf 59 94 98 3e c1 28 83 be
       0.13089629 -1.3305078 0.2980068 -0.2561703
000330 0b 8b 72 3e 27 66 3f bf 21 e4 fd 3e 80 d9 ce bd
       0.23685853 -0.7476525 0.4958811 -0.101000786
000340 05 a5 da 3e 60 09 5a 3e 9a 0b 13 3f 88 80 87 be
       0.42704025 0.21292639 0.5743958 -0.2646525
000350 a6 a2 8d be 89 59 9b bc b3 3f a9 3e 2c 57 d7 3e
       -0.27663153 -0.018963592 0.3305641 0.42058694
000360 4c 26 06 3f f2 e1 0b be 54 2f bd be e8 73 04 3f
       0.52402186 -0.1366041 -0.3695017 0.5173936
000370 a2 bc 27 3e 0f 15 18 bf 1e 78 5b 3e 6d 3a 1b be
       0.16380551 -0.5940713 0.2143254 -0.15159006
000380 8b 6c 82 3e c4 89 b5 bd c8 a0 a0 3d 84 e6 9d bd
       0.25473437 -0.08864167 0.078431666 -0.07709983
000390 f3 d0 c1 3e 78 f6 ef be 5d fb ec be a1 e0 7d be
       0.37854728 -0.46867728 -0.46285525 -0.2479272
0003a0 5c d8 14 3f e4 81 d5 3e 42 0c f2 bd 31 d0 df be
       0.5814264 0.4170066 -0.11818744 -0.43713525
0003b0 dc 81 d4 3e 2b 9b 01 be 6e 66 d4 be 9a c9 2e 3d
       0.41505325 -0.12656848 -0.41484398 0.04267273
0003c0 5f c5 83 be 7e 04 1c be 4e 7d 63 3f a3 bc 25 3f
       -0.2573652 -0.15236089 0.88863075 0.6474096
0003d0 7e 67 9e bd 98 ee c3 be 39 c0 16 3f bf f2 b4 be
       -0.07734583 -0.3826797 0.5888706 -0.3534145
0003e0 03 3d 31 bc a4 bb 41 3d de 99 4d 3f 6f f4 a7 3d
       -0.010817769 0.04729809 0.8031291 0.08200919
0003f0 ad a5 eb bd 3d 72 e5 be 93 bf 37 3f 05 1b be bc
       -0.115062095 -0.4481372 0.71776694 -0.023206243

fc1.bias f4 [64]
000000 9c 14 6f bf 36 cf 24 3f 6f 9d 07 3e f0 b6 1f bf
       -0.9339082 0.6437868 0.1324365 -0.62388515
000010 04 c5 80 bf bf aa b5 3d b2 6d 77 3e 04 aa e9 3e
       -1.0060124 0.08870458 0.24162939 0.45637524
000020 f3 ea 23 bf 54 34 d0 be c2 29 a5 be d7 47 67 bc
       -0.6403038 -0.40664923 -0.3225842 -0.014116249
000030 20 3b 10 bf 30 25 8e 3e c8 83 2f bf 36 50 3a bf
       -0.5634022 0.27762747 -0.6856046 -0.7277864
000040 52 3a 5b bf e6 9a f0 be 5d 6a a9 bf c5 bc 70 be
       -0.85635865 -0.46993178 -1.3235584 -0.2350951
000050 e5 5e 15 bf 3b c1 19 bf a2 70 0e bf 04 ca 2c bf
       -0.5834792 -0.6006047 -0.55640614 -0.6749575
000060 b9 67 48 bf 35 ac a5 bf 66 76 b4 3e 3e ec 14 3c
       -0.7828327 -1.2943178 0.3524658 0.009089528
000070 5c db 44 bf 90 7b 4d bf 2a 10 61 3e ff 3f fb be
       -0.76897216 -0.80266666 0.21978822 -0.49072263
000080 98 1c e2 3d f6 d1 fa be fb 66 1e bf bb 2a ad be
       0.1104061 -0.48988312 -0.61875886 -0.33821663
000090 b4 15 52 bf 6c 93 f5 be 4a e1 b8 be db 92 28 bf
       -0.82064366 -0.47964036 -0.36109382 -0.65849084
0000a0 a2 76 ac 3d d4 e0 05 bf 82 eb 0a 3f 0c 5b b6 bf
       0.08421065 -0.52296185 0.54265606 -1.4246535
0000b0 bd 0c 17 be 0d 31 4f bf 61 af 9f be 9c 64 fe be
       -0.14750953 -0.8093422 -0.3118849 -0.49686134
0000c0 92 13 f6 be c1 6c b0 be 94 2b 0d bd 2f c4 64 bf
       -0.48061806 -0.34457973 -0.034465387 -0.8936185
0000d0 7b 2f 8d be be 87 df be 64 39 86 be 54 6d c1 bf
       -0.27575287 -0.4365825 -0.2621566 -1.5111489
0000e0 58 0b 54 bf a2 6a 25 bf a4 53 18 bf 41 fd 8f bd
       -0.8282981 -0.64615834 -0.59502625 -0.07030726
0000f0 69 da b7 bf 0b fd e6 be 1a 8b 4b bf 39 f6 35 bf
       -1.4363528 -0.4511493 -0.7950913 -0.7107883

fc2.weight f4 [32, 64]
000000 10 f8 9e 3e ce 3c a7 bc 34 1f 6c bf 88 40 86 be
       0.31048632 -0.020414736 -0.9223511 -0.26221108
000010 91 4b 0b 3f c7 95 b4 be cb ba 02 be 4a 4f af 3d
       0.5441218 -0.3527052 -0.12766568 0.08560045
000020 80 1c df be cc ad 56 3a b8 09 fd bd 85 c5 04 bf
       -0.4357643 0.000818935 -0.12355369 -0.5186389
000030 6d 90 3c be 43 3c c3 be de dd 6c be 81 39 25 be
       -0.18414469 -0.38131914 -0.2313151 -0.16135217
000040 0c 00 90 bd 38 4b 90 be 23 da 32 be 68 67 97 be
       -0.07031259 -0.28182387 -0.17466025 -0.2957108
000050 12 9b 4c bf 86 a5 3a bf 24 7a 15 3e ad d5 8e be
       -0.7992412 -0.7290882 0.14597374 -0.27897397
000060 8e 64 56 be 18 81 05 3e 50 c1 ab be 0f 8c e1 be
       -0.20936796 0.13037527 -0.33545923 -0.4405217
000070 1c 44 5a be 9d 7e 79 be 7d 20 8c be 7a 5c 99 be
       -0.21315044 -0.24364705 -0.27368537 -0.29953367
000080 56 c6 03 bf 42 10 82 bc 60 5c 08 bf 70 bd c0 be
       -0.5147451 -0.015876893 -0.53265953 -0.3764453
000090 e6 8c c1 be 28 34 d4 be 6e f9 8e be 52 50 bc bd
       -0.3780281 -0.41446042 -0.27924675 -0.091950074
0000a0 59 6f ef be 73 8d bf 3d a7 9f 2f bf 90 32 53 3e
       -0.4676464 0.09353151 -0.68602985 0.20624757
0000b0 da 63 87 be a7 61 43 bd 51 0b d8 be 66 e1 0e be
       -0.26443368 -0.04770055 -0.42196134 -0.1395317
0000c0 fe a6 39 bf a1 6c a9 be 95 ba d8 be 55 0f 98 be
       -0.72520435 -0.3309069 -0.4232985 -0.29699197
0000d0 48 91 02 bf 9b e2 b7 bd 0b c9 c9 3c f6 3c 0d bf
       -0.5100293 -0.089787684 0.024631998 -0.55171144
0000e0 2b 53 3e be 70 7a aa be ce 87 b5 bd 71 39 18 bf
       -0.18586414 -0.33296537 -0.08863793 -0.5946265
0000f0 b7 09 6d 3e 6e 4c be be 4f b3 56 3d 45 74 4e bf
       0.23148237 -0.37167686 0.052417096 -0.80646163
000100 2b ea ca be 6b 8e 00 bf fd 96 01 bd 9b f5 1f bf
       -0.3963178 -0.5021731 -0.031638134 -0.6248414
000110 5f 22 fa bd 9e 47 eb be 9c 0f e6 3d 58 34 b9 be
       -0.12213587 -0.45953077 0.11233446 -0.36172748
000120 14 81 14 bf ba 02 32 bf 45 6c 06 bf 10 0b 03 bf
       -0.5800946 -0.6953541 -0.52508956 -0.51188755
000130 cc 4c bd 3e 5b bf 32 3e 43 dd 2a bf b6 7f 3d bf
       0.36972654 0.17455809 -0.6674387 -0.74022996
000140 e1 7d 21 3e fd 9c e4 be 7c 5b e7 be e5 a6 84 be
       0.15770675 -0.44651023 -0.45186985 -0.2590858
000150 0f 6b 0c be a8 c7 8b bf e1 43 92 3e 8e 68 ec be
       -0.13712715 -1.0920305 0.28567412 -0.4617352
000160 48 05 65 bf fb 83 7d be 18 60 40 bf 48 46 9d 3e
       -0.89461184 -0.24757378 -0.7514663 0.30717683
000170 fe 1e 43 bd f3 55 23 3c e1 b9 9a be 73 ee 38 be
       -0.04763698 0.009969222 -0.3021994 -0.18059711
000180 d1 60 80 bf 0e 16 68 bf 61 be 84 be 18 d4 c3 3d
       -1.0029546 -0.9065865 -0.25926498 0.09561938
000190 e2 d0 2a 3e 5e 48 97 be b1 e8 10 bf fd 58 25 be
       0.16681245 -0.295474 -0.5660506 -0.16147228
0001a0 db 90 d1 be 1a e4 99 be 7e 7b a9 be 09 7a ef be
       -0.40930828 -0.3005684 -0.3310203 -0.46772793
0001b0 9c 58 d1 bd 78 41 ff 3d c1 1e 2d bf 15 1b 16 bf
       -0.10221979 0.12463659 -0.6762505 -0.58635074
0001c0 49 d3 89 3c 46 8f bb be 3a c9 3d 3e 87 c1 14 bf
       0.016824381 -0.36632746 0.18533793 -0.581078
0001d0 99 3f 74 be 8e fc 2a bf b2 4e 12 bf 3b dd 84 be
       -0.23852386 -0.6679162 -0.5715133 -0.25950035
0001e0 a7 ec f5 bd c0 94 ee be 3e 9a b6 3d 26 6e 16 be
       -0.120080285 -0.46597862 0.08916138 -0.14690456
0001f0 54 9c e0 be c4 a0 0b bf d3 2f fd be 41 e2 23 bf
       -0.4386927 -0.54542184 -0.4945055 -0.6401711
000200 8d e2 0f 3c 6d d1 e8 be fe ad 09 bf 6a f4 e5 be
       0.008782041 -0.4547228 -0.53781116 -0.44913036
000210 a6 1d 34 3e dd 88 83 be 69 a6 fa be 7d f8 f2 be
       0.17589435 -0.25690356 -0.48955086 -0.47455207
000220 59 a4 13 bf ed 1a dc 3d 93 a5 58 be 73 6c 2f bd
       -0.5767265 0.10747323 -0.21156912 -0.042828035
000230 2c 0c 84 be 18 56 83 bf 00 72 ef bc 83 08 34 3e
       -0.25790536 -1.0260649 -0.029229164 0.17581372
000240 bf 55 5d be 87 32 96 bd 17 cd b1 3d 8a 3e d3 be
       -0.21614741 -0.07333856 0.08681696 -0.4125865
000250 7d 44 f4 be da 26 b3 be 42 bc 3e 3d 42 7f 06 bf
       -0.47708502 -0.3499058 0.046566255 -0.5253793
000260 cc 7d 1d bf 87 90 ee 3d 5b b4 5c be ca 02 49 be
       -0.61520076 0.1164866 -0.21553175 -0.1962997
000270 77 9e 1a 3e 71 87 30 bf cd 3a c9 be ab 7e 24 bf
       0.15099512 -0.6895667 -0.39302674 -0.6425578
000280 ac b5 41 be 0f 53 c1 be c4 5c 19 3e 01 25 1e bf
       -0.18916959 -0.3775868 0.14976794 -0.61775213
000290 2c ac 81 bd 0f 81 e0 bd 69 91 4e 3d 9d f9 28 be
       -0.06331667 -0.10962116 0.050431643 -0.1650147
0002a0 0b 57 3b bf 14 ab 4e be 69 d2 78 bf f3 c4 39 3e
       -0.7317969 -0.20182449 -0.9719606 0.18141536
0002b0 40 2c d5 be 57 00 6e bf 2a f1 a2 3e 73 7d da 3e
       -0.41635323 -0.9296927 0.3182462 0.42673835
0002c0 c7 67 16 bf a0 27 f2 bd 1e 9b 76 bf 0a 44 cd bc
       -0.587521 -0.11823964 -0.9633044 -0.025056858
0002d0 85 dc d5 be 22 be 14 bf a6 2d 1a 3d 6a 7e 1d bf
       -0.41769806 -0.5810262 0.03764119 -0.6152102
0002e0 1a 72 9b 3e 21 cc 51 3e 89 92 db be 50 0b fa be
       0.3036049 0.20488025 -0.42885235 -0.48836756
0002f0 fc 6f ad 3d 99 97 f4 bd a2 8f 46 be 8a ab 91 be
       0.08468625 -0.119429775 -0.19390729 -0.28451186
000300 8a 1f 1e bf aa f4 5b be 0c 9c 29 bf c8 64 83 be
       -0.61766875 -0.2148005 -0.66253734 -0.25662827
000310 e7 9d 96 3e b6 0c 17 be bf c3 95 bf bc 07 01 bf
       0.29417345 -0.14750943 -1.1700362 -0.50402427
000320 c7 8a c8 be a7 41 24 bf dd 49 24 3e 5b 47 af bf
       -0.3916838 -0.6416268 0.16043802 -1.3693651
000330 26 c3 1f bf ee 2d 5a bf f4 44 12 3e 95 e5 a7 bd
       -0.6240715 -0.85226333 0.14284116 -0.08198086
000340 75 21 4e be 56 2a 38 be 4f ac aa 3d 98 d1 15 bf
       -0.2012995 -0.179849 0.083336465 -0.5852294
000350 ca 2b 06 3f 24 49 11 bf 1d cd b2 3d d9 bf b3 3e
       0.52410567 -0.5675223 0.087305285 0.35107306
000360 79 cb 9d 3e 2e e9 41 be 17 3c 34 bf fe 75 3d be
       0.308193 -0.18936607 -0.7040419 -0.18502042
000370 fb ae f0 be 34 49 fc bd 20 60 83 bf f3 88 77 3e
       -0.470085 -0.1231865 -1.026371 0.24173336
000380 79 87 ea be 97 73 5a bd 58 d5 b3 3e 31 0d 3e be
       -0.45806482 -0.05333289 0.35123706 -0.1855972
000390 71 60 d2 bd e6 b7 38 be 2b 44 99 3e 79 74 0c 3f
       -0.10272301 -0.18038902 0.2993482 0.54865223
0003a0 48 cf 02 bf e1 fc c4 be 08 1d 16 bf 25 74 c9 3e
       -0.51097536 -0.3847418 -0.5863805 0.39346424
0003b0 52 ba 4b 3d a4 44 c9 be 84 cf 62 3e da 23 c9 be
       0.049738236 -0.3931018 0.22149473 -0.39285165
0003c0 e4 f9 31 bf b9 0e 0a be 79 0e 2d be dc 53 49 bd
       -0.6952193 -0.13482179 -0.16900052 -0.04915224
0003d0 1b 97 80 bf 7d 82 31 bf 40 e0 1d bc 31 48 55 bf
       -1.0046114 -0.69339734 -0.009635985 -0.8331328
0003e0 3b aa c6 be b1 ab ff 3d 29 d5 ba be ee 61 15 bf
       -0.3880175 0.124839194 -0.36490753 -0.58352554
0003f0 f2 5a 15 bf 0a b2 2c 3e 55 f6 04 bf ba e7 8e be
       -0.58341897 0.16864792 -0.5193837 -0.27911168

fc2.bias f4 [32]
000000 ca 03 a8 be 0f 2c 80 bf 70 bb 6f 3f 88 be ac bc
       -0.3281539 -1.0013446 0.9364538 -0.021086946
000010 94 46 07 bf 41 03 2c bf 37 46 86 bf 13 e1 71 3d
       -0.5284207 -0.67192465 -1.0490178 0.059052538
000020 ca 83 3f bf f3 ed ee 3e d0 0d 47 bf 98 5c a1 3e
       -0.7481047 0.46665916 -0.7775545 0.31515956
000030 a8 99 e6 be ac cc 77 bf 09 db 95 bf 16 9d 9d bc
       -0.45039105 -0.9679668 -1.1707469 -0.019239943
000040 f0 f8 28 bf d2 59 83 be 23 80 1a 3f bf 98 a9 be
       -0.6600485 -0.25654465 0.6035177 -0.3312435
000050 26 ec 24 bf b0 68 28 bf ba 12 40 bf 56 fb ff be
       -0.64422834 -0.6578474 -0.75028574 -0.49996442
000060 77 25 5b bf 19 8f fe be 1c 84 29 3f bb a2 b6 3e
       -0.8560404 -0.4971855 0.6621721 0.35671028
000070 48 e8 99 bf fa 07 59 bf fc 1d 20 bf bb d9 1b 3f
       -1.2024012 -0.84777796 -0.6254575 0.60879105

fc3.weight f4 [1, 32]
000000 96 24 a8 bd 29 3b 1d bd 43 bb d8 bd 13 74 c0 bd
       -0.08210103 -0.038386498 -0.10582592 -0.093971394
000010 6e c1 b1 bd 33 7a 7c bd 55 88 41 bd 70 20 d7 bd
       -0.08679472 -0.061639976 -0.047249157 -0.10504234
000020 8b 84 8e bd 30 af 80 bd 89 3e f2 bd 4c 80 f9 bd
       -0.06958874 -0.06283414 -0.11828334 -0.12182674
000030 f5 e6 fc bd 42 11 d1 bd 20 b4 8b bd ec f9 ae 3c
       -0.12348739 -0.1020837 -0.068214655 0.021359406
000040 41 3a f6 bd 7f a2 21 bd 87 ff bb bd 30 9d c2 bd
       -0.1202283 -0.03946161 -0.09179597 -0.095026374
000050 a7 fe 0b be 24 82 bf bd 2b 1e f5 bd 97 8e 8d bd
       -0.13671361 -0.09350994 -0.11968645 -0.069119625
000060 9d 79 9a bd 0a 98 27 3d f2 84 74 bd a7 b0 9b bd
       -0.07542727 0.04091648 -0.0596971 -0.07602053
000070 1a 0a a7 bd 00 9a 96 bd 5c 6e ad bd da 94 bf bd
       -0.081562236 -0.07353592 -0.08468315 -0.09354563
