Models/TrainedModels/FCNNs/FCNN2.pt (torch, 94795 bytes, 25 tensors)

weight f4 [64, 22]
000000 f7 80 9f bc 7f d7 87 3e b7 19 2e be be a8 0d 3d
       -0.019470675 0.26531598 -0.17001997 0.034584753
000010 86 78 6d 3d d2 ca 7e 3e 89 46 0b 3f 2e db 9d 3d
       0.05797627 0.24882057 0.54404503 0.07707821
000020 10 55 ff 3d 08 b6 c4 bd 3f 9e b7 3d 33 58 d0 bd
       0.12467396 -0.09605032 0.0896573 -0.10173073
000030 6b 97 50 3e 73 29 2b 3d 1b 1e 05 3f 37 62 01 bf
       0.20370261 0.041787576 0.5199906 -0.5054049
000040 05 2b b1 3b 66 b9 40 3f 93 82 9e be d6 3c 54 bd
       0.0054067397 0.75282896 -0.30958995 -0.05181583
000050 e1 67 cd 3d a9 bf 1c 3d 0d c8 00 bf 2b 90 74 bf
       0.10029579 0.03826872 -0.50305253 -0.9553248
000060 71 19 3c be d6 b2 85 3d df 62 0f 3f c7 44 bd 3d
       -0.1836908 0.06528251 0.5601024 0.09241634
000070 31 ce 68 bf 04 ff e7 be 5a fe 0b be 73 7e 12 bf
       -0.90939623 -0.4531175 -0.13671246 -0.57224196
000080 e1 e4 98 be 8f de 47 bd a5 58 32 3f 6c ec 9e 3e
       -0.2986212 -0.048796233 0.6966651 0.3103975
000090 a3 d7 06 3e 77 90 d2 bd 20 27 03 3e 01 ea 3f 3e
       0.13168196 -0.10281461 0.12807894 0.18741609
0000a0 54 e1 38 3e fb 69 ac be e4 3f 53 3e b0 6e 81 bf
       0.18054706 -0.33674607 0.20629841 -1.0111904
0000b0 09 88 23 bf 7d 75 02 3f cc e6 2c bf 63 c0 dd be
       -0.6387945 0.5096052 -0.6753967 -0.43310842
0000c0 ec 7c bc be 21 05 e5 be 58 62 eb be 89 cb 36 3e
       -0.36814058 -0.44730476 -0.45973468 0.1785108
0000d0 e5 22 5c be 1e f1 67 be d8 95 5e bf 20 54 84 bf
       -0.21497686 -0.22650573 -0.86947393 -1.0338173
0000e0 14 3b 8a be b2 42 08 bf 67 14 3c 3f 9b 02 1e bf
       -0.26998198 -0.5322677 0.7346863 -0.61722726
0000f0 30 ce ac bd 00 e7 18 bd 2c fa 0b 3f e9 92 95 be
       -0.08437765 -0.037329674 0.54678607 -0.29213646
000100 5b 14 26 bf de 6c 59 3c c3 73 7f 3f c5 80 bc 3e
       -0.6487481 0.013270585 0.99786013 0.36816993
000110 3f f9 47 be d3 82 37 bf 4e 30 68 3e a1 f5 ae bd
       -0.19528674 -0.71683997 0.22674677 -0.08542944
000120 98 42 b0 bc 9b 00 0e be 04 e0 59 3d e0 50 53 3e
       -0.02151613 -0.13867418 0.053192154 0.2063632
000130 c9 10 61 3c 8d 46 b1 be 5e 6e 4d be 8f 2f 06 3e
       0.013736912 -0.34624138 -0.20061633 0.1310408
000140 51 78 2f be d0 66 82 3e fd a0 1d 3f 2b 7b a4 bf
       -0.17135741 0.25469065 0.61573774 -1.2850088
000150 84 cd 07 bc 2e 4f c6 3e 7d 4f 4c 3e c1 35 b9 3e
       -0.008288745 0.38732284 0.19952197 0.36173823
000160 a6 46 8f bf ef d3 3e be 34 9c 43 3e 8a f7 1d bf
       -1.1193435 -0.18635534 0.19102556 -0.6170584
000170 2f 34 c0 3e 60 a0 b9 be 11 87 e2 3c a6 10 9d 3e
       0.37539813 -0.3625517 0.027652295 0.30676764
000180 ee 87 eb 3e a3 e6 2f bd 0b 55 91 bc 34 95 41 3f
       0.46002144 -0.04294456 -0.017740747 0.7561829
000190 03 76 2c 3c 7c 28 7b bf fe d5 a1 bf 3e ce 87 3d
       0.010526183 -0.9810865 -1.264343 0.066311345
0001a0 86 9c 5c 3d 21 91 19 3f 71 9b 8a 3f 56 53 bd be
       0.05386021 0.59987074 1.0828687 -0.36977643
0001b0 82 27 10 3e fa e1 23 3f 3f 32 8d 3e 91 19 9f be
       0.14077571 0.6401669 0.27577397 -0.31074193
0001c0 3e 29 aa bc 9d d4 2c bf b7 39 d2 3e 53 99 4a be
       -0.020771619 -0.6751192 0.41059658 -0.19785051
0001d0 7d 6a 0c bf e1 c2 b4 bd c0 67 16 3d 09 e2 33 3e
       -0.5484999 -0.08826233 0.036720037 0.17566694
0001e0 76 f6 1d 3f 4c c7 f5 bc 75 00 ce be 7b 2f 07 3f
       0.61704195 -0.030002259 -0.40234724 0.52806824
0001f0 4f fd 41 3f 73 22 17 3f 9f d1 95 bd ef 51 5d bf
       0.75777143 0.5903694 -0.07315373 -0.86453146
000200 9a 09 3f 3f 5a df 7e bf a4 cf 00 3f 71 7d c2 3e
       0.74624026 -0.9955956 0.50316834 0.3798633
000210 bc d2 f0 be 7d 77 89 be cd 8e 35 3e b1 ed 3c bf
       -0.47035778 -0.26848975 0.17730255 -0.7380019
000220 fe 27 06 3f c2 0c 70 bf fa 83 15 bf 94 4f 2c bf
       0.52404773 -0.93769467 -0.58404505 -0.67308927
000230 fe ca 48 3e 36 b5 d2 3c 6e 16 13 3f 2c ff c5 bc
       0.19608685 0.025721174 0.574561 -0.024169527
000240 cd 32 4c 3d 91 3a 4a be 5a 34 0e bf 7e c0 9c be
       0.049853135 -0.19748904 -0.5554863 -0.3061561
000250 4e 57 6f 3e 47 a0 0c 3f f1 6d 9e 3e b1 ae f0 be
       0.23373148 0.54932064 0.30943254 -0.4700828
000260 7d 24 1f bf a7 60 13 3e 04 3b c5 bd 99 b0 30 bf
       -0.6216505 0.14392339 -0.09630397 -0.69019467
000270 db 30 fc 3e 7a 21 e0 3e 54 f1 f1 3e 96 30 aa bd
       0.49256024 0.4377554 0.4725443 -0.08310048
000280 4d 52 9c bf 73 74 90 bf 4d 73 14 3e 73 3d a4 3d
       -1.2212616 -1.1285537 0.14497109 0.08019533
000290 d2 6c cd be e9 cc a3 3e fa 99 ba 3d 8c cc 98 be
       -0.40122086 0.31992272 0.091114 -0.29843557
0002a0 f7 cf 98 3e 3e a0 f3 3c ea c2 b7 3e de c8 bf be
       0.29846165 0.029739495 0.35890895 -0.37457937
0002b0 35 91 1f 3e 20 fb a0 bf eb e8 88 3a 4d 13 19 3f
       0.15582736 -1.2576637 0.0010445392 0.59795076
0002c0 09 a7 8c 3f 37 5e 56 bf 23 39 c9 bd 5e 5a e8 3e
       1.0988475 -0.8373751 -0.09825351 0.45381445
0002d0 a5 e6 1d bf b0 a5 34 3f 30 d4 95 bd a9 23 fc bd
       -0.6168006 0.7056532 -0.07315862 -0.12311489
0002e0 1f a8 67 bf 75 ff 88 3e aa d6 77 bf 9f d7 79 3e
       -0.9049091 0.26757398 -0.96811926 0.24398659
0002f0 8b 5e 05 3e 58 1f 0e bf 54 f9 88 3e 88 3f a9 be
       0.13024347 -0.55516577 0.26752722 -0.33056283
000300 56 74 86 3e b9 2a 92 3e 3f 08 f9 3e eb 3d 25 3f
       0.26260632 0.2854822 0.48639104 0.64547604
000310 72 da 39 bf 39 b1 e2 bc 07 32 97 bc de 45 16 3e
       -0.72598946 -0.027672397 -0.018456472 0.1467509
000320 e2 d1 43 3c 01 43 88 be c7 a9 df bd 09 cd 09 3f
       0.011951895 -0.2661362 -0.10921054 0.53828484
000330 ea f6 6d 3f b4 9b 0a 3f aa 89 17 bd fe f1 19 3e
       0.92954886 0.54143834 -0.03699652 0.15033719
000340 45 d9 01 3e ff c9 6d 3d 58 4e 38 be 8c 32 c9 3e
       0.12680538 0.058053967 -0.17998636 0.39296377
000350 7d 7b 41 3e 96 a9 44 bd d0 d7 99 3e 47 10 86 3e
       0.18894763 -0.048013292 0.30047464 0.26184294
000360 81 06 4a be 68 5c 99 3f 2a ac 6d bc e3 2d 26 3f
       -0.19729044 1.1981325 -0.014506379 0.6491377
000370 17 b5 28 3f 5a bc 11 3d 6b 86 75 3e d7 21 e3 3e
       0.6590132 0.035580017 0.23977058 0.44361755
000380 f1 77 de bc 5e 38 c8 be 7c f8 bb be 7b 0c cb 3e
       -0.027156802 -0.39105505 -0.36713016 0.3965796
000390 08 55 19 3d 62 2f b1 be 37 cc 08 be 5b be d8 3e
       0.037434608 -0.34606463 -0.13359152 0.4233273
0003a0 56 6d be 3d de a4 26 3f a7 0e 16 bf 2a 65 47 3f
       0.09298198 0.6509532 -0.5861611 0.7788874
0003b0 91 6a b6 be f6 fc 53 3e e7 e4 0f 3f 47 de 73 bd
       -0.3562818 0.20701966 0.5620865 -0.059538152
0003c0 c6 63 8e 3f f1 d4 ab 3e c3 40 bc 3e 39 86 c8 be
       1.1124198 0.335609 0.3676816 -0.39164904
0003d0 be 07 91 3e 3b 03 10 be 9f ac 53 be 48 99 43 bf
       0.2832622 -0.14063732 -0.20671318 -0.76405764
0003e0 74 28 07 3f 46 e5 ec be f9 e0 6f 3e ac e5 dd be
       0.527961 -0.46268672 0.23425664 -0.43339288
0003f0 77 58 30 3e 13 f4 e8 bd d3 a1 39 3f 11 a3 0c 3e
       0.17221247 -0.113746785 0.7251255 0.1373408

bias f4 [64]
000000 cf 6f ac 3e 63 cf 33 bf 9e 6c 6c 3d 79 8c 10 bf
       0.33679053 -0.7023832 0.057720773 -0.56464344
000010 1a 79 29 be 80 a8 83 bf 15 2a 38 3f 0b 76 f5 be
       -0.16550103 -1.0285797 0.7193921 -0.47941622
000020 e2 19 b9 bf 75 f7 fc be 32 86 c6 bf 08 40 19 bf
       -1.4461024 -0.49407545 -1.5509703 -0.5986333
000030 d1 ec c4 be 5f e3 af bf 68 7d 80 be be 66 48 bf
       -0.38461927 -1.3741263 -0.25095677 -0.7828177
000040 c5 fc 1d bf f4 e0 17 bd 11 c4 1e 3e f3 79 07 3d
       -0.6171382 -0.037079766 0.15504481 0.033075284
000050 e9 d4 0f 3e b3 81 54 be 71 ee 20 3f 3f 56 d2 be
       0.14046063 -0.20752601 0.6286383 -0.41081426
000060 8b a8 4b bf cf d1 6c 3f de f0 1e be 6f 8a 1a bf
       -0.7955405 0.9250764 -0.15521571 -0.6036748
000070 be 39 9d be 78 1d 85 bf 07 4a 3d 3d dd 2f 2b bf
       -0.30708116 -1.0399618 0.046213176 -0.6686991
000080 1f 03 cc be 27 f4 da be 4f d2 ae 3d a6 9b 9a 3d
       -0.3984613 -0.42764398 0.08536207 0.07549219
000090 90 04 36 bf 83 2c 30 3f 50 12 7d be de 83 d0 bf
       -0.7110071 0.6881792 -0.24714017 -1.6290243
0000a0 86 73 b6 3d 6e 1c 34 bf f7 66 41 bf 62 fd 9b 3e
       0.08908753 -0.7035588 -0.75547737 0.30466753
0000b0 99 85 07 3e 69 54 d0 bd 34 22 b9 bf 09 ff 85 bf
       0.13234557 -0.1017235 -1.4463563 -1.0468456
0000c0 c0 5e 31 3f 9e c5 61 bf ce e4 91 bf 29 ae 9c bf
       0.692852 -0.88192165 -1.1397951 -1.224065
0000d0 4b 9a b6 be 1b c7 81 bf fd 93 84 be 35 df ba be
       -0.3566459 -1.0138887 -0.25894156 -0.36498418
0000e0 26 62 56 bf 9b 94 3e bf 76 4e 1e bf 77 2b 64 bf
       -0.8374351 -0.74445504 -0.6183847 -0.8912882
0000f0 fd 13 81 3d b5 83 9e 3d 63 53 83 bf 40 1e 82 bf
       0.063026406 0.07739965 -1.0259823 -1.0165482

weight f4 [128, 64]
000000 ce 1e 20 3d 80 83 43 bf 94 d1 c7 be 6b 26 3c be
       0.039091878 -0.7637253 -0.39027083 -0.1837403
000010 ea 86 d4 be ae cf 9b 3d 9e 04 49 bd 19 81 91 be
       -0.4150918 0.07607971 -0.04907667 -0.28418806
000020 6d ab 8b be 42 80 bf 3e 60 9b 24 3f 72 12 e6 3d
       -0.27279225 0.3740254 0.64299583 0.11233987
000030 f4 81 1b bf e3 53 58 3e 20 4f 27 be 05 44 b7 be
       -0.6074517 0.2112575 -0.16338778 -0.35794082
000040 a3 36 41 3d 1f d0 95 3e 0b 45 3f be d3 93 b0 3e
       0.047171246 0.29260346 -0.18678682 0.3448778
000050 35 24 c4 be 99 74 12 be 2e 18 a3 bd a5 44 ff bd
       -0.38308874 -0.14302291 -0.07963596 -0.12464265
000060 b6 0f 41 3e 6d 70 12 bf e5 d1 86 3d c1 8b 4f be
       0.1885365 -0.572028 0.06583003 -0.20268156
000070 7a 50 de bd df 4e 64 be c9 e1 86 ba eb 2c 3d be
       -0.108551934 -0.22295712 -0.0010290678 -0.18474166
000080 3e 94 a6 3e 2f 16 46 be 21 2f d7 be 49 b5 fd be
       0.32534975 -0.193444 -0.42028144 -0.49552372
000090 46 65 d0 3e 58 2e 5d 3f b7 75 6c ba f2 c7 12 3f
       0.40702266 0.8639884 -0.00090202264 0.5733634
0000a0 04 d1 80 bf 1f ed e4 bd 5d 9f 25 bd 1c 84 8e 3e
       -1.0063787 -0.1117804 -0.040435184 0.27835166
0000b0 e3 98 8e 3e 4c dc 6f bd 40 1a 1d 3e 84 5a 10 be
       0.27851018 -0.0585597 0.15342045 -0.14097029
0000c0 f2 ca ab 3c 96 5e b9 3e 68 58 a7 3e 29 d7 66 bf
       0.020970795 0.36204976 0.32684636 -0.9017206
0000d0 83 b3 d2 3e 73 2c 43 3e ea e7 17 3f 8f 21 21 bf
       0.41152582 0.19059925 0.5933825 -0.6294183
0000e0 7c d5 c1 3d 14 0f 00 3d f6 0a 83 be dc 1f 16 bf
       0.09464547 0.03126438 -0.255943 -0.58642364
0000f0 12 8f 3b 3e ea 36 b5 be 6f a4 9a 3e 5d 03 36 3d
       0.18316296 -0.3539346 0.30203578 0.0444368
000100 90 6b 81 3e 9e 85 c8 be 9d 5d 60 be 8e 27 0c 3e
       0.25277376 -0.39164442 -0.2191071 0.13686964
000110 35 c6 30 3f 99 03 7b bd bb 81 4b 3e 2d 3f 4a 3e
       0.6905244 -0.061282728 0.19873707 0.19750662
000120 b4 9c 2e bb 08 0f 02 3e 8b 61 02 3f 08 e2 ef 3a
       -0.0026643695 0.12701046 0.5093009 0.0018301615
000130 c3 c9 bb 3e 02 99 48 be 36 b0 2a bc 71 78 12 b8
       0.3667737 -0.19589618 -0.0104179885 -3.4921282e-05
000140 49 66 3a be ee 85 0b 3e 79 a7 2a 3e f8 44 3e 3e
       -0.18203081 0.13625309 0.16665448 0.18580997
000150 29 1d e1 3e 95 b0 0a bd 98 fa f7 bd b7 c8 fa be
       0.4396756 -0.033859808 -0.12108344 -0.48981258
000160 88 81 3b be 54 5f 5b be 23 b4 9d bd 96 ee a8 be
       -0.18311131 -0.21423084 -0.07700374 -0.32994527
000170 5a cc 8f 3e 02 af 3d 3f 13 98 3c 3e b9 66 3f bf
       0.28085595 0.74095166 0.18417387 -0.7476612
000180 d1 7e 11 3f 36 3d 7c 3d 24 57 93 be f8 98 d2 3e
       0.5683413 0.061581813 -0.2877742 0.4113233
000190 99 b7 19 be 7a 0c 9b be ac a8 ae be 6e 55 07 3d
       -0.15011443 -0.30282956 -0.3411306 0.033040456
0001a0 3c d8 67 be 1c 54 54 3d 98 2b 88 3d f8 c7 a9 3e
       -0.2264108 0.051838025 0.0664894 0.33160377
0001b0 e3 9e f7 3d 8e 87 22 be 3f a0 ff 3e 83 97 5b bd
       0.12090852 -0.15872023 0.49926946 -0.05361129
0001c0 80 7a c9 3d e8 3e 20 bd 2a ed c6 bd cc 15 6b 3b
       0.09837818 -0.039122492 -0.09713204 0.0035871146
0001d0 12 ae 45 be ce a7 fb bc e8 25 70 bf 74 4d b9 3e
       -0.19304684 -0.030719664 -0.9380784 0.36191905
0001e0 50 ab 66 3e 5d 6d 8b be 16 3e 2a bf f9 77 f6 3d
       0.22526288 -0.27231875 -0.66500986 0.12034602
0001f0 c1 5c 3f bf 89 62 86 be 4d 41 d3 3e 16 6b 9d 3e
       -0.74750906 -0.2624705 0.41260758 0.30745763
000200 9b 02 73 be 74 94 3e 3e 01 c6 40 be 6e 3d bb 3e
       -0.23731463 0.18611318 -0.18825532 0.36570305
000210 d4 eb f9 3d 5d 37 31 3a 1d 62 67 3e c0 38 ea be
       0.12203184 0.0006760264 0.22596021 -0.45746422
000220 3d cd 4e bf d5 fc fb 3e 8e 6a dd 3e 60 d1 63 3e
       -0.8078192 0.49216333 0.43245357 0.22247839
000230 06 ea e4 be c9 a3 42 bd d1 60 11 3e 8f 37 3e bf
       -0.44709796 -0.04751948 0.14197089 -0.74303526
000240 e3 78 4a be 0f fd 48 3e d0 70 44 bf 47 88 1b bf
       -0.19772677 0.19627784 -0.7673464 -0.6075482
000250 df e9 df 3e d9 41 2a bf 6f f0 60 bf 17 f2 72 bf
       0.43733117 -0.66506726 -0.8786687 -0.9490065
000260 56 24 46 3e 4f f8 3a 3f 24 e8 42 bf 4b 08 0c be
       0.19349799 0.7303514 -0.7613547 -0.13675039
000270 ed d7 5c bf ab 94 3d 3e 8d da 75 be f6 b8 9b be
       -0.86266977 0.18513744 -0.24009152 -0.30414551
000280 4d e5 d6 3e b0 cf 7f 3e 82 92 ea 3e c4 b1 49 3f
       0.41971818 0.2498157 0.45814902 0.78786874
000290 15 1c c4 be b8 91 0d bf 01 c7 1a bf 7a 39 96 be
       -0.38302675 -0.55300474 -0.60459906 -0.29340726
0002a0 d7 ea 41 3d 95 0f 3a 3e e8 03 89 3e 98 77 b1 be
       0.0473431 0.18170007 0.26760793 -0.34661555
0002b0 e6 fb 3a be 39 32 8e 3f 8a 9c 39 bf 74 a5 8f 3e
       -0.18260154 1.1109077 -0.72504485 0.28055918
0002c0 e8 47 63 3f 14 05 98 be 5a 48 14 3f 29 31 04 3f
       0.88781595 -0.29691374 0.579229 0.5163751
0002d0 61 b1 37 3e 84 88 d4 3e 14 ba 22 bf b5 df aa 3b
       0.17938758 0.41510403 -0.6356518 0.0052146562
0002e0 44 35 7f be 4e 40 3d be b5 74 c8 3d 3b 98 ae bd
       -0.24922663 -0.18481562 0.09787885 -0.085251294
0002f0 d7 71 12 bf 79 4d 47 3e b6 37 04 bf 3d 58 a7 bd
       -0.57204956 0.19463147 -0.5164751 -0.08171127
000300 c7 60 3a be fb 72 a6 bd 0f d8 54 be be b9 a4 3e
       -0.1820098 -0.081273995 -0.20785545 0.3217296
000310 4c 83 81 bc a6 48 e8 bd fb c0 40 be 52 04 8f be
       -0.015809678 -0.113419816 -0.18823616 -0.27932984
000320 ed c0 de be a9 e7 aa bd b1 1a ee 3e 61 70 02 3e
       -0.43506566 -0.08344967 0.4650474 0.12738182
000330 85 fc 84 3e 07 b7 d4 be ec 33 b6 be 15 26 8b 3e
       0.25973907 -0.4154589 -0.35586488 0.27177492
000340 71 c7 1c be 50 5f c0 be b9 22 f9 be 66 46 3c 3e
       -0.15310456 -0.37572718 -0.48659304 0.1838623
000350 21 ef 0a 3d f1 cc 5a 3e c2 bc f7 be 92 94 de b9
       0.033919457 0.21367241 -0.48386198 -0.00042453833
000360 87 e7 53 3e 68 da 09 3e ea 31 ae bd 7f a0 87 be
       0.2069379 0.13462222 -0.08505614 -0.26489636
000370 bf 57 2a 3f f4 18 fd 3e 92 0d e0 3d b9 d9 8d be
       0.6654014 0.494331 0.10940088 -0.27705172
000380 fe 1b d3 bc e6 27 0a 3f aa ba e4 3e 5b 2c 22 3e
       -0.025770184 0.5396713 0.44673663 0.15837233
000390 05 a0 5a be 9c b8 b2 be 9a 4f cd 3e 77 dc 2a be
       -0.21350105 -0.3490647 0.40099794 -0.16685663
0003a0 76 7f 47 3e 30 d5 29 3e 8c 35 14 3e d8 05 a7 3d
       0.19482216 0.16585231 0.14473552 0.081554115
0003b0 4c 7f 83 be 5f 73 0d 3d 78 0b bb 3d c5 09 a7 bd
       -0.25683057 0.034533855 0.09133047 -0.0815616
0003c0 db 09 a9 3e 01 3f 48 be 65 9f 2d 3d d3 07 e9 3e
       0.33015332 -0.19555284 0.04238834 0.45513782
0003d0 03 48 25 bb 6e 1f 66 3e 0b b7 28 bf 6a 23 1f be
       -0.0025219924 0.22472927 -0.659043 -0.15540853
0003e0 55 92 40 be a0 4c 60 3e 3f 4c 7b be 3e f4 c7 3e
       -0.18805821 0.2190423 -0.24540804 0.3905353
0003f0 de 9a 7c be 74 a2 78 bd b7 3f 2c be 5e b4 18 3f
       -0.24668452 -0.060701802 -0.1682118 0.5965022

bias f4 [128]
000000 17 28 ef be c6 bc 02 be 53 a9 4c be 8e e3 a1 bc
       -0.46710274 -0.12767324 -0.19986467 -0.019761827
000010 a8 31 56 be 7b 35 8d bf 6f 71 10 bf fe b0 b2 be
       -0.2091738 -1.1031946 -0.56423086 -0.3490066
000020 36 ad 07 bf 51 0f af be 6e 3e 98 bd 48 37 e3 bd
       -0.52998674 -0.34191373 -0.074337825 -0.110945284
000030 ee 6b 22 be 8c d9 20 bf 59 f7 0f bf 94 f4 81 bf
       -0.15861484 -0.6283195 -0.562368 -1.0152764
000040 b4 91 8a bf ac ee e9 be 9e 05 00 bf 89 3f 93 be
       -1.0825715 -0.45689905 -0.5000857 -0.2875941
000050 ed 30 1f bf b2 14 2d bf 2e 09 88 3e b8 d9 76 3e
       -0.6218403 -0.67609704 0.26569504 0.2410649
000060 16 eb 13 bf bb f4 11 3e 69 61 44 bf 92 29 f9 be
       -0.5778059 0.14253514 -0.76711136 -0.48664528
000070 05 3b 34 be 91 c0 e2 bc 82 1b 34 3c 52 28 cd 3d
       -0.17600639 -0.027679713 0.0109928865 0.10017456
000080 e9 1b 87 be 09 48 3d be 2a dc f5 be cf 65 9c be
       -0.2638848 -0.1848451 -0.48019534 -0.30546424
000090 5c 6d 97 be 89 8e ca be 38 6a 02 bf 89 ab f8 be
       -0.29575622 -0.3956187 -0.50943327 -0.4856837
0000a0 af 99 90 3c 63 f3 6a bf b3 dd d6 bd 1c 4c e1 be
       0.017651407 -0.9177763 -0.104915045 -0.4400338
0000b0 4d 55 1a bf 8d 5a 5a be a5 13 91 be d0 82 e0 bd
       -0.6028641 -0.21323605 -0.283353 -0.109624505
0000c0 67 df e0 be 80 42 6e bf 30 bb 22 bf 79 b8 90 be
       -0.43920442 -0.9307022 -0.63566875 -0.2826574
0000d0 f5 c9 8a 3d 54 a5 43 bd 4a 64 ef 3c 35 ae 06 bf
       0.067768015 -0.04776509 0.029222626 -0.5260957
0000e0 a7 c6 01 3e 10 4d 5e be e1 78 35 3c bc da e9 bd
       0.12673436 -0.21709085 0.011076183 -0.114186734
0000f0 b1 5c 01 bf d1 05 96 bf ea 02 e6 3e d5 a1 56 bd
       -0.5053206 -1.1720525 0.44924098 -0.05240043
000100 6b 8e 7e be bc 8d 9e 3e bb c0 5a 3e bf f6 f6 3e
       -0.24859016 0.3096751 0.21362583 0.48235127
000110 96 05 19 be 2c 1c 95 be 59 55 7c be 2e 78 93 be
       -0.14943537 -0.29123056 -0.24641933 -0.28802627
000120 af d2 0a 3e ad db 58 3d 2d 4a 2c bf 94 92 55 be
       0.13556932 0.052943874 -0.67300683 -0.20856696
000130 d4 cb c0 bd 96 0b b6 be da 08 1b bf 83 90 65 3d
       -0.09413877 -0.35555714 -0.6056038 0.05604602
000140 ab 08 95 bf 17 66 2a bf 55 f7 3a bf 88 d7 20 3d
       -1.164327 -0.66562027 -0.7303365 0.039268047
000150 15 4b 2f bf cf 4b ab be 92 61 ac be 01 1c 74 be
       -0.6847394 -0.33456275 -0.3366819 -0.23838808
000160 07 73 da bd 01 d7 13 bf 7a 09 c4 3d 35 09 34 bf
       -0.10666471 -0.57749945 0.0957212 -0.7032655
000170 cc d3 2c be b4 2b 53 be 4c 5b f7 be 52 c2 e6 be
       -0.16877669 -0.2062214 -0.4831184 -0.4507013
000180 98 ba 81 be 83 dd ad be 33 f9 f8 be 71 4b b8 3c
       -0.25337672 -0.33958063 -0.48627624 0.02249691
000190 14 49 0e bf 6f bd 36 be 27 34 a9 be be d9 7d be
       -0.5558026 -0.178457 -0.33047602 -0.24790093
0001a0 6c ab 1f bf 83 b7 2e bf f7 b6 f2 bc b3 56 3b be
       -0.62370944 -0.68248767 -0.02962826 -0.18294792
0001b0 3f 0f 78 bd 2f 33 84 be 30 12 17 bd df b0 02 bf
       -0.060561415 -0.258203 -0.03688258 -0.51051134
0001c0 0d 96 dd bd 5d 40 c9 3e e7 85 a9 3e f9 1e 83 3e
       -0.108196355 0.39306918 0.33109972 0.25609568
0001d0 06 c1 6a 3d 6e 04 9c 3e b9 e8 03 bf 1e 19 32 bf
       0.057312988 0.3047213 -0.5152698 -0.69569576
0001e0 9c 87 9d 3c da 9e ec be df f1 00 bf d5 5b 42 3d
       0.019229703 -0.46214944 -0.50369066 0.04745086
0001f0 b2 a3 5f be 99 49 35 bf 0b 6d 39 3e 72 7b 37 bf
       -0.21839789 -0.70815426 0.18108003 -0.7167274

weight f4 [64, 128]
000000 f9 39 38 be 2d 6d b3 3d ac 4a b7 bc 2e e4 54 3e
       -0.17990865 0.08761058 -0.022374474 0.20790169
000010 f8 f0 55 3d 7b 47 2a be 03 66 38 be a4 38 8b bc
       0.05223176 -0.1662883 -0.18007664 -0.016994782
000020 0e c4 52 3d 34 f1 c2 bd af bb 9a be d6 27 4c be
       0.051456504 -0.09518662 -0.30221316 -0.19937071
000030 cb 84 65 bd 41 0e 91 be 1e ef 33 3e 9e fb 63 bd
       -0.056034844 -0.28331187 0.17571685 -0.055659883
000040 91 12 fe 3b 93 ce d4 be dd 02 99 be 07 97 b2 bd
       0.007753678 -0.41563854 -0.29884997 -0.087202124
000050 c8 dc 43 be 6f 24 ec bd 98 9c 7d 3e 5a 2d df bd
       -0.1912719 -0.11530387 0.24766767 -0.10897322
000060 e2 b5 4e be 82 71 60 3c e1 24 81 bc 9c b8 3b be
       -0.2018657 0.013698937 -0.015764656 -0.18332142
000070 25 2f 8b be fc 06 0f be df 46 90 bd a9 47 62 bc
       -0.27184406 -0.13967508 -0.070447676 -0.01381103
000080 fd e8 33 be 07 c5 90 be 5e 08 d3 3d 49 7d 05 3d
       -0.17569347 -0.2827532 0.1030433 0.032590184
000090 32 e2 2f 3e 3d 01 81 be d0 83 c3 be ac 8e 3c 3e
       0.1717613 -0.25196257 -0.38186502 0.184138
0000a0 d5 10 5f 3e 66 05 10 be 3d 9a 54 3b e8 44 e2 be
       0.21783765 -0.1406456 0.0032440566 -0.44193196
0000b0 6c 6d 65 be ea 36 89 be f9 6a 47 bd 28 af 39 be
       -0.22405022 -0.2679971 -0.048686 -0.18133223
0000c0 78 56 e0 3d 78 94 8f 3c be 6f c1 3d 56 ed 15 be
       0.109539926 0.01752685 0.09445141 -0.14641318
0000d0 a1 48 bd bc fa 62 b9 3c c4 c3 b9 3c 95 64 4f 3e
       -0.023105921 0.022630204 0.022676356 0.20253213
0000e0 43 05 1b be 68 a7 60 3e 30 d9 22 3e 29 d5 75 3d
       -0.15138726 0.2193886 0.15903163 0.06001774
0000f0 f0 b2 63 3e 4c ab a3 be 36 de d6 bd a5 96 85 be
       0.22236228 -0.31966627 -0.10491602 -0.26091495
000100 ae 01 13 bd 41 21 99 bd 8a c5 1e bd 97 53 15 be
       -0.035890274 -0.07477046 -0.038762607 -0.14582668
000110 43 30 5e bc 0f a2 00 3e 3e 41 79 3c 77 45 3a be
       -0.013561311 0.1256182 0.015213309 -0.18190561
000120 cd 9c f3 bb d7 d1 88 3e 76 45 14 be 30 9b 0a 3e
       -0.0074344636 0.26722595 -0.14479622 0.13535762
000130 d7 19 67 be 9a df 5e bd 08 be ea bd 5a f9 04 be
       -0.22568451 -0.05441246 -0.11462027 -0.12985745
000140 be 0b b1 3e 3c e9 0e 3e ad 89 80 3d 40 52 5d bd
       0.3457927 0.1395616 0.062762596 -0.054033518
000150 48 73 41 3d b5 ca c0 bd 27 9e 7f be 86 53 4b be
       0.04722908 -0.09413663 -0.24962674 -0.1985608
000160 57 cc 09 be ed 6a f4 be fc 7d 35 be e9 9e 11 be
       -0.13456856 -0.47737828 -0.1772384 -0.14220776
000170 ca 1b 96 bd d8 55 ee bd cb 93 88 3e 37 60 92 be
       -0.07329519 -0.11637467 0.26675257 -0.2858903
000180 ea 4f 53 bd 37 7c 9e be b5 a6 2f be 2b 76 a2 3d
       -0.051589884 -0.30954143 -0.17153437 0.07932695
000190 74 4d b1 3e f7 49 ef bd b5 f4 d2 be 7b 74 b1 bd
       0.34629405 -0.116840295 -0.41202322 -0.08664795
0001a0 90 36 83 be 7b 3a 6f 3e a8 76 71 bd 4c 67 22 be
       -0.25627565 0.23362152 -0.05895105 -0.15859717
0001b0 e3 aa 1b 3d 86 29 f8 bc 91 0e a6 bd 2c 10 ab 3c
       0.038004767 -0.030293237 -0.08108247 0.020881735
0001c0 e5 33 28 be dd 13 b0 3d b7 68 48 be 5d 98 90 bd
       -0.16426046 0.085975386 -0.19571196 -0.07060311
0001d0 32 95 96 be 65 df a8 3d c8 f3 03 be dc 2e 0e bf
       -0.29410702 0.08245734 -0.12885964 -0.5554025
0001e0 86 c0 9c be 49 1d 4b bd 45 4c bf 3e cb f4 b6 be
       -0.30615634 -0.049588475 0.37362877 -0.35733637
0001f0 04 ad 27 be a1 71 d8 bd 96 ad 84 bd f0 70 1d be
       -0.16374594 -0.10568548 -0.064784214 -0.15375113
000200 b8 93 d5 be 43 f9 c1 bd 03 ff 88 3d 25 07 6d 3e
       -0.41714263 -0.09471371 0.066892646 0.23147257
000210 e0 16 7f 3d b6 7a a5 be 9e c5 dd be 99 9a df be
       0.062277675 -0.32320184 -0.43314832 -0.43672636
000220 4b c5 18 3f fb 4d cb 3e 82 bd bb be 78 34 54 bd
       0.59676045 0.39707932 -0.3666802 -0.05180785
000230 5f 29 b9 bd 01 00 f6 be c8 ce ce 3e 2a 8c cc be
       -0.09041094 -0.48046878 0.40392137 -0.39950687
000240 71 0a c7 be a5 54 74 be 79 4a d1 bd 49 23 e0 bd
       -0.38875154 -0.23860414 -0.10219283 -0.1094423
000250 1a c1 0a be c3 6e 1e be 80 d4 f8 3c 20 c9 1c bf
       -0.13550225 -0.1547194 0.030374765 -0.6124439
000260 13 b4 24 be 49 87 08 be ca 88 c0 be 4c 9c 61 be
       -0.16084318 -0.13332857 -0.37604362 -0.22032279
000270 77 54 0e bf 06 5a 12 3d 60 e8 6f 3c f3 99 92 bd
       -0.55597633 0.035730384 0.014642805 -0.0715827
000280 07 9f 47 bd 03 69 1e be 1b 87 ff 3e 49 2d 59 3e
       -0.048735645 -0.15469746 0.49907765 0.21208681
000290 22 a4 04 3e 97 79 04 bf 4f 53 0e bf ce 13 91 3d
       0.12953237 -0.5174803 -0.5559587 0.070838556
0002a0 74 51 69 3e 95 ee 07 bf 3f 75 92 3e cb 22 fa bd
       0.22784978 -0.5309842 0.28605077 -0.122136675
0002b0 0e 99 11 bf d1 8f bb be 16 08 d6 bd 70 87 5e be
       -0.5687417 -0.3663316 -0.10450761 -0.21731353
0002c0 14 bd ae 3e 6b 15 bd be 09 7b 3f 3e 94 90 3f be
       0.3412863 -0.36930403 0.18699278 -0.18707496
0002d0 f2 8e e4 be a3 80 0f 3e 95 d8 05 3e f0 79 aa 3e
       -0.4464031 0.14013915 0.130709 0.33296156
0002e0 24 d9 a2 bc b3 1f ed 3b 28 7a 37 3d a3 ef b2 3d
       -0.019878931 0.007236445 0.04479423 0.08737113
0002f0 31 a0 ab 3e 6b 98 f6 be 6b b9 bc 3d df 35 3b be
       0.33520654 -0.4816316 0.09215053 -0.18282269
000300 31 73 c5 3c e0 29 18 3e 5d bb 60 be 29 cc 2e be
       0.02410278 0.14859724 -0.21946473 -0.17070068
000310 5a 53 9b be fa f9 4e 3e a5 1a e8 3d 3a 71 94 bd
       -0.3033703 0.20212546 0.11333207 -0.07248159
000320 95 16 dd be 1c c7 ab 3e 5c d2 c7 be 81 b9 3c 3e
       -0.4318129 0.33550346 -0.3902768 0.18430139
000330 12 4c 54 be 63 dd a9 3c 46 1a 78 be 54 c1 89 be
       -0.20732144 0.020735448 -0.24228773 -0.2690531
000340 30 3c 30 3f c2 de c5 3e db b6 4d be a7 e3 c4 3e
       0.6884184 0.38646513 -0.20089285 0.38454935
000350 8f b3 a6 3e 10 ca 76 be 5d 63 de be d7 6b 50 be
       0.32558867 -0.24100518 -0.43435183 -0.20353638
000360 6a 82 23 bd 2e 51 08 bf ea 27 1d bf 77 6b 92 be
       -0.039919294 -0.5324887 -0.6138903 -0.28597614
000370 5e 39 f0 3e 84 82 14 bf 83 80 b8 3d 48 8a a9 be
       0.46918768 -0.5801165 0.09008887 -0.33113313
000380 ff 5d 83 be 15 2b 4a be ec 28 cb be 4b 03 ec 3c
       -0.2565765 -0.19742997 -0.39679658 0.028810164
000390 c3 92 bb 3e d4 1d 95 bd d4 1b 7d bd f7 67 16 bd
       0.36635408 -0.0728108 -0.061794117 -0.036720242
0003a0 81 83 8e be ef b6 c0 be c8 04 17 3e db 07 47 be
       -0.27834705 -0.37639567 0.14747918 -0.1943659
0003b0 10 c5 4f 3e e7 01 a9 3e 0e 42 83 bd 76 d9 12 be
       0.20290017 0.33009264 -0.06409083 -0.14340767
0003c0 bd 88 c0 bc 55 b1 ab 3d e5 b3 e5 bd 5d 60 93 3c
       -0.023502702 0.08383433 -0.11215953 0.017990286
0003d0 cb fc b1 be c7 d9 a9 bd c5 e4 87 be 01 db 07 bf
       -0.34763178 -0.08293491 -0.26541725 -0.5306855
0003e0 c9 b9 08 bf 9f 29 e8 3d e4 2e 1b 3f ea 3a 2b be
       -0.53408486 0.113360636 0.60618424 -0.16721693
0003f0 bd fb cf be 80 82 3b be 3d 29 46 be 0c a8 1c 3d
       -0.4062175 -0.183115 -0.19351669 0.0382462

bias f4 [64]
000000 b6 b5 54 3e 33 08 01 bd 5e 67 52 bd 97 bf 91 3e
       0.20772442 -0.03150196 -0.05136811 0.28466484
000010 de ed b6 be 70 6e 30 3e f8 04 b1 bc 28 13 ca 3c
       -0.35728353 0.17229629 -0.021608815 0.024667338
000020 d2 60 71 bd 6b 30 01 3e 7f 40 0c 3f d5 6f 08 3e
       -0.058930226 0.12616126 0.54785913 0.1332391
000030 81 c7 f3 bd ef 9b 7a 3d 3b 04 d2 3d 48 10 48 3e
       -0.11903287 0.061183866 0.10254713 0.19537461
000040 fa cb 4b 3e 7c e5 66 bd cc 30 b8 3e 1d 4b 37 3d
       0.1990203 -0.056371197 0.3597473 0.044749368
000050 5c 34 7d bd 96 8d 88 3e 8c 6e c4 3d a9 75 9d 3e
       -0.061817512 0.26670521 0.09591398 0.3075383
000060 0c e7 2f 3d 6d f9 96 be 3b 51 5d be cd d7 d7 3e
       0.042944953 -0.29487172 -0.21613018 0.4215683
000070 7a 92 a2 3d 59 4e 22 3e 0c 00 36 3e 16 e8 5f be
       0.079380944 0.158502 0.17773455 -0.21865878
000080 46 56 55 bd e2 6b 65 bc 3e 6a 9d 3e 67 94 0f bc
       -0.05208423 -0.014002772 0.3074512 -0.008763409
000090 17 dd 1b 3f 65 76 ff bd 01 82 1f 3e 4d 66 11 bf
       0.6088423 -0.12473754 0.15576936 -0.56796724
0000a0 82 b6 c7 bd ea 2a 3d 3e 18 29 24 bd 44 78 a1 3d
       -0.097516075 0.18473402 -0.040078253 0.07884267
0000b0 0e 3e b1 be fd ef eb 3c d7 ff 89 bd c5 dc d1 be
       -0.34617656 0.028800959 -0.06738251 -0.40988746
0000c0 5d 55 56 3e ac 7b 0c 3d 73 36 bf bd 95 c3 9b 3d
       0.20931001 0.03429763 -0.09336557 0.07605664
0000d0 38 80 e8 bc 70 3d 0d 3e 5d c9 c4 bc a4 c5 62 3e
       -0.028381452 0.13792968 -0.024021799 0.22145706
0000e0 d5 59 37 be b4 56 b3 3e 2f 31 7b be ef 6e 36 3e
       -0.17905362 0.35027087 -0.24530481 0.17815755
0000f0 bc 3e b6 3b f1 43 8a bc 66 34 01 3d 13 29 13 be
       0.0055616777 -0.0168781 0.03154411 -0.14371137

weight f4 [32, 64]
000000 c9 d9 41 be f6 1b 08 3e 66 50 43 be 89 44 85 3e
       -0.18930735 0.13291916 -0.19073638 0.2602885
000010 fc 3f 4e bf b1 c4 2b be 1a 9c 60 3d 92 02 c7 3e
       -0.8056638 -0.1677425 0.05483637 0.38869148
000020 d6 0d 44 be fe 38 91 3d 03 14 06 be 10 a4 10 be
       -0.19145903 0.070909485 -0.13093571 -0.14125085
000030 12 d3 9a bd 7b 76 b5 bc e8 ab ae 3e 51 8b 1b bd
       -0.0755979 -0.022151222 0.3411553 -0.03797466
000040 de e7 3a 3e 32 77 a3 be 28 63 01 bd 3d 06 97 bd
       0.18252513 -0.31926876 -0.031588703 -0.07374237
000050 56 23 85 be af 70 17 bf 6a 21 f6 bd 4b 27 56 3c
       -0.26003522 -0.59156317 -0.12018092 0.013070892
000060 c2 ea 16 3d f9 48 9b 3e 0f c5 3a be e8 26 86 be
       0.036844976 0.3032911 -0.18239234 -0.26201558
000070 02 20 64 be b2 21 e3 3e 07 34 3b be 66 66 95 3e
       -0.22277835 0.44361645 -0.18281566 0.29179686
000080 a8 93 c8 3e 16 d8 8b 3e 20 9d 76 be 04 2c 57 bc
       0.39175153 0.27313298 -0.24083376 -0.013133053
000090 2c c3 c7 be 92 63 84 3e 3d 72 23 3e a4 88 d7 3e
       -0.39016092 0.25857216 0.15961547 0.42096436
0000a0 68 a0 8b bd 3c 26 41 3e 28 af 39 be ff 67 0d be
       -0.068177044 0.18862242 -0.18133223 -0.13809203
0000b0 39 9f 8d be 28 22 55 3e c6 91 73 3e 1b fb cb bd
       -0.2766054 0.20813811 0.23786077 -0.09960004
0000c0 1e 1e c9 be f2 5f 4b 3e 73 6c 36 bf c1 c0 ac bd
       -0.3928079 0.19860819 -0.7125923 -0.084352024
0000d0 97 98 12 be 1f 99 61 be 7d ac 07 3f 1a 86 bd bd
       -0.14316021 -0.22031067 0.5299757 -0.092540935
0000e0 cf 9c 17 be ab 40 27 3e c3 43 2a bf 89 f5 84 be
       -0.14805911 0.16333263 -0.66509646 -0.25968578
0000f0 9f 9f df bd ce d9 bc 3d af 9e 6c 3e 19 68 85 be
       -0.10919117 0.092212304 0.23107408 -0.26055983
000100 ae b5 98 bd 7b 06 18 3d 82 2a d8 3d a1 6d ac 3e
       -0.07456528 0.037115555 0.10554983 0.3367739
000110 62 6c 9c 3d b1 2b 61 be 62 57 90 3d 56 0d 09 3f
       0.0763786 -0.21989323 0.07047917 0.53535974
000120 d0 10 03 3d 98 a5 70 3e 58 5f 1f be 81 12 0a be
       0.031998456 0.23500669 -0.15563715 -0.13483621
000130 be ef 2e bd 3f 9d 20 3e 73 80 56 3d d3 d4 d1 bc
       -0.042709105 0.15684985 0.052368592 -0.025614178
000140 81 b1 61 be 16 2d 0a be a1 7d 9b ba 8e 17 47 be
       -0.22040369 -0.13493761 -0.0011863002 -0.19442579
000150 6d 9d 47 be 82 82 1d be bb 3a 6a be a3 9b cf bd
       -0.19493647 -0.15381816 -0.22873966 -0.10137107
000160 30 74 01 be 27 3d a6 bd a4 2b 3e 3d 44 58 c8 3c
       -0.12641978 -0.08117133 0.046428338 0.02445615
000170 12 c4 77 3e da fd 47 3e 64 10 64 bd 1b 71 51 3e
       0.24195889 0.1953043 -0.055679694 0.20453303
000180 d5 07 88 3e b3 ce 23 bd 48 c5 d1 3d d5 fe 3f be
       0.26568475 -0.039992046 0.102427065 -0.18749554
000190 b8 50 a6 bc 33 f5 29 3e 58 22 52 3e 0d e7 21 be
       -0.020302162 0.16597442 0.20520914 -0.15810795
0001a0 1c 33 a0 3d 78 19 97 bd b1 6c 38 3d a3 bb f5 3d
       0.07822248 -0.07377905 0.04502553 0.119986795
0001b0 55 79 86 be 79 a9 c5 3d 62 e4 a8 3d d3 5c 3e 3e
       -0.26264444 0.09651465 0.082466856 0.18590097
0001c0 c7 63 6f be 8d 39 72 3d 8f 03 ac bd 02 f6 86 bd
       -0.23377906 0.059136916 -0.08399116 -0.06589891
0001d0 29 d3 24 bd 90 9f b0 be ee 2b 77 3e 67 bf ef be
       -0.04024044 -0.34496737 0.24137852 -0.46825716
0001e0 fb a9 17 be 7e f2 91 3e 86 f1 fa bd f0 d8 fc bd
       -0.14810936 0.2850532 -0.12253098 -0.12346065
0001f0 44 89 07 3e 88 f6 26 3e af a2 65 bd d4 ef f7 bc
       0.13235956 0.16304982 -0.05606335 -0.030265726
000200 e6 b1 97 3d ec eb ae 3e 22 8f 2f 3e 41 4f 19 3e
       0.07406978 0.3416437 0.17144445 0.14971639
000210 fd a9 b3 be 64 d2 b1 3d 40 f7 0a 3e e9 bd 1a 3e
       -0.35090628 0.08682707 0.13570881 0.15111507
000220 d6 e6 02 3e be cd 2b 3e b2 78 96 bc ff 3b 72 be
       0.1278337 0.16777703 -0.018368099 -0.23655699
000230 f6 a5 94 be b9 a5 3f be 30 84 cd 3d ad c9 33 bc
       -0.29032868 -0.18715562 0.100349784 -0.010973376
000240 72 1e 36 3d d9 64 9b be 9c 7c 0a bd e0 e4 0e 3d
       0.04446263 -0.30350378 -0.033810243 0.03488624
000250 40 93 dc bc 79 31 ad 3e 02 d3 fb bd 96 10 b0 bd
       -0.026925683 0.33826807 -0.12296106 -0.085969135
000260 20 82 82 be 57 8c 8c 3d dc 36 3f 3f a3 91 75 3e
       -0.25489902 0.06862705 0.74693084 0.23981337
000270 71 df 09 be e7 b7 30 be 83 9f 97 bd 4b 83 8c 3d
       -0.13464142 -0.17257653 -0.07403471 0.0686098
000280 50 ca 1b bd cb 56 c5 3b 9b e8 2c 3e ed 53 0a 3f
       -0.038034737 0.0060223094 0.16885607 0.5403431
000290 b4 d4 9a be 30 8f e8 bd 4f 18 da 3d cb de 8f be
       -0.30240405 -0.11355436 0.10649168 -0.28099665
0002a0 58 af 0c bd 74 74 04 bd 26 3f e9 3e 47 3b 34 bd
       -0.03434691 -0.03233762 0.4555599 -0.044001844
0002b0 51 c4 98 be 8e 84 a6 3d df 19 30 3c 5d 03 db be
       -0.29837278 0.081307516 0.010748356 -0.42776003
0002c0 d0 d3 f9 3c d0 d4 aa bc 98 92 bc be 21 16 a2 3c
       0.030496508 -0.02085343 -0.36830592 0.019785943
0002d0 71 b5 f0 3d 2d 5f 2a be 00 b3 74 3c fe b2 53 3c
       0.11753357 -0.16637869 0.014935255 0.012921093
0002e0 c2 8a 12 3e 2b 5e 86 be 8f fe 1e be f3 cf f8 3d
       0.14310744 -0.2624372 -0.15526794 0.12149038
0002f0 3f f6 71 3e f5 a1 c6 bd 33 74 b5 3d 42 39 66 be
       0.23629092 -0.096988596 0.08860054 -0.2248278
000300 7c 75 5c 3e 37 13 16 3e 5c 12 82 bd 38 4c 84 3d
       0.21529192 0.14655767 -0.06351158 0.0645985
000310 df d5 4e bd d5 e5 81 3e 07 a3 2c 3e 08 41 1a 3c
       -0.050496932 0.2537066 0.16859065 0.009414919
000320 8f b9 c4 3e cf 5e ca 3d 4a fa 9c 3b ee 30 cd be
       0.3842282 0.098813646 0.004790579 -0.40076393
000330 84 aa 07 be 17 f6 4e be 92 e1 08 3d a3 d1 aa be
       -0.1324864 -0.20211063 0.033418246 -0.33363065
000340 e4 ad 80 be 56 7e 01 3e b1 7f 92 3e 5c ce a1 3d
       -0.25132668 0.1264585 0.28613046 0.07900688
000350 74 da f5 3d 11 37 1a 3e 51 6f 53 bd d5 6a 5c be
       0.12004557 0.15060069 -0.05161983 -0.21525128
000360 27 45 aa bd cc 65 b4 bd e3 da af 3e b4 4f ad bd
       -0.08313971 -0.08808479 0.34346685 -0.08462468
000370 27 5f 10 bf 03 1a 2f bd a2 bd 76 be 56 a5 ab 3d
       -0.5639519 -0.042749416 -0.24095777 0.08381145
000380 fb b7 c6 be 53 87 21 bd 9a fd e3 3d 88 16 c3 3e
       -0.3881224 -0.039435696 0.11132355 0.38103127
000390 9f 41 8c be 52 db 8e be fc 01 d3 be dd 1e 3d be
       -0.27393815 -0.27901703 -0.4121245 -0.18468805
0003a0 a6 1b fe 3e 2f 31 22 3d d6 d8 b5 ba cf 2d 2d be
       0.4963047 0.039597686 -0.0013873826 -0.16912006
0003b0 f4 ce ae be f0 af ea be bf 58 b2 3d 05 68 10 be
       -0.34142268 -0.45837355 0.08708333 -0.1410218
0003c0 7d 50 3f bd 8c 47 53 be 7d 71 0c be 7d 65 19 3d
       -0.04670762 -0.20632762 -0.13715167 0.037450302
0003d0 ed 87 35 3d 85 35 6f be ca c7 62 bd 07 09 36 3d
       0.044319082 -0.2336026 -0.055366315 0.044442203
0003e0 78 5c 5b 3e 48 c0 e2 be 63 0e c2 be 15 89 9c 3d
       0.21421993 -0.44287324 -0.379016 0.07643334
0003f0 ec 26 82 3e f5 00 20 3e 9f 9e 44 be b8 e8 e4 bd
       0.2542032 0.15625365 -0.19201134 -0.111772

bias f4 [32]
000000 a9 a5 03 3e 82 03 27 be dd fb 8f be cd d3 bc 3d
       0.12856163 -0.16309932 -0.28121844 0.09220085
000010 8d 1d 0c 3f e7 dd a1 3e 11 21 04 3e 51 3a 04 3f
       0.5473259 0.3161461 0.12903239 0.51651484
000020 ae 1a ce 3b 09 2e 04 3f 41 23 b7 3e 02 55 06 3e
       0.0062898016 0.51632744 0.35769084 0.13118365
000030 a5 04 0d 3f 7a da 9f 3d e7 02 1a be b1 38 28 bd
       0.5508521 0.07805343 -0.1504017 -0.04106969
000040 07 74 bd be 28 45 62 3d fb b2 0c 3c b1 d6 44 3e
       -0.37002584 0.055241734 0.008587594 0.19222523
000050 25 ba 24 3e 75 cc 34 be fd b6 4f 3d 81 ab f3 bc
       0.16086634 -0.17656119 0.05071162 -0.029744865
000060 d4 96 7d bd 01 dc 60 bd c1 0b 0e 3d ae 02 4e 3c
       -0.06191142 -0.054897312 0.03467918 0.012573881
000070 c1 08 39 3e 44 82 ea 3e 42 2f bb bd b2 a4 65 bd
       0.18069746 0.4580251 -0.09139873 -0.05606527

weight f4 [1, 32]
000000 d9 f1 2e 3e 90 57 56 bb a0 ca 2e 3e 4f 56 19 be
       0.17084445 -0.0032706 0.17069483 -0.1497433
000010 4f 02 07 3e 96 8a 33 be 61 49 fb 3b 38 ff 80 3d
       0.13184474 -0.17533335 0.0076686596 0.06298679
000020 3d 6e 40 be 22 e7 28 3e 8f 8a 58 be 1f 19 58 3e
       -0.18792053 0.1649442 -0.21146606 0.21103333
000030 1f 8b 60 be e4 98 57 3e 29 d7 24 be 36 96 16 3e
       -0.2192807 0.21054417 -0.16097702 0.14705738
000040 8e 2e 0b be f1 8d 5f be 9f 96 f6 b7 ef d2 42 3e
       -0.13591978 -0.2183149 -2.9395624e-05 0.19025777
000050 f5 75 a8 39 3d 3b 94 3d 5e 66 dd bd 19 a2 17 bb
       0.00032131342 0.07237861 -0.108105406 -0.002313739
000060 cb 1c 43 be e7 86 71 3e 3c 34 bc bb e7 bd 44 3e
       -0.19053952 0.23586617 -0.0057435315 0.19213067
000070 a7 83 00 ba 42 64 39 be 77 25 9c bd 16 8b 1c be
       -0.000490243 -0.18104652 -0.07624333 -0.15287432

weight f4 [64]
000000 8a de fb 3e 15 e4 bb 3f 8c 35 e1 3f d9 55 5c 3f
       0.4919322 1.467898 1.7594466 0.86068493
000010 c2 32 93 3f 53 41 9d 3f c4 b4 99 3f aa 4e 86 3f
       1.1499865 1.228556 1.200829 1.0492756
000020 78 b8 e3 3f bb 5c 2a 3f bb 17 c6 3f 9a f9 88 3f
       1.779067 0.66547745 1.5475992 1.0701172
000030 7c 5c b5 3f 56 c9 90 3f 1a 0e e4 3f 81 25 e2 3f
       1.4168849 1.1311443 1.7816803 1.7667695
000040 ec b8 a1 3f a5 64 9b 3f 24 3f 8e 3f 2c 84 c7 3f
       1.2634559 1.2140089 1.1113019 1.5587211
000050 a5 d5 88 3f 45 ec 87 3f 0e 3c d0 3f 43 62 96 3f
       1.0690199 1.0618979 1.6268327 1.1748737
000060 e9 f4 91 3f 46 93 a4 3f e4 1f 31 3f 14 6e b2 3f
       1.1402866 1.2857444 0.69189286 1.3939843
000070 10 0e ad 3f 8c 79 c6 3f de 13 8e 3f 5d 72 b4 3f
       1.3519917 1.5505843 1.1099813 1.4097401
000080 90 bb b7 3f 00 a2 c8 3f 0e 70 b6 3f 5d af c3 3f
       1.4354115 1.5674438 1.4252946 1.5287892
000090 a3 e7 a7 3f d1 72 79 3f c6 e1 b5 3f ef e3 b4 3f
       1.3117565 0.9744082 1.4209526 1.413206
0000a0 aa 02 4c 3f 3a 1a 96 3f 10 19 5a 3f 9c 30 91 3f
       0.79691565 1.1726754 0.8519449 1.134296
0000b0 f8 6a 42 3f 5f 74 80 3f 89 de 8b 3f 79 92 4a 3f
       0.7594447 1.0035514 1.0927287 0.7912975
0000c0 ae b5 3d 3f 81 e4 b5 3f 4f ee 91 3f b2 1a b2 3f
       0.74105346 1.4210359 1.1400851 1.3914397
0000d0 57 cb 4b 3f aa e0 c2 3f b9 e4 b9 3f cf 85 8e 3f
       0.79607147 1.5224812 1.4522926 1.1134585
0000e0 fb d6 77 3f e4 50 80 3f 4b 48 b3 3f 15 58 b5 3f
       0.9681241 1.0024686 1.4006437 1.4167506
0000f0 df cb a7 3f 51 22 3c 3f ce 1d d5 3f ac 16 bc 3f
       1.3109092 0.7348986 1.6649721 1.4694419

bias f4 [64]
000000 ae 83 02 3f 18 12 5f 3e 12 16 0a 3f 6c 35 30 bf
       0.5098218 0.21784246 0.53939927 -0.68831515
000010 a7 ba b3 3e 09 ca 1c bf a8 95 a6 3d a8 8b 08 3e
       0.35103342 -0.6124578 0.081340134 0.13334525
000020 71 90 a1 3e 39 62 d5 bd 24 06 6e 3e be ea d1 bd
       0.31555513 -0.10419125 0.2324453 -0.10249852
000030 67 0d d7 3d c8 30 dc 3b 2c 13 c9 3e 32 9c 26 be
       0.10500603 0.0067196824 0.3927244 -0.16270521
000040 5e d2 da 3d 1e 5c 79 be 4e ae a6 be 4a d4 15 3f
       0.106846556 -0.24351546 -0.3255486 0.5852705
000050 59 4b fa 3d a0 a5 9f 3e 63 ed 61 3e da cb 25 3e
       0.12221403 0.3118105 0.22063212 0.16191044
000060 73 37 38 3e 51 53 89 3e fd c0 2d bf 0a 9e db 3e
       0.17989902 0.26821378 -0.678726 0.42894012
000070 d2 09 76 3e 0c bc 41 3d 7a 12 b1 bb de 26 8b 3e
       0.24027184 0.047298476 -0.005403814 0.2717809
000080 6a 86 2d be 55 b7 08 3f 6c d8 a6 3e 65 57 7a 3e
       -0.16945806 0.5340474 0.32586992 0.24447401
000090 88 47 6f 3e 73 a5 8d 3e 9e 9f 9a be 66 01 8b 3d
       0.23367131 0.2766529 -0.30199903 0.06787376
0000a0 aa 66 f7 be 65 e3 a7 3e 64 db b5 be 3c 6c a5 bd
       -0.48320514 0.32790676 -0.35518944 -0.08077285
0000b0 8a 80 9d bd 0c 0a e1 be 4b 95 8a be ba a6 42 be
       -0.076905325 -0.43952978 -0.27067026 -0.19008914
0000c0 02 e5 98 be 83 76 8b be 9c c8 b6 3e f9 30 4e 3b
       -0.2986222 -0.27238855 0.35699928 0.0031462295
0000d0 c9 34 5e 3e 2a aa bb 3e 00 81 f2 3d e0 f2 91 3e
       0.21699823 0.36653262 0.11841011 0.2850561
0000e0 fe a2 d0 be c5 b1 11 3e 49 89 c6 bd 09 58 f5 bc
       -0.40749353 0.1422797 -0.09694154 -0.029949205
0000f0 b7 41 8d 3e 12 bf 3f 3e 96 c5 dd bd b5 96 61 3d
       0.275892 0.18725231 -0.10828702 0.055075366

running_mean f4 [64]
000000 70 be cf 3f 62 62 97 3d 14 9d 21 3f d0 e9 af 3e
       1.6229992 0.07391812 0.6313031 0.34358072
000010 54 48 14 40 64 e8 20 3f 09 80 ba 3f f7 d4 29 3f
       2.3169146 0.628546 1.4570323 0.66340584
000020 b1 0a 2f 3e 54 3d fb 3f f4 95 df 3e 1f 3b c1 3e
       0.17093922 1.9628091 0.43669093 0.37740418
000030 cb 16 18 3f 46 45 69 3e fd db 0b 3e 4f 26 a2 3f
       0.5940978 0.22780332 0.13658138 1.2667941
000040 40 c5 d0 3f 56 dd fc 3e 00 0b 0a 40 51 bd f3 3e
       1.6310196 0.49387616 2.1569214 0.47605374
000050 dc 06 ec 3e 76 fb 3f 3f a1 d1 5e 3f d8 6f 43 3f
       0.46098983 0.74993074 0.8703862 0.76342535
000060 43 7e 6e 3e 5c 30 2b 40 17 09 7f 3e 20 6c 70 3e
       0.23290353 2.6748266 0.24905811 0.23478746
000070 b1 06 55 3f ae 2e 28 3f a5 ca 3e 3f ff 7d 97 3e
       0.83213335 0.6569623 0.7452796 0.29588315
000080 44 20 4f 3f 10 29 9c 3e 19 39 13 3f d0 a9 37 40
       0.8090861 0.30500078 0.57509 2.8697395
000090 dc 9d 93 3e ce cf 17 40 3f e8 84 3f 74 38 bd 3e
       0.28831375 2.3720584 1.0383376 0.36957133
0000a0 57 d4 b4 3e 82 df e1 3e 24 e2 40 3e 26 04 8a 3e
       0.35318252 0.44115835 0.18836266 0.2695629
0000b0 a5 d9 00 40 ca e7 b0 3f fd 00 cd 3e f2 3e 2e 3e
       2.013284 1.3820736 0.40039816 0.17016199
0000c0 dd bb b6 3f 0a 91 e0 3f 27 36 61 3f 27 3e f9 3f
       1.4276081 1.7544262 0.87973255 1.9472092
0000d0 e4 72 5e 3f 78 d2 d4 3f 06 87 ca 3f f3 14 a5 3e
       0.8689406 1.662673 1.5822456 0.32242545
0000e0 14 cd 00 3f f0 28 20 3c ca 1e 95 3e 90 86 26 3f
       0.50312924 0.009775385 0.29125053 0.65049076
0000f0 4b 7e 9d 3f 63 92 b5 3e 29 01 22 3f 6f 5b a3 3e
       1.2304167 0.35463247 0.6328302 0.31905696

running_var f4 [64]
000000 85 36 6f 3f f8 02 44 3e 3b a9 c7 3f f7 06 27 3e
       0.93442565 0.19141757 1.559852 0.1631125
000010 9e 9b 6e 40 84 90 7c 3f d4 65 10 40 f8 19 a6 3f
       3.7282481 0.98658013 2.256215 1.2976675
000020 ae ab 09 3f ec 13 f3 3f 4b d9 33 3f 5f 23 16 3f
       0.5377759 1.8990455 0.7025344 0.5864772
000030 0e 20 8f 3f 4c 68 33 3e 9f 41 0a 3f 3f 3c 19 40
       1.1181657 0.17520255 0.5400638 2.3943021
000040 b7 63 5d 40 0d e7 3e 3f 8b e9 4e 40 e8 f0 2e 3f
       3.459211 0.74571306 3.2330043 0.68336344
000050 32 a8 16 3f fd e0 bf 3f 42 a1 e8 3f 6a 7a a5 3f
       0.58850396 1.4990536 1.8174212 1.2927983
000060 b8 c1 c9 3e 2e 65 53 40 ab ee af 3e 6d e1 12 3f
       0.39405608 3.3030505 0.34361777 0.5737522
000070 17 4c cc 3f 42 35 99 3f 86 5d bf 3f c1 dd f9 3e
       1.5960721 1.1969378 1.4950416 0.48801997
000080 bd b9 99 3f 18 d1 1c 3f c5 40 c1 3f 46 c5 91 40
       1.2009808 0.6125655 1.5097891 4.555331
000090 65 e4 71 3f b6 04 0e 40 7b 26 9c 3f c5 f7 41 3f
       0.9448913 2.2190375 1.2199243 0.7576869
0000a0 89 3e d6 3e 46 91 94 3f b3 b3 9d 3e 34 da e2 3e
       0.41844586 1.1606834 0.30801162 0.443071
0000b0 19 06 40 40 34 b5 3f 40 88 6f 4b 3f 94 8f a2 3e
       3.0003722 2.9954348 0.7946706 0.31750166
0000c0 18 5f c9 3f 84 74 3e 40 ff 4c cd 3f fb 71 6b 40
       1.5732145 2.9758615 1.6039122 3.6788318
0000d0 38 40 9c 3f 37 b5 5e 40 3b 7a 15 40 9c 96 06 3f
       1.2207098 3.4798105 2.3355854 0.5257356
0000e0 1d 88 25 3f 15 2c 99 3d ec 8a 14 3f da 90 94 3f
       0.6466082 0.07479111 0.5802448 1.1606705
0000f0 28 0d 0a 40 c1 08 0a 3f 6f fc c3 3f 6d c7 16 3f
       2.157053 0.5391961 1.5311412 0.5889805

weight f4 [128]
000000 7c 69 8a 3f e7 be 8e 3f bc 54 b3 3f e6 43 53 3f
       1.0813441 1.1152009 1.4010234 0.8252548
000010 f9 f5 88 3f 36 a4 ae 3f 7e c7 88 3f 47 c1 67 3f
       1.0700065 1.3643863 1.068588 0.9052929
000020 dd ff 8f 3f 33 e7 59 3f b2 69 b0 3f 21 f4 79 3f
       1.1249958 0.85118407 1.3782256 0.97638136
000030 9a ac 82 3f ad 7d 97 3f 55 5a 84 3f 16 66 e4 3f
       1.0208924 1.1835228 1.0340067 1.7843654
000040 f3 8c a3 3f ba ea ab 3f 67 df 95 3f c9 d8 bd 3f
       1.2777389 1.3431008 1.1708802 1.4831783
000050 2d 15 95 3f 3b 7b a5 3f d5 69 a2 3f d1 6d 76 3f
       1.1647087 1.2928232 1.2688547 0.96261317
000060 9c 28 6e 3f 44 76 96 3f b7 4d 79 3f 0c 88 88 3f
       0.93030715 1.1754842 0.9738421 1.0666518
000070 0e 4c b0 3f ec b2 6a 3f 7a 27 b1 3f 5e ec af 3f
       1.377321 0.91679263 1.3840172 1.3744009
000080 db 85 89 3f df 6f 8c 3f 92 34 64 3f ea 31 a0 3f
       1.0743974 1.097164 0.89142716 1.2515233
000090 7c 46 2e 3f dd 03 01 40 3e 29 c7 3f fd a6 a4 3f
       0.680763 2.0158608 1.5559461 1.2863461
0000a0 fc 5a 17 3f 7f 3a c8 3f 17 a5 69 3f e5 56 a0 3f
       0.59123206 1.5642852 0.9126753 1.2526518
0000b0 c9 58 c9 3f 5f 50 a0 3f d8 1b 5a 3f 81 c2 9a 3f
       1.573022 1.2524527 0.85198736 1.2090608
0000c0 0d 15 2e 3f f3 e2 ca 3f d5 1e 7c 3f fd 1e 95 3f
       0.6800087 1.585051 0.98484546 1.1650082
0000d0 04 e2 b6 3f 9b ca 04 3f c0 52 a0 3f e0 fe 5e 3f
       1.4287724 0.5187165 1.2525253 0.8710766
0000e0 38 5b 81 3f 12 47 98 3f 9c b2 22 3f c6 f5 9a 3f
       1.0105963 1.1896689 0.63553786 1.2106254
0000f0 03 8a 8e 3f d5 a4 d5 3f c7 ed 79 3f 18 89 8a 3f
       1.1135868 1.6690928 0.97628444 1.0823088
000100 16 3c 11 3f 9f 6e 32 3f 66 ce b6 3f 79 f3 ac 3f
       0.5673231 0.69700044 1.4281738 1.3511802
000110 f4 7c 4d 3f 16 21 9d 3f 1d 6e d8 3e c6 4f 6e 3f
       0.8026879 1.2275722 0.4227151 0.93090475
000120 c8 e1 cd 3f 6f 58 dd 3f 56 04 93 3f 4b 25 25 3f
       1.6084528 1.7292613 1.1485698 0.6451003
000130 50 9c 92 3f 5f 86 7e 3f e8 cf 8c 3f 90 1c 94 3f
       1.1453953 0.99423784 1.1000948 1.1571217
000140 b0 dc a3 3f f7 19 7c 3f a0 f4 c0 3f 4e ef 22 3f
       1.2801723 0.9847712 1.5074654 0.636464
000150 ba 7d 60 3f b0 0b e3 3f e8 08 5e 3f 17 89 2f 3f
       0.87691844 1.7737942 0.8673234 0.6856856
000160 cd 8e 1e 3f 4a 56 d3 3f ac a6 b9 3f ef 22 cc 3f
       0.61936647 1.6510708 1.4503989 1.5948161
000170 f7 5b 21 3f 65 f1 a4 3f 33 56 97 3f a0 aa a8 3f
       0.6303095 1.2886168 1.1823181 1.3177071
000180 1e 7d 6d 3f 7e b2 b2 3f 84 58 bd 3f 80 3c b7 3f
       0.9276904 1.3960721 1.4792638 1.4315338
000190 40 ca 8a 3f 37 8a 93 3f ad 1d b5 3f a1 0a 87 3f
       1.0842972 1.1526555 1.4149681 1.0550119
0001a0 78 d4 a0 3f c3 fb 6e 3f 67 2a a4 3f 05 ee d4 3f
       1.256484 0.9335291 1.282544 1.6635138
0001b0 a2 a4 67 3f a1 24 a1 3f 92 ef 7b 3f 2d 54 29 3f
       0.90485585 1.2589303 0.9841243 0.6614407
0001c0 c8 f7 a1 3f 61 61 fa 3e 89 02 a9 3f ec c0 fc 3e
       1.2653742 0.4890242 1.3203899 0.49365938
0001d0 64 4d d3 3f 3e 50 9c 3f 66 dc cc 3f 7a 7b 03 40
       1.6507993 1.2211988 1.600476 2.0544114
0001e0 a1 d9 d9 3f cf 86 c7 3f 71 dd 72 3f 16 ac a0 3f
       1.701954 1.5588015 0.9486914 1.2552516
0001f0 27 7a d2 3f b1 0d 73 3f 72 2e 1a 3f 41 f7 a1 3f
       1.6443528 0.94942766 0.6022712 1.2653581

bias f4 [128]
000000 7e cd c5 3e 50 ba 9b bd e6 78 ba 3e 3a 6c 02 3f
       0.3863334 -0.07603896 0.36420363 0.5094639
000010 51 78 89 3e 92 c3 8a be 60 48 11 3e c8 3c 0b bf
       0.26849607 -0.27102333 0.14187765 -0.5438962
000020 5f 75 ac be 11 e1 12 3e f4 25 00 bf 14 96 d0 be
       -0.33683297 0.14343669 -0.5005791 -0.407395
000030 c6 76 64 be 78 e8 ba 3d 47 18 13 3d 7c 33 df bb
       -0.22310933 0.09126371 0.035911825 -0.0068115573
000040 0a 18 20 3f 99 cc e4 bd ca 0d 98 3e 63 81 03 3f
       0.6253668 -0.111718364 0.2969802 0.51369303
000050 1e db 1e be 64 e1 40 3f db 8a 95 3d 69 8e 21 3e
       -0.15513274 0.7534392 0.07301875 0.15776981
000060 62 a8 07 3f 8e 00 8c be af 72 fd bc ee c4 2b bf
       0.52991307 -0.27344173 -0.030938474 -0.67097366
000070 a4 56 07 3e a5 f5 ee 3e 0f 26 71 3e b5 82 9e 3e
       0.13216645 0.46671787 0.23549674 0.30959097
000080 9f 43 40 bc 4b 5c 19 3e ae 91 71 3e fa 22 3c 3c
       -0.011734872 0.14976613 0.23590729 0.011482948
000090 b2 1e 09 3f 07 70 53 3e 75 b7 36 bf b5 c8 58 3e
       0.5356246 0.20648204 -0.71373683 0.21170314
0000a0 9a b7 44 3e 78 74 2a bf 75 e0 2c 3f 9f 4a 9c 3e
       0.19210663 -0.6658397 0.67529994 0.3052568
0000b0 6f fa 8c bd 5e 84 38 bf 1d c6 d2 3e 40 64 cf be
       -0.06883704 -0.72076976 0.41166773 -0.40506172
0000c0 40 c1 72 bd 65 ec b2 3e 79 1d 7b 3e f2 d8 fb 3d
       -0.05926633 0.3494598 0.24522962 0.122972384
0000d0 89 1b 40 3f d5 3a de 3e 44 49 95 3d e1 cf 19 3e
       0.75042015 0.4340426 0.07289365 0.15020706
0000e0 ac 84 6b 3e c5 e0 ad 3d 6d a2 d0 be a7 68 ea 3e
       0.22999829 0.08490137 -0.4074892 0.45782968
0000f0 e2 34 5a 3f af 8f 39 bf 18 73 97 be 3c 7d 17 bf
       0.8523694 -0.7248487 -0.29579997 -0.5917547
000100 e7 ac 69 3e c8 9e 30 be 7b 88 9e 3e 69 63 20 3e
       0.22819863 -0.1724807 0.309635 0.15662922
000110 7c 06 74 bd 4d bc 7d 3d a8 a5 46 3e 6d 51 43 3e
       -0.059576496 0.061947156 0.1939913 0.1907403
000120 a6 c0 c4 be 27 38 dd 3e f4 ba 9d bd dc c8 47 3d
       -0.3842823 0.43206903 -0.07701674 0.04877554
000130 03 60 8a bc bd 4f c3 3e 8c 47 66 bd 47 b4 e4 be
       -0.016891485 0.38146773 -0.056220576 -0.4466879
000140 72 e3 f2 3e de cc 0c be e5 18 9f 3d 28 8d 16 be
       0.47439152 -0.13750026 0.0776842 -0.14702284
000150 6a 49 e9 3e 6e 70 e8 bd f8 a9 ba be 58 16 27 3d
       0.45563823 -0.11349569 -0.364578 0.040792793
000160 09 cb eb bd 6b 99 83 3e 81 56 8a 3e a6 e7 29 3e
       -0.11513335 0.25702986 0.27019122 0.16592273
000170 f1 ce da bc 46 16 b9 be 5a 76 87 3e a8 2b d1 3e
       -0.026710005 -0.36149806 0.26457483 0.4085362
000180 2a 94 a7 be c7 82 91 3d 4b 78 3d be eb c2 13 bf
       -0.32730228 0.07105022 -0.1850292 -0.57719296
000190 c7 17 06 3f 17 1e 81 bd e3 32 01 3f 0f 8f 11 3f
       0.5238003 -0.06304567 0.5046827 0.56858915
0001a0 e2 f8 e1 3d 77 e3 a8 3e 50 78 dd bd 90 34 09 3f
       0.11033799 0.32986042 -0.108139634 0.5359583
0001b0 68 e0 f1 bd 3e 4e 80 3d f4 4f d7 3e 8b 26 39 3e
       -0.1181038 0.062649235 0.42053187 0.18081109
0001c0 fa 24 bb 3e 69 4d 54 3d a5 4d c4 3e e2 5a cb 3d
       0.36551648 0.051831637 0.38340488 0.09929444
0001d0 bc 93 23 3f 6e 35 0a 3e d9 03 28 3e 10 8f 6f be
       0.638973 0.13496944 0.16407718 -0.23394418
0001e0 91 4a e7 3e 63 02 41 bd c0 53 35 3f c4 fc aa 3d
       0.45174077 -0.047121417 0.7083092 0.083489925
0001f0 17 1d 39 be fa 81 bb bd 94 b9 67 3f ea 21 fa bc
       -0.18077503 -0.091556504 0.90517545 -0.03053375
