Models/TrainedModels/FCNNs/FCNN2.pt (torch, 94795 bytes, 25 tensors)

weight f4 [64, 22]
00000000: b14c cc3e 1af9 fbbe 52b4 0bbe 8dc8 b0be
00000010: 56c4 1b3f 67ce f53e 591f 803f c4d8 6d3e
00000020: f77f 203f d7a4 873e 04a3 df3e 9d26 653d
00000030: 326e 3dbf 7319 e53e f7e3 abbe a2b8 613f
00000040: b5e8 093f 4140 153e b435 833e d121 04bf
00000050: 86c1 a6be 3d79 a13f 5ef8 ca3f e77b 22be
00000060: fd2b 9c3e dca6 b5be c1be cd3e cf41 37bf
00000070: 8a77 73be 2563 cfbd f63f 403f 152e d2bb
00000080: fd8d ef3d e7b5 09be d565 463f 7dd1 0dbf
00000090: 0001 b6bd 5b2c 89bf 7e3c 02be b2f9 86bf
000000a0: 27eb 9bbf 241a 44be c072 833d f4da d6be
000000b0: e9e2 173c 92cf 973f a0e4 fcbe ef1d 6dbe
000000c0: 8fa8 a5be 85c3 133f f73e 603e ae98 19bf
000000d0: 704d 89be db47 20be 5986 8bbe 48cb 3bbe
000000e0: 9898 763f df50 f13e ae80 96bd a50c 96bf
000000f0: a8de c93e b58f cabe 2241 563f 5c9f ca3e
00000100: 2a01 043f 38dd 2cbf 10ec aabd 900c b8be
00000110: bf2e a03e cfce 12be 161e f2bd 2bea 9bbf
00000120: 7a7c 9fbe 1b31 603e 3df2 353d 4fe9 173f
00000130: d6be a63e 1215 153d ac66 153d c19c 63bd
00000140: 56b3 18bf b141 da3e a684 b33e 88e4 dc3d
00000150: 5411 0b3f 8827 413f cd7f 5d3f 6cd7 62be
00000160: 3569 83bf b671 ad3e 3932 443d 4728 c73d
00000170: 94e7 833e 871a 03be 1a0e 13bf 1a58 a13d
00000180: ed1d 993e 600e 493f c22a 083e ddb0 24bf
00000190: d25c babe 10e5 78be 5e54 b8be df5f 93bf
000001a0: 165e 343e 030e 4d3f 9e20 f13e 6bed 86bf
000001b0: 9401 f03e 7b60 903c 16a4 d9bd 9024 b6be
000001c0: 0c11 3e3e 6fb3 6a3d 1942 dfbe 345a b2be
000001d0: d3bc 033f 18ae 42bd 3d42 1bbd 79f6 5d3f
000001e0: eec9 f5be 5669 a03d 0f50 f53d 5c87 503f
000001f0: bb27 1b3e d607 d63d d1d1 8c3e 4f37 5cbe
00000200: 3f86 fb3e 8fde cf3f 2c63 883e 8684 01bf
00000210: ab43 ec3e 61de 143f ab00 b13e 5b69 1a3f
00000220: 0752 e6be 0c70 9abc c023 35bf c3d5 92bc
00000230: 9eb9 2cbd 1c39 4b3e f012 b13e 4b2d 1b3e
00000240: 49cb 713e f3f2 023f 70f9 0a3f f1ca 143f
00000250: 5db9 033f 859c 43bf ba65 68be bc60 2d3f
00000260: 610c 0bbd c38d 4ebe c90a 01be 3c36 40be
00000270: db58 32bb a012 cf3e e56d cabe 0eb6 cf3e
00000280: 35f8 ff3e da51 dcbc 738e 8cbe 0bec df3e
00000290: a598 fabe cdec b93d 4b95 debd 7306 043f
000002a0: c852 aabf cd4d 07be b864 27be 7d6d 143e
000002b0: f654 cd3e 7944 fb3e 6bf9 c33d a185 953e
000002c0: 0b40 3bbf 9e5c 153e 87ad 573f 9817 423f
000002d0: 4948 e63b be1d b8be f23c 95be 1897 d93e
000002e0: feb1 e33e 0767 ce3d 44a8 e5be 458d c5be
000002f0: 023c 5bbc c385 c23d 57d6 bfbe 792f 28bf
00000300: 466c 2b3f 0f4b a9bd 5f16 68be 877d 283c
00000310: 3c1e 353e 93a9 813e 92d4 85bf 1911 0bbe
00000320: 9fa3 ffbc 312d 24be a9cd 3cbe f99b c6be
00000330: 1728 533c 9bc2 f33e 3cc5 483e 1bf2 07bf
00000340: 4ea4 b73d df23 82be 8d89 ee3e 824b 953f
00000350: f4fe 5a3e 6c2c 33be eccf 6ebe 14f9 fa3d
00000360: 8d44 88bf 7500 cebe 0ba3 8ebf aaa4 ed3e
00000370: c709 f2be cce9 073e 72b1 a33e 7ccd a03e
00000380: 1822 da3c 08fc 35bf beef 263e 6de4 8abf
00000390: 8e06 10be 3a55 7a3f 8083 56be beed d1be
000003a0: c5f1 11bf fe3f b1bf 61e9 323f 4333 98be
000003b0: bd3a 37bf ec1f b93d fc36 48bf 84ca 0c3e
000003c0: 44dd ae3e 8a19 443e 9b3b 993d 6491 863e
000003d0: 5ec2 f83e 0904 4a3f 7234 a6be ea0d 56bd
000003e0: 3561 6d3f 445f b6be ef67 413e 8be9 ab3f
000003f0: ca1d d63e 9f69 4bbd dc90 b8be 3183 6bbe
0.3990226 -0.49213487 -0.13643005 -0.34528008 0.6084646 0.48009035 1.0009567 0.23227221
0.6269526 0.2649295 0.4367906 0.055945028 -0.7399627 0.4474598 -0.3357236 0.8817235
0.5387071 0.14575292 0.2562691 -0.516141 -0.32569522 1.2615124 1.5857046 -0.15867577
0.3050231 -0.35478866 0.40184596 -0.7158479 -0.2377607 -0.10126332 0.75097597 -0.006414185
0.11697004 -0.13448296 0.77499133 -0.5539778 -0.088869095 -1.0716661 -0.12718388 -1.0544951
-1.2181138 -0.19150597 0.06418371 -0.41963923 0.009270408 1.186022 -0.49393177 -0.2315595
-0.32355163 0.57720214 0.21899019 -0.59998596 -0.26816893 -0.1565241 -0.27250937 -0.18339264
0.9632659 0.47132012 -0.073487625 -1.1722609 0.39427686 -0.39562765 0.83693135 0.39574707
0.51564276 -0.67525053 -0.083458066 -0.35947084 0.31285664 -0.14336704 -0.11822145 -1.2180837
-0.31149656 0.21893732 0.04442047 0.59340376 0.3256747 0.036397047 0.03647487 -0.055569414
-0.59648645 0.42628244 0.3506214 0.107857764 0.54323316 0.75450945 0.86523134 -0.2215249
-1.0266482 0.33875817 0.04789946 0.09724479 0.25762618 -0.12803088 -0.5744339 0.07878132
0.29905644 0.7853756 0.13297561 -0.6433237 -0.3639894 -0.2430613 -0.36001867 -1.1513633
0.17614016 0.80099505 0.47095197 -1.0541204 0.46876204 0.01762413 -0.10627 -0.3557477
0.1856119 0.057300027 -0.43605116 -0.34834445 0.5146 -0.04752931 -0.037904967 0.8670421
-0.48005623 0.07832591 0.119781606 0.8145654 0.15151875 0.10450713 0.27503827 -0.21505474
0.4912586 1.6239794 0.26638162 -0.5059284 0.46145377 0.58151823 0.34570822 0.6031701
-0.44984457 -0.018852256 -0.70757675 -0.017924195 -0.042169206 0.19846004 0.3458476 0.15153997
0.23612703 0.5115196 0.5428686 0.58122164 0.51454717 -0.76410705 -0.22695056 0.6772573
-0.033947352 -0.20171265 -0.1260177 -0.18770689 -0.0027213607 0.40443897 -0.39536968 0.40568584
0.49994054 -0.026894499 -0.2745243 0.43734774 -0.48944584 0.09078369 -0.10868319 0.5157234
-1.3306513 -0.13213272 -0.16347015 0.14494891 0.40103883 0.49075678 0.09569057 0.29203513
-0.73144597 0.14586112 0.84249157 0.7581725 0.00702766 -0.3596019 -0.2914806 0.42498088
0.44471735 0.10078245 -0.4485494 -0.38584343 -0.013381006 0.09498169 -0.37468216 -0.6569744
0.6696209 -0.082662694 -0.22664784 0.010283834 0.17687315 0.25324687 -1.0455496 -0.13580741
-0.03120595 -0.16032864 -0.18437828 -0.38790873 0.012887976 0.4760941 0.19606489 -0.531038
0.089668855 -0.25417992 0.46589318 1.1663668 0.2138632 -0.17497414 -0.23321503 0.12254539
-1.064592 -0.40234724 -1.1143507 0.4641469 -0.47273085 0.1327278 0.31971318 0.31406772
0.026627585 -0.71087694 0.16302392 -1.085096 -0.14065 0.97786295 -0.20948601 -0.41001695
-0.57009536 -1.3847654 0.6988736 -0.2972661 -0.71574 0.09039292 -0.782089 0.13749129
0.34153187 0.19150367 0.07482072 0.262828 0.4858579 0.7891241 -0.32461888 -0.052259363
0.9272645 -0.35619557 0.18887304 1.3430647 0.41819602 -0.049661275 -0.3604802 -0.22999264

bias f4 [64]
00000000: cb34 28bf 8460 c43d 9ced b9be f04d 88be
00000010: ae10 d7be c915 12bf 42f3 16bf 39be b33c
00000020: a5b6 41bf a3ac e4be e046 e8be c121 6bbf
00000030: 64dc eabe 0a59 10bf bd87 e1be 3ebe 04bf
00000040: ec4d d4be b0a3 98bf 7760 273d 70f5 5fbf
00000050: 1877 ebbe 01ee 51bf 3b2b 4cbf 4395 69be
00000060: 42f8 99bd a31d a1bf eaf4 9b3d f994 8abd
00000070: 42a5 92be b73f 123f 9e1a 7cbf a9d4 003d
00000080: 8d2c 8ebe 5ddf c73e 209b 1e3f 3fd5 febe
00000090: eeaa 4c3e 895e 413e 5793 33bf 6eff a1bf
000000a0: dd03 06bf 84b3 c1bf ea41 a9bf e700 b5be
000000b0: 529b b7be d05e f3be 2c16 e7be 6606 343e
000000c0: 5dee 5ebe a105 5cbf cd8f 6d3d d7ba 41bf
000000d0: ac24 59bf 300e 26be fc77 8ebe 55d7 2abf
000000e0: 845a bd3d 9453 65bf 35d1 f9be 94b1 39bf
000000f0: 68d4 aebe ed3b a9be b79f 74bf ead6 34be
-0.65705556 0.095887214 -0.36314094 -0.26621962 -0.42004913 -0.5706449 -0.5896493 0.021941291
-0.7566932 -0.4466296 -0.45366573 -0.9184838 -0.4587127 -0.5638586 -0.44048873 -0.51852787
-0.414657 -1.1924953 0.04086348 -0.8748388 -0.459893 -0.8200379 -0.79753464 -0.22810845
-0.075180545 -1.258717 0.07615073 -0.067666955 -0.28641707 0.5712847 -0.98478115 0.03145281
-0.27768365 0.390376 0.6195545 -0.4977207 0.1998708 0.18883719 -0.701467 -1.2656076
-0.52349645 -1.5132909 -1.322324 -0.3535225 -0.35860687 -0.47533274 -0.45134103 0.17580566
-0.21770616 -0.8594609 0.057998467 -0.7567572 -0.8482158 -0.1621635 -0.27825916 -0.6673482
0.0924578 -0.89580655 -0.48792425 -0.7253659 -0.34146428 -0.33053532 -0.95556206 -0.17660108

weight f4 [128, 64]
00000000: de55 143e 754c 14bf 81ec 9abd 626a 8cbe
00000010: b44d cdbd 0e83 3dbe 5809 62be a6c3 28bf
00000020: 09a3 173b 1a4d ad3e 33b6 ccbe fd2d 9cbd
00000030: 56eb c93c f17c 3dbe d169 a2bc fe7f 383e
00000040: 4d12 4a3e 9bc1 183e 10ea b7be 6260 74be
00000050: 3ec0 41be 2341 f53e 1448 0d3f 50c1 433e
00000060: 078c 2ebf ef0a 8d3e 330f 4e3f c67d 6c3e
00000070: c871 8d3e f731 9bbc 00b7 173d 06d2 ca3c
00000080: 0470 223d aafb d3bd c77b 773e 6377 72be
00000090: 3c7c 0dbe 3517 083f ea0c da3d 9ffb b53d
000000a0: 7384 d8be d966 fb3e 4d3b 623e 46ac 3f3e
000000b0: 8daf 833d c5f6 d83c 9366 11bf 9c80 433e
000000c0: 1498 b53e 8af1 6f3d 9cff 7dbe 2d84 a63e
000000d0: 438c 5d3e 2636 b23d 44ed 1d3e 4346 763c
000000e0: 64ec e4bd 2d3d 8fbd 318d 42bf fa6b 533f
000000f0: c0be 23bf 3093 febe 70b1 39bf 969b da3e
00000100: 980b 373e 6592 813d 4cb4 833d abc1 673e
00000110: 4b4f a53b 620e 273e fbd5 283f a138 113d
00000120: 8e4f 453e 8a06 363e 700e b5be f9fc 963e
00000130: 616e 083e bc7a acbe 3109 d73e d74e 52be
00000140: 9ba0 09bd 40f4 f6be 11c7 9dbc 7fa7 0abf
00000150: ea19 a73d 0855 703c 0fa0 cebd c39d 073e
00000160: a9fe 0d3f 369a 7c3e c2c2 0bbf 09f2 733d
00000170: 28b6 ef3c a8af dbbe 73a5 15bd 95d6 46bc
00000180: 5b2a 103f 6915 2e3d bef2 b8be 33d9 2abe
00000190: f19c 5fbe a82d b1be 8d6b 49be b669 053f
000001a0: c50e c33d f134 3ebe 353c 95bd 0353 d3bc
000001b0: 9b91 a5be dba2 853d cf04 12bd 843d ac3e
000001c0: 7c74 96be 8cd1 5e3a 8eae 12bf 263b 163f
000001d0: 32e1 dbbd eb66 ba3d 4f8e 15bf eb0c 88be
000001e0: 2ba3 b4bc e927 ec3d 3627 e93d 772e 36be
000001f0: f126 aa3e 30c3 863c 6d1b a2be 2ebc 293e
00000200: 310c a0bc 1c75 ecbd 6961 b4be 37af a1be
00000210: b391 aa3e e316 8ebd a871 8ebe 8ccd b6be
00000220: 73cc 40bc 1c26 23bf ed8c 1a3f e034 113e
00000230: 3b24 c43e a5d7 32bf b52d bdbe eaa8 b8bd
00000240: c762 bcbe dbb3 f4be 9b37 aabe a62a 8dbd
00000250: 9519 02bf 65b6 d73e 1548 033f 4362 81bd
00000260: ef14 a03e eba0 583e b28f 2b3f 63de ed3e
00000270: 264e 273f 27e5 5fbe f632 2c3f fbff 32bf
00000280: b7d0 f03e e764 643c 8829 533f 33bc 85be
00000290: b8ad 3d3e 30c4 443f a87a d53e 2ed7 90be
000002a0: 5304 39bf 877e b23e 49c0 ca3e b225 803d
000002b0: 62d3 0f3e 3694 34be 83e3 aabd 4d97 7c3d
000002c0: f0ae b73e c864 22bf 1f34 113f 6982 873f
000002d0: c961 763f fd2f 34be 5dd6 473c 747f 503e
000002e0: 22af a63e 83da 70bc 90a6 343f 6e2d fa3d
000002f0: 6a36 38be 5d4a d83e b24c e2be 9115 223e
00000300: 0281 8cbd aacc 2f3f 5dd9 3d3f cf90 71bd
00000310: 1edd 8e3e 4257 febe 4685 ba3d 6b91 14be
00000320: 8e64 343e 9653 023e 3078 61be a18b 7cbd
00000330: ef60 8fbe 248c f03d dbc4 06bd 9bec 8dbe
00000340: 0ca1 033e db11 8f3d c1bc 15be 318b 903d
00000350: 553b 373e 4285 573e 2801 5bbe a271 97be
00000360: a828 09be 9816 043e 4c9f cabd 686c 973e
00000370: 62e7 623d 8113 543f 150d 83be 45df 8fbc
00000380: 3b6d 19be 86a5 d73c aceb 2b3f 2639 e7be
00000390: 1d56 c13c 13a4 71be 39b8 f93e 8c50 88be
000003a0: a0d8 0dbe 149e a03e 7f98 803c e1a0 123f
000003b0: db4d 4fbd d7e5 243e 0318 793e 5980 7abf
000003c0: b064 55be ba24 cf3d ed5a 2fbd 9dcb 6bbe
000003d0: db80 163d b962 983e 4ce1 febe d4a9 47bc
000003e0: d13f 2f3f 3cf8 e5be 45fe b33e 7822 413e
000003f0: da25 78bc 0844 043f 50aa 90be 4051 4c3d
0.1448588 -0.57929164 -0.07564641 -0.27424914 -0.10024586 -0.18507025 -0.22073877 -0.65923536
0.0023137948 0.33847886 -0.39982757 -0.07625959 0.02464835 -0.18504693 -0.019825848 0.18017575
0.19733544 0.14917605 -0.35920763 -0.23864892 -0.18920991 0.47901258 0.5518811 0.19116712
-0.68182415 0.27547404 0.8049194 0.23094854 0.2762587 -0.018944724 0.037039757 0.02475835
0.039657608 -0.103507355 0.24168311 -0.23678355 -0.13816923 0.5316041 0.106469944 0.088858835
-0.4228855 0.49101904 0.22092934 0.18718061 0.06429968 0.026484856 -0.5679714 0.1909203
0.3546759 0.05857996 -0.24804538 0.32522717 0.21635537 0.08701734 0.15422541 0.0150314
-0.111779004 -0.0699409 -0.7599669 0.82586634 -0.63962936 -0.4972167 -0.72536373 0.42696828
0.17875516 0.06326751 0.06430873 0.22632472 0.005044853 0.1631408 0.6595151 0.035454396
0.19268629 0.17775932 -0.35362577 0.29489878 0.13323356 -0.3368739 0.419992 -0.20537888
-0.03360043 -0.48233223 -0.019259961 -0.5416183 0.081592396 0.0146687105 -0.100891225 0.13243775
0.55466706 0.24668202 -0.5459405 0.059556995 0.029261664 -0.42907453 -0.036534738 -0.012136121
0.5631463 0.042500887 -0.36122698 -0.16684417 -0.21837212 -0.34605145 -0.19669934 0.5211443
0.095243014 -0.18574883 -0.07286874 -0.025796419 -0.3233765 0.06525203 -0.035649117 0.33640683
-0.29385746 0.0008499853 -0.572976 0.58684003 -0.10736312 0.09101661 -0.5842027 -0.26572356
-0.02205046 0.1153105 0.11384432 -0.17791162 0.33232835 0.016450495 -0.3166155 0.16575691
-0.019537063 -0.11545774 -0.35230568 -0.3157899 0.33314285 -0.06937959 -0.27821088 -0.35703695
-0.0117674945 -0.63730025 0.60371286 0.14180326 0.38308892 -0.698603 -0.36948934 -0.09016593
-0.3679411 -0.4779347 -0.3324555 -0.068929 -0.50820285 0.42131343 0.51281863 -0.0631757
0.3126597 0.21155135 0.67016137 0.4645873 0.6535362 -0.21864758 0.6726526 -0.69921845
0.47034237 0.013940073 0.82485247 -0.26120147 0.185233 0.7686186 0.41695142 -0.2828917
-0.72272223 0.34862158 0.39599827 0.0625719 0.1404548 -0.17634663 -0.08344176 0.06166773
0.35875654 -0.6343503 0.56720155 1.0586673 0.9624296 -0.17596431 0.012197104 0.2036112
0.3255549 -0.014700535 0.70566654 0.12215696 -0.17989507 0.42244235 -0.4419914 0.1582854
-0.06860544 0.6867167 0.74159795 -0.05897599 0.27903074 -0.49675947 0.09107451 -0.14508598
0.17616484 0.12727198 -0.22018504 -0.061656598 -0.28003642 0.1174548 -0.03290258 -0.27719578
0.12854403 0.069858275 -0.14622785 0.07057799 0.17893727 0.21046928 -0.2138716 -0.29578882
-0.13394415 0.12899244 -0.09893665 0.29574895 0.055396445 0.8284226 -0.25595918 -0.017562518
-0.14983074 0.026324045 0.6715648 -0.45160788 0.023600632 -0.23597746 0.48773363 -0.26623952
-0.13852167 0.31370604 0.015697716 0.5727673 -0.050611358 0.16103302 0.24325566 -0.97852093
-0.2083919 0.10114427 -0.042811323 -0.23026891 0.03674398 0.2976282 -0.49781263 -0.012186486
0.6845675 -0.4491595 0.3515493 0.18860805 -0.015145743 0.5166631 -0.28254938 0.049882174

bias f4 [128]
00000000: f88f 1fbe 1422 c4bd 16e0 96bf 8640 5d3e
00000010: 6e4c 9bbe 24bb 37bf d699 c8be c477 cebe
00000020: 2ea3 32be 9210 d7be 3c78 e7be 9e7e eabe
00000030: 7375 95bd 27b1 b4be 34a5 aabe 32d0 5abe
00000040: e78f 4dbd 9036 98bd 12e9 23be 5e67 843e
00000050: bd24 16be deb0 223e e716 d9be b451 a1bd
00000060: c8e7 983a 63c0 b23e b7c9 a63e 0379 d6be
00000070: 6f78 f2be abd1 59bf dadd 49bf 971a 18bf
00000080: c6df c13d c5b0 bfbe 02b0 abbe fe0b 53bf
00000090: 607c b5be f38f 00bf 4ec7 28bd 748f 3c3e
000000a0: cc69 6dbf d2fe 0c3e 8ed4 8fbc 0548 e3bf
000000b0: ee54 28be fe2d 9fbd a50f 87bd e6a4 e3bd
000000c0: 5896 0ebf a973 01be 1fd9 32be 24bc fabe
000000d0: f6c4 f4be 5841 bdbf 32de 93be 4594 84bf
000000e0: a960 15bf c089 94be eff9 f4be d88f 0cbe
000000f0: 15b8 6dbe 87d4 41bf 52fa 7a3e 8b75 65bf
00000100: bce4 37be eae6 e2be 5898 99be 057e 6e3e
00000110: 7078 d33d 98e6 fbbb 2fc6 65bf 9b25 213e
00000120: 4f23 90bf 75cb 313e c532 31bf 4e39 623d
00000130: c5d7 013d bed5 b1be d1de 8d3e 35af 82bf
00000140: 6951 c0bd ff15 32bf 40a0 443e ff99 f2be
00000150: acfd c6be c55f 08bf 05d8 2a3c 472e 23bf
00000160: 8974 60bf 0a51 68bf f452 93be fcb3 81be
00000170: 937a 93be 7443 c3be 52b1 e5be b8cc 48bf
00000180: c147 a2bd a6b3 4abe 1eae 0d3e 5c21 15bf
00000190: 09d6 8cbe d88b 09bf a1f8 d93c 5511 6b3b
000001a0: 72fd 1fbf 60e8 3dbe acb2 12be eab4 06bf
000001b0: b92d eabe 2f82 58be 1f35 923d ffea 37bf
000001c0: fd7a 81bc 79a9 01be d544 e4be d5e7 a3be
000001d0: 40fb a13e 8f70 b7be 81f8 10bf 35f2 42bf
000001e0: 31d1 7dbe 17e0 8ebd 5ab5 78be a006 90bf
000001f0: e0c4 193e 7c1d 04bf b3bc 69bf ca46 15bf
-0.15582263 -0.095768124 -1.1787136 0.21606645 -0.3033175 -0.7176993 -0.39179868 -0.4032575
-0.1744506 -0.4200483 -0.4520892 -0.45799726 -0.07297792 -0.35291407 -0.33329165 -0.21368483
-0.050186064 -0.07432282 -0.16006878 0.25860113 -0.14662452 0.15887782 -0.42400286 -0.07876912
0.0011665756 0.34912404 0.3257577 -0.418892 -0.4735751 -0.8508555 -0.78854144 -0.5941557
0.094665095 -0.37439552 -0.3353272 -0.82440174 -0.35446453 -0.5021965 -0.041205697 0.18414098
-0.9273956 0.13769081 -0.017557409 -1.7756354 -0.16438648 -0.07772444 -0.06594781 -0.11115436
-0.55698156 -0.12641777 -0.17465638 -0.48971665 -0.4780652 -1.4785566 -0.2888046 -1.0357748
-0.58350617 -0.29011345 -0.47846934 -0.13726747 -0.23214753 -0.75714916 0.24509552 -0.8963248
-0.17958349 -0.44316798 -0.29999042 0.2329026 0.10325706 -0.007687401 -0.8975553 0.15737002
-1.1260775 0.17362769 -0.69218093 0.05523043 0.031699914 -0.34733385 0.27709058 -1.0209719
-0.09390528 -0.69564813 0.19201756 -0.47383115 -0.3886541 -0.5327113 0.01042748 -0.6374249
-0.8767782 -0.90748656 -0.28774226 -0.2533263 -0.28804454 -0.381374 -0.44861847 -0.78437376
-0.07923842 -0.19795093 0.13835952 -0.5825403 -0.27507046 -0.5372901 0.026607813 0.0035868485
-0.624961 -0.18545675 -0.1432597 -0.526198 -0.4573801 -0.21143411 0.07139038 -0.7184295
-0.015805716 -0.12662305 -0.44583765 -0.3201281 0.31637 -0.35828063 -0.56629187 -0.7615083
-0.24786831 -0.069763355 -0.2428793 -1.1252022 0.15016508 -0.5160749 -0.9130356 -0.5831114

weight f4 [64, 128]
00000000: 6449 a0be cc1c 133d 30b1 40be edfb 2e3d
00000010: 5d39 0b3f 24e2 b9be 8ac9 30be b675 e33e
00000020: cd6b f43d 1ee0 643c afec 96be c225 843e
00000030: 235b acbe 118f 88be 9227 91bd 5c35 773e
00000040: 42ae 1c3e 0a52 c6be b685 fabe 8c7d 093e
00000050: 8375 0b3e bff4 e83e aae5 833e ee88 cdbe
00000060: b987 463e 9452 773d d113 84be 75a0 823e
00000070: 7b18 d73d 6405 acbe 8e24 b83b 94ad 453d
00000080: a637 81be 21ff 833c 2674 23be c294 5c3e
00000090: efd9 8abe 7477 283e 1c4c a2bd c2af 803e
000000a0: b01d 28be 29e5 9b3e 376b de3d 3e1b d0be
000000b0: 5ff2 b0bd 617d 0e3e e34c 18be 6539 96be
000000c0: 9139 963e c3fb df3d 231b 8b3c 3f99 83be
000000d0: 65c3 213d 77f4 a1bd 859d 7d3e 8942 043f
000000e0: 2f28 5cbe e3c1 703d 80e5 cebc 22d0 a53d
000000f0: 239e 183e 1834 9d3e 3668 063f 27d1 003e
00000100: d5f1 6bbd 3885 fabe 38c4 7dbd 72ad 0abf
00000110: 692d 46be 2304 893d f990 c13e 37a9 1bbe
00000120: b298 51be 7765 2dbe abf5 0abf 42e5 97be
00000130: 0c9a 563e eea7 38bf 475d 1cbd 6169 b4be
00000140: d4b6 7bbe e149 8d3e 8385 063e 26b5 0c3e
00000150: 55f2 153e 6da7 0f3e 0b4b dd3c af9c e43d
00000160: 8a8f ef3c bdcd 57be be09 03bf 4f55 133e
00000170: 525c 04bf 2f1b 71be b958 d0bd 161b f73e
00000180: 2600 88bd 8d17 08bf 0d51 8fbe d00e a1be
00000190: 868f 383e 8937 dbbe 3971 7fbe 4d9c 65bd
000001a0: 103f c5be 8926 793e 4ae6 ba3d f245 183e
000001b0: 5135 acbe ae48 a7be a306 31be 2d14 b83d
000001c0: 5d7d 3cbe a60e 86bd 9fd2 a4bd bcf3 0f3e
000001d0: c6a7 f5be bb9c 873c 6f5c 9b3e 18b7 1d3f
000001e0: fc72 76be 936d 75be 2350 113f 13a0 5ebf
000001f0: 1c83 843d b59b 89bb 5261 a7be 46f2 28be
00000200: 634f e93d 0a30 fb3c 05f3 6abe c869 e03d
00000210: 19a8 433e ced7 00be 459b 7a3c 96da e03d
00000220: 618b 9a3e bf17 f5bc 30c3 95be 695b bd3d
00000230: 12dd 09be a22a 91be 9062 97bc 15cb c13e
00000240: 4330 2b3e 9149 0abe d98b aabe 452f 2bbe
00000250: 7969 fa3d 4772 253e 9a37 903e 2e6d 36bf
00000260: 1b2f 96bc adba 2abe 00fc e5be 2db1 b3be
00000270: 7f94 b6be 94bf 98be 452e 713e d4ce 1b3e
00000280: c790 0ebc e046 4fbc a69e 03be 751d 6b3e
00000290: 2c99 29be cb0c 6a3e 5b27 24be ff4a 61bd
000002a0: 0ee4 c9bd 6f8c 603b a33f cabd be17 82bd
000002b0: e8d2 a4bd c5d9 623e d46d bb3d f1d5 043e
000002c0: 9750 b13c 8cf2 c9bc 5696 05be c80e 753e
000002d0: b649 47be f857 96be a014 90bc 0e25 363e
000002e0: 8159 80be 8ecb 2d3e 26e7 2e3d 38cc 363e
000002f0: b130 483e ea59 8c3e c5bb 633e 645e c43e
00000300: eb0b 8ebe 2d1d 3fbe c810 5ebd d3e4 20be
00000310: ad28 24be 85e0 143e b010 0d3f 512d e3bd
00000320: 3e4e cfbe 74b4 97bd 919b 76be 207a 133d
00000330: a563 433e 9f4f 19bf f68c ba3d 36e0 debe
00000340: 4d5b a7bd d001 813e 4d79 5cbd 2d8e 743d
00000350: 6bae d13c c64f e93e 861c bebd d01f 64be
00000360: 2cf1 713d 848e f3bd 28c8 babe 1975 af3e
00000370: fb2a b8be c26e e03d 44c5 8cbe d118 693e
00000380: 8dd3 303e 490e 5ebd 2f3a 80be aa9c 40bd
00000390: 30bd 2abc 7aff 6dbe 431a d4bd 5135 78be
000003a0: 1ae8 06be f5db e3bd 4723 093c 09c1 0cbe
000003b0: 330e d5be f3b1 d43b 890a 5fbd 12fa afbe
000003c0: 351f 02be 58f4 d3bd 5f25 383e 370e 9dbd
000003d0: d0d8 a8be 1fbf 30be dfdb a43d f741 41be
000003e0: 19d6 b9be 6ffc 843d 8978 bc3d ede5 f8bd
000003f0: 1ba4 d1bd c102 b0bc cba4 8c3e 98b7 933e
-0.31305993 0.035916135 -0.18817592 0.042720724 0.54384404 -0.36305344 -0.17264381 0.44425744
0.11934624 0.013969449 -0.2947745 0.25810057 -0.33663282 -0.2667165 -0.070876256 0.24141449
0.15300849 -0.38734466 -0.48930138 0.13426799 0.13619046 0.45499226 0.25761157 -0.40143532
0.19387712 0.060381487 -0.2579637 0.25513044 0.10502716 -0.33597863 0.005619592 0.04826124
-0.2523777 0.016112866 -0.15962276 0.21541122 -0.27119395 0.16451818 -0.07924673 0.25134093
-0.16417575 0.30448273 0.10860293 -0.40645784 -0.086399786 0.13915016 -0.1487308 -0.29340664
0.29340795 0.109366916 0.016980713 -0.25702855 0.039492983 -0.07907956 0.2476712 0.51664025
-0.21499704 0.058778655 -0.025255919 0.08096339 0.14904074 0.30703807 0.52502763 0.12579785
-0.057603676 -0.48929763 -0.061954707 -0.54170907 -0.1935326 0.06690242 0.37805918 -0.15201269
-0.20468405 -0.16933237 -0.5428111 -0.29667097 0.20957202 -0.7213124 -0.038174894 -0.35236648
-0.24581462 0.27595428 0.13136868 0.13740978 0.14643224 0.14028712 0.027013322 0.111626975
0.02924325 -0.21074577 -0.5118674 0.14388011 -0.5170337 -0.23545526 -0.101731725 0.48262852
-0.06640653 -0.53160936 -0.27991524 -0.31456614 0.180235 -0.42815807 -0.24945535 -0.056057263
-0.38524675 0.24331106 0.091259554 0.14870432 -0.33634427 -0.32672638 -0.17287688 0.08988223
-0.18407197 -0.06545763 -0.08047985 0.14057821 -0.47979563 0.016554227 0.3034396 0.61607504
-0.240673 -0.2396758 0.56762904 -0.86963004 0.0647032 -0.00419947 -0.32691437 -0.1649867
0.11392095 0.030662555 -0.22944267 0.10957676 0.19107093 -0.12582323 0.015295808 0.10979192
0.30184463 -0.02991855 -0.2925048 0.09245951 -0.13463238 -0.2835284 -0.018479615 0.37850252
0.16717629 -0.13504626 -0.3330982 -0.1671725 0.122271486 0.16156875 0.2816742 -0.71260345
-0.018333009 -0.16672774 -0.44918823 -0.35096112 -0.3566017 -0.29833663 0.23552807 0.15215617
-0.00870151 -0.012651175 -0.12853488 0.22960456 -0.16562337 0.22856443 -0.16030638 -0.055003162
-0.09857951 0.0034263392 -0.09875419 -0.06352185 -0.0804804 0.22153385 0.091518074 0.12972237
0.021644874 -0.024651788 -0.1304563 0.2393142 -0.19461712 -0.2936399 -0.01758796 0.17787573
-0.25068286 0.16972181 0.04270091 0.17851341 0.19549824 0.2741235 0.22239597 0.38353264
-0.27743468 -0.18663473 -0.054215223 -0.1571229 -0.16031142 0.14538772 0.5510359 -0.11092628
-0.40489382 -0.074074656 -0.24082781 0.03600514 0.1908098 -0.5988712 0.091089174 -0.43530434
-0.08171711 0.25196695 -0.05382662 0.059705902 0.025595864 0.45568675 -0.09282784 -0.2227776
0.05906789 -0.11892417 -0.36480832 0.34269026 -0.35970291 0.109586254 -0.27494252 0.22763373
0.172682 -0.054212842 -0.2504439 -0.047024406 -0.010421082 -0.23241988 -0.103565715 -0.24239089
-0.13174477 -0.11125938 0.008370227 -0.13745512 -0.41612396 0.0064909398 -0.054453406 -0.34370476
-0.12707217 -0.10349339 0.17983006 -0.07668727 -0.32977915 -0.17260407 0.080497496 -0.1887282
-0.36296156 0.064934604 0.09202678 -0.1215323 -0.10236379 -0.021485688 0.27469477 0.28851008

bias f4 [64]
00000000: cd10 78be 2f29 363e 800a cc3d dde0 14ba
00000010: c4ec 1f3e a018 5e3e 2c3a 17be 724a 92bd
00000020: feaf a93d 312b e7bd f7ca c2bd 1ff7 12bd
00000030: e522 8d3e 6138 52be 87e7 303e 36b2 66bb
00000040: e939 903e 3bc5 0e3e 29da 1c3d b861 893d
00000050: da2e 003e 6377 b13e 20d2 7f3d f213 043f
00000060: 24f1 fbbb 09ed 88be 64ae 073e 4cd9 fc3d
00000070: 0847 0cbe 73d3 ed3c fef0 d33c 88c8 6c3e
00000080: fed1 09be f5ff 12be 9150 07be 5402 09bf
00000090: 2c48 f43c ccc5 88be 7985 3c3d 5896 8d3e
000000a0: b767 7bbd b145 a33d 787e 72be 0f5a c2bd
000000b0: 251e bdbd be18 f53d f1de de3e 1fe7 953e
000000c0: 4ff7 2f3c 50e3 ce3d ba26 a83c 3a1c 04be
000000d0: 32c5 fcbe 4180 fe3d a71d 113e ffdc 41be
000000e0: a5ae af3d 4e9a 663d 71b3 673e 3b05 2cbe
000000f0: 1869 8cbc b36b e13b 6dd9 a4bd 7d50 013f
-0.24225159 0.17789148 0.0996294 -0.0005679259 0.15617663 0.21689081 -0.14768285 -0.071431056
0.08285521 -0.11287535 -0.09511369 -0.035880204 0.27565685 -0.2052932 0.1727582 -0.0035201437
0.28169182 0.13942425 0.03829399 0.067080915 0.12517872 0.34661397 0.06245625 0.51592934
-0.0076886583 -0.26743343 0.13250118 0.123461336 -0.13698971 0.02903149 0.02587175 0.23123372
-0.13459012 -0.14355452 -0.13214327 -0.5351918 0.02981957 -0.26713407 0.046025727 0.27653766
-0.061378207 0.07972277 -0.23681056 -0.094898336 -0.09234265 0.1196761 0.43529466 0.29277894
0.010740115 0.1010195 0.020526279 -0.12901393 -0.49369198 0.12426806 0.14171468 -0.1893196
0.08578233 0.0562995 0.22627045 -0.1679887 -0.017139956 0.006879294 -0.08049283 0.5051344

weight f4 [32, 64]
00000000: 7227 1fbe 0ba4 4abe b886 6f3d d204 1b3f
00000010: 5711 2fbf 1844 8fbe f912 533d 4aaa 8dbe
00000020: a556 d43e 27b2 86be cffb c1be cde1 0fbf
00000030: 9d04 33be cfde c5be 353b bfbd 173f 97be
00000040: 3d67 bebd d9d1 6bbc 120c f1bc 3483 943c
00000050: 2640 5b3e 3b28 ff3d 1978 d1be fe44 633c
00000060: c8dd 2f3e c029 73bc 4d86 06be 0414 9dbe
00000070: 42fe 203e 1ce4 7ebe 473c 09be ded2 a53e
00000080: 0dac 933d 1607 123e fca3 063e 23d1 ccbe
00000090: 41fd a53d 60e7 c1bd ace7 923e fb80 0cbe
000000a0: b2cc 073e 9a65 a9be 7db0 d43e 28f6 df3e
000000b0: d843 a4be 2840 b73e 3b8f 923d 6dff 193e
000000c0: 65c0 57be 70d7 9cbd ff78 7b3e d223 99bd
000000d0: be77 d73d 25bb 54be d5ec 26be 274b e63d
000000e0: 4e1f 183f f3e0 1dbe 05c8 013e 0087 03bf
000000f0: f857 f9bd 01a2 90be 8961 aebe 67b0 c63e
00000100: 3ae3 94bd 0bd4 023e 9f04 613d 883d e83c
00000110: 843f 813e 40c4 f73d 866d 043e a912 8a3e
00000120: 9820 89bd 09da 7e3d b2a2 813e 6bc4 1e3e
00000130: c9bf 85be f6b5 4bbc 1a69 313d 655c 09bd
00000140: 8d04 3d3d 4041 d8bc 58c8 d93c 1036 4abd
00000150: 4adf 56bc 6ae6 debd e7b1 6e3d 3a19 8ebe
00000160: 9e96 b4bc c88d 243d 3779 95bd 04eb 30be
00000170: 7459 a33d 3832 833e 86b3 1d3d c9dd a8bd
00000180: e7dc 223d ae02 7e3d 5c1a 2abe 6815 363d
00000190: 40e7 553b d93c 1a3e 709d 39bd ab8e 27bc
000001a0: c8cc bb3d aa83 ac3b 4e9f 38be b92c 64be
000001b0: 0cf8 913e b4c9 5dbe 04cb 903c 606a cdbd
000001c0: a574 793d d684 8bbe adf2 2cbe 26bf f63c
000001d0: 4141 8e3d 1023 393d c604 143e 869d f2bd
000001e0: 4533 0dbe 00c8 153e d045 03be 2999 153e
000001f0: b068 b53e 22bc 33bc 6f41 f83d 0620 9cbd
00000200: 76dd b7be a9f7 37be 2194 043e 5586 bc3e
00000210: c57f 01bf d17e 05be 9cf5 a93e 6136 3e3d
00000220: ffca dc3a 94e6 a3be 28a5 3cbe c07f 61be
00000230: 8114 63be ebd9 55be 8990 be3c 58f4 933e
00000240: 5ed1 93bd df44 ca3d 5290 10bf 6f57 133f
00000250: 9ed5 c13e abd1 b03e 3e0c ed3d 2584 9cbc
00000260: 7619 fd3e ee13 8a3c 71e7 ebbe fa7d e2be
00000270: 4009 87be e492 92be b079 ba3d 9af5 bc3e
00000280: 2276 4a3e ddfd 9e3d 3787 763f 7d1c d4bd
00000290: 90d2 f5bd 70cb de3d 7b6a 263f 99e4 a0bd
000002a0: 5c6d e1bd 3085 9cbe c2c4 e63d 7265 413f
000002b0: b3c6 dfbe 9715 b13e 1764 6f3e bc82 fd3e
000002c0: fa12 8cbe 7f6d 4abe 4762 fa3e 84ea 6fbe
000002d0: 39c5 a83e 5224 29bd f74f 9cbe bbbf 4e3f
000002e0: 5e1b d33e 0a84 ddbd c962 f53e 727c 24bf
000002f0: 3bf1 d53e 859b adbe 0d81 bdbd 267c f03e
00000300: d6ea 54be 9a46 903e 4ce7 31bd fc51 30be
00000310: 95c6 85be dc49 8abd eef3 a5bd 2256 183d
00000320: 03a4 6b3d 657c 04be f27c ee3c eb41 cfbd
00000330: 3108 16bd 4cf4 bcbe cb29 27be b133 fa3e
00000340: 8b75 33be 7818 883e d664 433d 015c 853c
00000350: 9656 c3bd c323 00be 2849 57bd dbdf 67be
00000360: 9088 67be f458 27be e599 c53e 8ae5 ccbd
00000370: 242b 8dbe fe52 b63d 420a 943e 96bb 02be
00000380: 592b a8bd cb71 4dba 3d73 25bd d8db 2f3e
00000390: 2673 81be 53e3 db3d 662e f4bd a46b cc3d
000003a0: 0dfe 913d 816e 92be e289 673d b55b 07bd
000003b0: 54c3 61be 60b2 5e3d e92e 343e 20cc b5bd
000003c0: ba47 2f3d 213e 5b3e 5e1d 6f3c ea00 10bb
000003d0: 6c14 303e 4b5b 993e 4001 b1be b1b4 c9bd
000003e0: 95cc ab3d 3231 513e 9092 58be 0e0c 5cbe
000003f0: 5f8f 733e a835 5ebc 0a02 bfbc 5c97 4bbe
-0.15542391 -0.1978914 0.058478087 0.6055423 -0.68385834 -0.2798164 0.051531766 -0.27668983
0.41472355 -0.26307794 -0.37887427 -0.5620392 -0.17482229 -0.38646552 -0.09337465 -0.2954032
-0.09297035 -0.014393293 -0.0294247 0.018128969 0.2141119 0.12458845 -0.4091194 0.0138714295
0.17174447 -0.014841497 -0.13137169 -0.30679333 0.15721992 -0.24891704 -0.134019 0.3238744
0.072105505 0.14260516 0.13148493 -0.4000331 0.08104945 -0.094679594 0.28692377 -0.13721077
0.13261679 -0.33085328 0.415409 0.4374249 -0.3208301 0.35791135 0.07156225 0.15038843
-0.21069486 -0.07658279 0.24557875 -0.07477535 0.10520886 -0.20774515 -0.16301282 0.11244803
0.5942277 -0.15417843 0.12673958 -0.5137787 -0.12174982 -0.282486 -0.34058788 0.3880646
-0.072699025 0.127762 0.054936048 0.028349653 0.2524377 0.120979786 0.12932405 0.26967362
-0.0669567 0.062219653 0.2531944 0.15504615 -0.26122883 -0.01243352 0.043313123 -0.03353538
0.046146918 -0.026398301 0.02658479 -0.049367964 -0.01311476 -0.10883792 0.05827513 -0.2775362
-0.022044476 0.040174276 -0.072985105 -0.17277151 0.07976046 0.2562425 0.038501285 -0.08245427
0.03976145 0.062014274 -0.16611618 0.04445401 0.0032639056 0.15062274 -0.04531616 -0.010226886
0.09169918 0.005264719 -0.1802952 -0.22282685 0.28509557 -0.21658975 0.01767493 -0.10030055
0.060902257 -0.27249783 -0.16889448 0.030120444 0.0694604 0.045199454 0.14454946 -0.118464515
-0.13789089 0.14627075 -0.128196 0.14609207 0.35431433 -0.010970147 0.121218555 -0.076232955
-0.3591115 -0.17965569 0.12947132 0.36821237 -0.50585586 -0.13036658 0.33195198 0.04643858
0.0016845166 -0.32011855 -0.18422377 -0.22021389 -0.2217579 -0.2088391 0.02326228 0.28897357
-0.07217668 0.09876417 -0.56470215 0.5755529 0.3785829 0.34534964 0.11574601 -0.01910598
0.49433488 0.016855206 -0.46075013 -0.44236737 -0.26374245 -0.28627694 0.09105241 0.3690613
0.19771627 0.07763264 0.9630007 -0.10356996 -0.12003052 0.108786464 0.65006226 -0.078561015
-0.11007187 -0.30570364 0.11267997 0.7554542 -0.43706283 0.34586784 0.23378025 0.49513805
-0.27358228 -0.19768332 0.48903105 -0.23429304 0.3296297 -0.041294403 -0.30529758 0.8076131
0.41231817 -0.108162 0.4792693 -0.6425239 0.41785607 -0.33907714 -0.0925313 0.46969718
-0.20792708 0.28178865 -0.043433473 -0.17218775 -0.2612807 -0.06752369 -0.081031665 0.037191518
0.05752946 -0.12938078 0.029112313 -0.10119995 -0.036628906 -0.36905134 -0.16324537 0.48867562
-0.17525308 0.26581168 0.047703587 0.016279222 -0.09537999 -0.12513642 -0.05256 -0.22643988
-0.22610688 -0.16342527 0.38593975 -0.100047186 -0.27571976 0.08902548 0.28914076 -0.12766871
-0.08211393 -0.0007837086 -0.040393103 0.17173707 -0.25283164 0.10736718 -0.11922912 0.09981468
0.071285345 -0.28599933 0.05652798 -0.033046443 -0.22047168 0.05436933 0.1759602 -0.088768244
0.042793013 0.21410419 0.014594404 -0.00219732 0.1719529 0.29952464 -0.34571266 -0.09848917
0.0838863 0.20428923 -0.21149659 -0.21488973 0.2378516 -0.013562597 -0.023316402 -0.19881958

bias f4 [32]
00000000: 3567 913e 0131 d33d 6e5f 003e 39b8 79bd
00000010: 4eea 2abe 6741 e3be 6cff 4b3e 1982 9b3e
00000020: ffdf f1be ee14 c5bd 1767 323e fbc7 debd
00000030: 70bd 7b3f 862b 6c3f 7074 8a3e bd22 193f
00000040: ce50 4d3f 13f9 1b3e 56fc 7b3f 2d85 ec3d
00000050: ed8b a43e c47e 8ebc fa0a 063b 2b1f 9d3d
00000060: 51dc 803f a326 2c3f 7564 a53e 942d ea3e
00000070: d531 c8be 5438 26be cedf 183f 6d83 033f
0.28399053 0.10312081 0.12536404 -0.060966704 -0.16690943 -0.44385836 0.19921654 0.30372694
-0.47241208 -0.09623133 0.17422138 -0.10877987 0.98335934 0.9225391 0.2704196 0.5981863
0.80201423 0.15231733 0.9843191 0.11548839 0.32138005 -0.017394431 0.002045332 0.076719604
1.0067235 0.67246455 0.32303205 0.45737898 -0.3910052 -0.16232425 0.597165 0.51372415

weight f4 [1, 32]
00000000: 448f 71be 576c 8e3a b3c7 35be 9513 a33d
00000010: 8bb4 1fbe d0a4 fc3c 7b4e 57be 53a6 563e
00000020: 23bc ed3c 9d1a 49bc bc2d 133e 7bd6 763d
00000030: 86d1 86be 231c 70be 5890 053e 975c 40be
00000040: 9abe 783e 4030 483e 9f0e 243e b5f9 793c
00000050: a3aa adbd f49f e7bd 4ad9 2cbe c406 e2b5
00000060: d40f 253e 9c26 58be 5d1f 823d 87b0 223e
00000070: 2bd1 16bd f2a8 043d c387 5a3e 61f8 313e
-0.23589808 0.0010866028 -0.1775196 0.07962719 -0.15596215 0.030840307 -0.21026032 0.20961885
0.029020375 -0.0122744115 0.14372915 0.06026314 -0.2633173 -0.23448233 0.13043344 -0.1878532
0.24291459 0.19549656 0.16021203 0.015257289 -0.08479812 -0.113098055 -0.16879764 -1.6840281e-06
0.16119319 -0.21108478 0.06353638 0.15887652 -0.036820572 0.03238768 0.21340851 0.17379905

weight f4 [64]
00000000: a388 8e3f 6684 b03f d0d6 d33f 5be1 923f
00000010: d714 9b3f 4616 8f3f 125e b53f b2a9 663f
00000020: 0734 bd3f 2b16 983f b180 7c3f 7792 b33f
00000030: e3bf b03f a66c b53f 19c8 b43f 47e6 b53f
00000040: f010 c03f 8bd2 6f3f efc7 323f ed54 b83f
00000050: b27f 933f ec7b df3f 56fb bf3f 6c97 a83f
00000060: 8361 963f fe29 8e3f b5a4 8b3f b188 813f
00000070: edfe 9a3f fe29 9c3f 0363 803f 10f8 563f
00000080: 8d0a 8d3f 2201 883f d664 a33f d7e3 843f
00000090: 8cee 923f 38dc b43f 47bb 8f3f 45d0 a23f
000000a0: d85c b53f 6a5f c73f 87a1 843f 1841 bb3f
000000b0: ee19 3f3f a1b8 b23f f8e3 a23f 46b3 cf3f
000000c0: cc9d 8f3f ce3a b53f 0dc0 973f b82d 8f3f
000000d0: 9c19 893f 9b47 743f 3755 d13f 400c a33f
000000e0: 7b4a c03f a5d0 823f b2bc a63f 1136 b13f
000000f0: c753 a53f b085 9d3f 8a0d a63f f106 133f
1.1135448 1.3790405 1.654993 1.1475023 1.2115735 1.1178672 1.4169333 0.90102684
1.4781502 1.1881765 0.9863387 1.4029073 1.3808559 1.4173782 1.4123565 1.42109
1.5005169 0.9368064 0.69836324 1.4400917 1.1523345 1.7459693 1.4998577 1.317121
1.1748508 1.1106565 1.090964 1.011984 1.2109047 1.2200315 1.0030216 0.83972263
1.1018845 1.0625346 1.2765148 1.0382031 1.1479049 1.4129705 1.1229028 1.2719809
1.4168959 1.5575993 1.0361794 1.462924 0.7464894 1.3962594 1.272582 1.6226585
1.1220031 1.4158571 1.1855484 1.1185827 1.071094 0.9542176 1.635413 1.2738113
1.502273 1.0219923 1.3026335 1.3844625 1.2916192 1.2306423 1.2972882 0.57432467

bias f4 [64]
00000000: 90a2 48bf 85bf b6be d4a7 a73e a0d2 2a3e
00000010: edaf a1be 7f78 a73e 6c05 c03e 2d01 933f
00000020: c069 653e b077 84bb 0f4f 413e bb3a 8ebe
00000030: 5d0a c53d de1b 373f c711 983e ffaf 8f3e
00000040: 00b2 833e 5a6f 353e adc4 18be f564 0a3f
00000050: 061f 3bbd ae78 b03e 11d3 f63d df4a c63d
00000060: d1e7 efbe d5e0 05bf cd74 273d d94e b2be
00000070: 560a e4be d89e ce3e 79fc 20bf 4f76 1f3e
00000080: da99 25bf cdcf 6f3c 17e5 2d3e 9993 c23e
00000090: 2fc0 c03e 54da a9be 69f3 e0be 717c d93e
000000a0: 0436 463e d41b 9ebe ddfe fdba 6f46 cd3e
000000b0: 007c a13e 5c9f c13e 1769 723f 59ca b6b9
000000c0: 825b 5e3e 8c28 27be 3894 e33e 18b1 373e
000000d0: 3c97 803d b270 0c3e 3dd9 3b3e 81e2 563e
000000e0: 383f 2b3f b231 a3be e01a 81be 365c 87bd
000000f0: 0a35 143e 6c17 e53d f345 073f 701d e0be
-0.7837305 -0.35692993 0.3274523 0.1668191 -0.31579533 0.3270912 0.37504137 1.1484734
0.22403622 -0.004042588 0.18877815 -0.27779183 0.09621117 0.71526897 0.29701063 0.28063962
0.2572174 0.17718259 -0.14918776 0.540603 -0.045683883 0.3446707 0.120519765 0.09682249
-0.4685655 -0.5229619 0.040882874 -0.3482578 -0.44539136 0.40355563 -0.6288524 0.15572475
-0.64687884 0.014636946 0.16981922 0.38003233 0.37646624 -0.33174384 -0.43935707 0.42477754
0.19356543 -0.30880606 -0.0019378323 0.400928 0.31539917 0.37816894 0.94691604 -0.00034864506
0.21714595 -0.16324061 0.4444902 0.1793865 0.06278846 0.13714865 0.18344589 0.20984842
0.6689334 -0.31873852 -0.25215816 -0.06609385 0.14473358 0.11186108 0.5284111 -0.4377246

running_mean f4 [64]
00000000: 7a32 4c40 626f c83e 498e 103e de96 f23e
00000010: 5279 6e3f ee70 833e 8ce8 3a3e 49ec 583f
00000020: 665a 443f 750a 1c40 20ff 343f 0c96 fd3f
00000030: ec86 343f 0b57 8d3e 995f 9d3f 3842 973e
00000040: 531d b43f beab e13e 1ee6 ac3e b4e2 813e
00000050: bffb ca3e ea0b 713e 42e6 cf3e f29b b33e
00000060: c477 c73f 7b2a 5e3f 92c3 633f d81d b03e
00000070: 429f 943e b152 c33e 90a2 3c3e 01ee fa3f
00000080: 5fa1 b13f 9fa0 6a3e c644 af3f ca76 573e
00000090: bcf3 bc3e fb4c 253f 65e2 d43e 0a24 6a3f
000000a0: 7f1b 973f 041e 843f e460 083f 313f 623f
000000b0: b91c fd3e 1a42 213f 3394 8c3e e1e4 2940
000000c0: 10a4 af3f 1e42 863f 6c6a b83e f581 1b3e
000000d0: a868 f53d 3d76 993f 9898 643e 850d ae3f
000000e0: fe9d 0d3f c3a0 be3e 16e0 dc3e 4078 ce3f
000000f0: b998 1a3f ecb0 be3f 239d ec3e 86b1 2740
3.1905808 0.39147478 0.14116777 0.47380728 0.9315387 0.25672096 0.18252772 0.8473554
0.7670044 2.4381382 0.7070179 1.9811416 0.70518374 0.2760547 1.2294799 0.29542708
1.4071449 0.4407634 0.33769315 0.25368273 0.39645192 0.23539701 0.4060536 0.35079914
1.5583425 0.8678357 0.8897029 0.3439777 0.29027754 0.38149026 0.18421388 1.9603883
1.3877372 0.22912835 1.3692863 0.21041408 0.36904705 0.6457059 0.41578975 0.9146124
1.1805266 1.032166 0.53272843 0.8837767 0.49435976 0.6299149 0.27456817 2.6545947
1.3721943 1.0488927 0.36018693 0.15186293 0.11982852 1.1989208 0.22323835 1.3597876
0.553192 0.37232026 0.43139714 1.6130447 0.60389286 1.4897742 0.46213636 2.6202102

running_var f4 [64]
00000000: d5d7 8e40 f039 0b3f 623d c63e 1ebd 353f
00000010: c435 db3f fb67 d53e 6d9d 913e 26b8 c33f
00000020: af8c bb3f cb96 6740 dce4 ee3f facb 6e40
00000030: 4f4b c93f 4a1d 0b3f 81ee 0f40 e3ac 533f
00000040: 0956 fa3f 9703 163f 9514 283f 90ed 353f
00000050: c4eb 9d3f 209d 7b3f d511 813f 77f1 183f
00000060: cf8e 1e40 c567 b13f 81a0 1a40 c053 113f
00000070: 7812 be3e d01d 2a3f faa5 413e db72 5d40
00000080: dc57 4b40 0718 a73e 5673 2140 269e 9a3e
00000090: 243f 343f 51c0 3e3f 3160 793f b3f4 fa3f
000000a0: 1fe4 1740 dc75 0140 3903 1e3f f499 0d40
000000b0: 3ac2 3b3f 0a53 a03f 8e2e f53e 5489 6740
000000c0: d8d7 4040 4a31 3d40 41d4 013f 0b73 1b3e
000000d0: eb17 ac3e 36f0 b73f cf12 103f 9fb6 2640
000000e0: cbf4 793f c466 033f 1904 563f ce74 6c40
000000f0: efb6 7c3f 620c 4440 647f 7b3f 2b73 8440
4.4638467 0.5438528 0.38718706 0.70991695 1.7125783 0.41680893 0.2844042 1.5290573
1.4652308 3.6185787 1.8663592 3.7311997 1.5726107 0.54341567 2.2489321 0.8268568
1.9557506 0.5859923 0.65656406 0.71065617 1.2337575 0.9828663 1.0083567 0.59743446
2.4774663 1.3859793 2.4160464 0.5676842 0.37123466 0.6645174 0.18910971 3.4601352
3.1772375 0.3263552 2.5226645 0.30198783 0.70408845 0.745122 0.974124 1.9605926
2.3732984 2.0228186 0.6172367 2.2125216 0.7334324 1.2525342 0.4788708 3.6177568
3.013174 2.9561334 0.507145 0.15180604 0.33611998 1.4370182 0.562787 2.6048963
0.9763915 0.5132868 0.836 3.6946292 0.98716635 3.0632558 0.9824126 4.1390586

weight f4 [128]
00000000: 8ee8 503f b204 783f b1b0 c23f 79fc 793f
00000010: 8c0d 9d3f 421a 9e3f 1d94 8e3f f3aa 863f
00000020: d834 673f 3c99 db3f a69f 9a3f 4e9b 813f
00000030: 6ee3 a63f cc72 843f b56b e93e ddc1 cc3f
00000040: bf96 9f3f 1b40 c73f 7bd5 b53f 5875 b73e
00000050: a389 973f 375f 993f ec3e c63f 9451 a93f
00000060: 8aa0 7d3f 8bc1 7d3f c558 693f 8330 da3f
00000070: 18e5 953f 1323 c33f 1f9f 943f 0942 863f
00000080: 5a30 933f 7a34 883f 3141 a03f 3413 b23f
00000090: 577c 873f 764a 7f3f 29d5 263f cb98 853f
000000a0: e43c 6a3f fb9c 8e3f 87e7 5d3f 186e c23f
000000b0: 3a71 683f 6d43 0a3f a7b7 8c3f 6af6 863f
000000c0: 7715 9b3f cbc0 6f3f 8b8e 723f cd6a b53f
000000d0: 28b4 103f 640b ed3f e095 823f 8876 ca3f
000000e0: 137d 813f c113 4f3f 8c1c 113f d5d9 573f
000000f0: 9708 243f 7166 a33f 0a8d c13f 6e60 c23f
00000100: d86e ac3f 0fd3 7e3f 53af 7b3f db32 813f
00000110: 8d38 b13f 5f03 983f cbd5 de3f f788 353f
00000120: 8c03 d73f a557 883f f697 0040 e63a 893f
00000130: bf4f 8c3f 20c5 9b3f d598 973f d373 af3f
00000140: c217 683f 2d20 bc3f f520 963f b79b 823f
00000150: 8a8f db3f 926e cc3f 1081 873f d3ea a23f
00000160: 4c71 cf3f 07e4 8d3f 74cf b93f 38fb 503f
00000170: 9a70 b03f b756 843f 866e 913f 551c 7b3f
00000180: e872 d33f fee4 df3f 2b7e a33f 12db 973f
00000190: c098 a83f 59dc 983f 7723 9f3f 48dd 6b3f
000001a0: ecd5 933f 1c28 b43f 1d01 e73e 42c7 9a3f
000001b0: 6994 a43f 68dd 8c3f 08d1 813f f6e8 cf3f
000001c0: bea9 6e3f d78a 633f 3a19 cd3f c77e 963f
000001d0: d887 af3f 387b b93f 3f97 ae3f 0e1b 8c3f
000001e0: 49ee 543f a3d9 823f d1b6 ac3f 6adb b43f
000001f0: cd31 403f f730 923f 5446 983f c15d 6b3f
0.8160485 0.96882164 1.5210172 0.9765087 1.2269759 1.2351763 1.113895 1.052092
0.9031501 1.7156138 1.2079971 1.012552 1.3038156 1.0347533 0.45589986 1.5996662
1.2467879 1.5566438 1.4205774 0.35831714 1.1838878 1.1982182 1.5487952 1.3228021
0.9907309 0.9912345 0.91151077 1.7046055 1.1710539 1.5245079 1.161106 1.0488902
1.1499131 1.0641015 1.2519895 1.391211 1.058482 0.99722993 0.65169007 1.0437254
0.9149916 1.1141657 0.8668141 1.5189848 0.9079777 0.54009134 1.0993546 1.054395
1.2115926 0.93653554 0.94748753 1.4173218 0.56524897 1.8519101 1.0201988 1.5817423
1.0116295 0.8088952 0.56684184 0.8431676 0.6407561 1.2765638 1.5121167 1.5185678
1.3471327 0.995408 0.983144 1.0093645 1.3845383 1.1876029 1.7408994 0.70912117
1.6797957 1.0651747 2.009275 1.0721099 1.0961837 1.2169533 1.1843516 1.3707222
0.9066125 1.4697319 1.1728808 1.020377 1.715318 1.5971243 1.0586262 1.2727913
1.620645 1.1085213 1.4516435 0.8163333 1.3784363 1.0338963 1.1361854 0.98090106
1.6519442 1.7491758 1.2772878 1.186373 1.3171616 1.1942245 1.2432698 0.92134523
1.1549659 1.407474 0.45118037 1.2092059 1.2857791 1.1005068 1.0141916 1.6242969
0.93227756 0.8888373 1.6023324 1.1757439 1.3713331 1.4490728 1.3639907 1.0945756
0.83176094 1.0222667 1.3493291 1.412946 0.7507599 1.1421193 1.1896462 0.9193993

bias f4 [128]
00000000: 5d4d 483c 2970 f83a 26ee 1fbd 5456 773e
00000010: 0e92 c2bd 1f0d 7cbe 938b 81bd cc38 233d
00000020: 3a31 093e 79f1 8e3e 453c fc3c d79a eb3e
00000030: f5dc 373f be22 893e 770e 7dbe 30b9 cf3c
00000040: babd 253e f8d9 77be fcec a8be 4f16 00be
00000050: 5bc3 373e b7b4 433e b41f c03e e629 9cbe
00000060: cdaf 4abe 5ffe 0dbf 4f64 543e b5d9 023e
00000070: 09c4 8c3e afa5 ed3e ebac 2b3e d422 e33e
00000080: cf17 453e a77a cf3d 39d6 5abe 650a ac3e
00000090: 3aef 13bf b922 173f 3354 a1bd 0787 13bd
000000a0: 0897 463e b49e ef3e 97f7 e4bd 75f8 ebbd
000000b0: 1334 cbbb 8a05 e6bd 71e5 44be ac8c 84be
000000c0: dbfe d8be 94b9 1b3f 369d cabc d95f debe
000000d0: 9ecc c3bd 4e16 e1be 0947 e73e b45b 92be
000000e0: eb48 86be 0028 c6be c3a0 6e3e e778 3fbe
000000f0: 6be9 803e 413c 93bc 506e 913e 9fe7 8bbe
00000100: f6c0 76be 0c73 153e 87a7 963e 11b0 903e
00000110: 4363 10be 5c26 473e 6765 3e3d 9cd3 cfbd
00000120: 458b ef3e 3e5f f93e c993 75be 8779 853e
00000130: 2ff9 303f 5332 bb3d 1310 babd e634 493f
00000140: 2d67 be3e 22bf 833d 7bde cdbe c58d 62bf
00000150: a261 c2be ce34 b53e b997 d5bc e8ef 31be
00000160: 0d2f c83e 9357 bcba fcb2 013e 8456 2f3e
00000170: d47f 6f3d 7099 e9be 322a 82bd 289f 533e
00000180: fac6 c53d 2cf9 313d 5a2f 2e3e 5578 0bbe
00000190: 0312 283f 4007 d43d 09b5 683e 7ac4 cabe
000001a0: 727d adbc f876 16be 92e8 773e b9eb 933e
000001b0: 1686 ca3d b556 073c 962d 883e 3580 65bd
000001c0: b1dc 80be a11a b23d 0527 963e a63e 773e
000001d0: 4ac2 78ba e697 c63e dc26 40be 2167 0b3d
000001e0: 5afa b13e 0d81 aebd 0da2 61bf bf3f c2be
000001f0: e598 84be 19b2 ec3e 4659 1abe 3eaa bc3e
0.012225476 0.0018954325 -0.039045475 0.24154025 -0.09500514 -0.2461438 -0.0632545 0.039849088
0.13397685 0.27918604 0.030790458 0.4601657 0.7182153 0.2678432 -0.24712549 0.025356859
0.16185656 -0.24204242 -0.32993305 -0.1250851 0.17945616 0.19111906 0.37524188 -0.30500716
-0.19793625 -0.55466264 0.2074139 0.12778361 0.27493313 0.4641547 0.16765182 0.4436251
0.19247364 0.10130816 -0.21370782 0.3360168 -0.57786906 0.5903736 -0.07877388 -0.036017444
0.19393551 0.46800768 -0.111800365 -0.11521999 -0.006201276 -0.11231525 -0.1922815 -0.25888574
-0.4238194 0.60830045 -0.024733167 -0.434325 -0.09560512 -0.4396233 0.45171383 -0.2858559
-0.26227507 -0.38702393 0.23303513 -0.18698464 0.25178084 -0.017973067 0.28404474 -0.2732515
-0.24097046 0.14594668 0.29424688 0.28259328 -0.14100365 0.19448227 0.046483424 -0.10147783
0.46785942 0.48705477 -0.23982157 0.2606928 0.69130224 0.09140458 -0.09085097 0.7859634
0.37188092 0.0643294 -0.40208802 -0.88497573 -0.37965113 0.3539185 -0.026073324 -0.17376673
0.39098397 -0.0014369361 0.12665933 0.17122847 0.058471516 -0.45624876 -0.06355704 0.20666182
0.096570924 0.04345052 0.1701025 -0.13620122 0.65652484 0.10352945 0.2272531 -0.39603025
-0.021177981 -0.1469382 0.24209812 0.2889078 0.09888856 0.008260419 0.2659728 -0.05603047
-0.25168374 0.08696485 0.29326645 0.24144992 -0.00094894005 0.38787764 -0.18764824 0.0340339
0.34761316 -0.08520708 -0.88137895 -0.3793926 -0.258979 0.46229628 -0.15073118 0.36848634

running_mean f4 [128]
00000000: 8f3f 9a3f b09c 9f3f c75b b23f 7734 3140
00000010: 7e8f 3b3f c0d2 333f b226 673f a95e 253f
00000020: 1838 6a3f d050 ab3f a518 783f 1c84 c13f
00000030: 8ff4 1540 6f46 573f 92d3 4f3f 25b8 6040
00000040: a9da a13f 66d7 4d3f 74b2 5c40 71b4 913f
00000050: e697 0840 80a1 8b3f 4553 fa3e f64c 1140
00000060: 9890 463f 11a6 f23f 9943 0140 2c3e a03f
00000070: 170a df3f d786 243f 22ac e73e 5b6c 953f
00000080: 383c 0c40 93a8 1e3e 3235 0340 35a3 4e3f
00000090: d3f6 bb3f 9f77 c73f b8ff b13f 57a0 d03f
000000a0: ac93 643f 82d2 4d40 482f 393f 882e a03e
000000b0: 1570 583f 4c7a 943f 2bfb 713f 4552 2740
000000c0: 1a6e 6d3f 62a9 ad3f aa01 ae3f ebdc 593f
000000d0: 2b54 793f 8040 013e 9e69 bf3f 9f4b 843f
000000e0: a92a 463f 2072 4d3f 0db6 e33f 6cab e93f
000000f0: 4e77 623f 03fe a13f 037e a73f 331e 903f
00000100: c5ab fe3f dd36 b93f 9c44 4e3f 0ec9 1b40
00000110: 5400 983f 35c1 2640 b5b4 973f 9117 e53f
00000120: 5dd1 f73e 402b 983f daad 8d3f 0672 2140
00000130: 2446 823f ceff 023f c340 1640 e49c 943f
00000140: 2911 3440 4807 0540 d682 2640 9c95 3640
00000150: 4279 8a3f bcc6 383f 8ada bd3f 4fc5 f53e
00000160: ade2 eb3f 6f1d c93e 2e85 8e3f 5b37 e33e
00000170: 1c4a 1b40 6822 6a3f 373b 3e3f fa6a 3d3f
00000180: e7d5 963f d7aa 943f bfef f23f 81e7 0e3f
00000190: 696c 0740 ef0a b23f 7420 e83f 2b66 bf3f
000001a0: 5635 7e3f 18b7 0540 c2ed 463f a792 483f
000001b0: ac20 633f 070c 2e3f be24 2140 929d b43f
000001c0: 5e56 4440 a6da a53f 1136 c53f 782c 6f3f
000001d0: 4afc 1140 e01e 543f 6939 963e a5e8 933e
000001e0: 0206 653f 12ae 3840 1bca a43f 89e7 773f
000001f0: ee4b cd3f f0c8 e03f e1c6 f83e 5bf2 113f
1.2050647 1.2469692 1.3934258 2.7688272 0.73265827 0.70243454 0.9029342 0.64597565
0.9149184 1.3384037 0.96912605 1.5118442 2.3430517 0.8409185 0.81182206 3.5112393
1.2644855 0.80406797 3.448392 1.1383191 2.1342711 1.0908661 0.48891655 2.2703223
0.7756438 1.895693 2.0197508 1.2518973 1.7424954 0.6426825 0.45248514 1.1673692
2.1911755 0.15493993 2.0501218 0.80717784 1.46847 1.558338 1.3906164 1.6298932
0.8928783 3.2159734 0.7233777 0.312855 0.84546024 1.1599822 0.94523877 2.6143963
0.92746127 1.3567317 1.3594258 0.8510272 0.97394055 0.12622261 1.4954107 1.0335578
0.77408844 0.80252266 1.7789932 1.8255439 0.88463295 1.2655643 1.3085331 1.1259216
1.989617 1.4469868 0.8057344 2.4341464 1.18751 2.6055424 1.1852022 1.7897817
0.4840192 1.1888199 1.106868 2.5225844 1.0177655 0.51171577 2.3477027 1.1610379
2.8135474 2.0785694 2.6017356 2.8528814 1.0818255 0.72178245 1.4832318 0.48002097
1.8428551 0.3928027 1.1134393 0.4437817 2.4263983 0.9145875 0.74309105 0.7399136
1.1784028 1.1614636 1.8979415 0.55821997 2.1159918 1.3909587 1.8134904 1.4953054
0.99300134 2.0893002 0.7770654 0.78348774 0.8872173 0.679871 2.5178676 1.4110587
3.0677714 1.2957351 1.5407125 0.9342723 2.2810235 0.8285961 0.29340675 0.2888843
0.8946229 2.8856244 1.2874178 0.9683767 1.6038797 1.7561321 0.48589233 0.5701043

running_var f4 [128]
00000000: 5223 e340 d328 d040 9411 3541 4695 aa41
00000010: d57a 3140 7620 7240 95dd ab40 22d8 9240
00000020: 5292 3a40 e9ca 1741 240a b040 1156 f640
00000030: 72d7 6a41 4d5c 6540 7db7 4540 9811 0c42
00000040: 64b1 0e41 7180 a140 e7a9 a241 6bf1 5e40
00000050: 54f8 5a41 e222 b140 9e60 1040 4e2d 2041
00000060: ce7d 6240 aa05 e140 cda3 cf40 8f3b f040
00000070: e37c 2841 4731 6240 45a6 0e40 7d1f ed40
00000080: 601a 2141 928c 5a3f 7f52 3d41 2aef 8340
00000090: 5653 0641 158c 3b41 c7f9 7440 3384 f940
000000a0: a8e2 9540 615a bf41 4bb4 4c40 77ef f93f
000000b0: d7dd 3f40 ca00 7640 76e3 9f40 7b04 8741
000000c0: 1385 1341 d59d aa40 2721 0741 41ca 7e40
000000d0: cfa4 6e40 4801 913f a148 0841 d8fe 0441
000000e0: 8f21 2640 c095 3d40 34bc c640 da0e 2f41
000000f0: 1ac8 9240 620a 2b41 b09d 9d40 b4c8 f640
00000100: 46d6 5941 3801 0c41 1e99 7f40 33eb 3c41
00000110: 3a20 b240 3705 ab41 1f76 4d41 8f7a b240
00000120: 54d1 2d40 2e18 b140 9508 e540 35d4 6a41
00000130: 020f c840 74df b23f 54f8 1e41 7b37 f940
00000140: acae 8141 7761 5841 011d 4c41 2383 a441
00000150: f77b 1241 9ca7 f340 7a39 2841 f51c 4640
00000160: 024d 8141 921f f23f 34c4 c640 cc67 c63f
00000170: 5efd 5241 5f02 9040 6d69 3540 8d05 9540
00000180: b689 e440 9a91 d840 25f6 6841 e632 1140
00000190: 73fc 6e41 7e26 e040 1cad 5241 9cd8 bf40
000001a0: 4446 aa40 d341 7641 ba49 7240 8291 8240
000001b0: f8c2 8a40 04c0 3c40 976b 0941 015a 0041
000001c0: 70ef 8e41 421a a740 aee4 4341 844a 9c40
000001d0: b224 2841 38d9 5c40 d29b b73f da81 803f
000001e0: 6962 8d40 0c9d 9541 c4cb d340 2c24 c440
000001f0: a452 0d41 04ce 5a41 9de2 8140 2d6e 7c40
7.0980616 6.5049834 11.316792 21.322887 2.773122 3.7832313 5.3707986 4.5888834
2.9151807 9.487039 5.501238 7.698006 14.677599 3.5837586 3.0893242 35.01718
8.918308 5.046929 20.33296 3.483485 13.685627 5.535508 2.255897 10.011061
3.5389285 7.0319414 6.488745 7.5072703 10.53049 3.5342577 2.2288983 7.410094
10.068939 0.85370743 11.832641 4.122945 8.395346 11.7217 3.8277452 7.7973876
4.683918 23.91913 3.1985042 1.9526204 2.997915 3.8437982 4.996516 16.877188
9.219989 5.3317666 8.445594 3.9810946 3.728809 1.1328516 8.517732 8.312218
2.5957983 2.962265 6.210474 10.941126 4.5869265 10.690035 4.925499 7.712
13.614813 8.750298 3.9937205 11.807422 5.566434 21.377546 12.841338 5.577461
2.7159014 5.5342016 7.1572976 14.676808 6.251832 1.3974442 9.935627 7.7880225
16.210289 13.523795 12.757081 20.564032 9.155265 7.61421 10.514032 3.0955174
16.162601 1.8915884 6.2114506 1.5500426 13.186857 4.5002894 2.8345597 4.6569276
7.1418104 6.7677736 14.560094 2.2687316 14.936633 7.0046988 13.167263 5.9951916
5.3210773 15.39107 3.78575 4.080262 4.3363 2.9492197 8.588767 8.021974
17.866913 5.2219553 12.24333 4.884096 10.508959 3.450758 1.4344428 1.0039628
4.418263 18.701683 6.6186237 6.1294155 8.832676 13.675297 4.0589128 3.9442246
