Models/TrainedModels/FCNNs/FCNN1.pt (torch, 21585 bytes, 13 tensors)

weight f4 [64, 22]
0	0x3d22106b	0.03956644
1	0x3ee6e215	0.45094362
2	0xbdbf8142	-0.09350826
3	0xbebc31a0	-0.3675661
4	0xbe122663	-0.14272456
5	0x3f2990ce	0.6623658
6	0x3ea00a6a	0.31257945
7	0x3ec81e6e	0.39085716
8	0xbe4273f1	-0.1898954
9	0xbe203cb5	-0.15648158
10	0xbeb770b3	-0.3582817
11	0x3f2a0f0b	0.66429204
12	0x3e85a88c	0.26105154
13	0xbf3dfe4d	-0.7421616
14	0x3d92fbc6	0.07176928
15	0x3e2591dd	0.16168924
16	0xbeee471a	-0.4653862
17	0xbf531179	-0.82448536
18	0x3e78c137	0.24292456
19	0xbec2c40c	-0.38040197
20	0xbf1b5965	-0.6068328
21	0x3e83c216	0.25734013
22	0x3e06d607	0.13167582
23	0x3e059032	0.13043287
24	0xbe456951	-0.19278456
25	0xbe62d3c0	-0.22151089
26	0x3e5c087d	0.21487613
27	0xbe9af0fb	-0.30261979
28	0xbe927e0d	-0.28611794
29	0x3edfa660	0.43681622
30	0xbd7f1442	-0.06227518
31	0x3d278e66	0.040907286
32	0x3f1d9cf7	0.61567634
33	0xbcb9ecd6	-0.02269594
34	0x3ec4945c	0.3839444
35	0x3f9de3f9	1.2335197
36	0x3e4ab46f	0.19795392
37	0x3f19bf99	0.6005798
38	0xbea1fb2d	-0.31636944
39	0xbe90e323	-0.28298292
40	0xbe065cc8	-0.1312133
41	0xbfdbde4a	-1.7177212
42	0x3e219de1	0.15782882
43	0xbeb354b8	-0.35025573
44	0x3e509b2e	0.20371696
45	0xbf258c2c	-0.6466701
46	0x3dc3a8f7	0.09553712
47	0x3f31f771	0.6951819
48	0xbe1118a6	-0.14169559
49	0xbea6cdb8	-0.32578826
50	0xbf2e5a4a	-0.6810652
51	0xbf3f102f	-0.7463407
52	0xbed4d7e1	-0.41570953
53	0xbd153a35	-0.036432464
54	0x3c39b017	0.011333487
55	0x3ee1e893	0.44122753
56	0xbea68a75	-0.3252751
57	0xbf1d5030	-0.6145048
58	0x3e212399	0.15736236
59	0x3dd0f4cd	0.10202942
60	0x3db07bac	0.086173385
61	0xbee7753b	-0.45206627
62	0x3eebc64c	0.46049726
63	0xbed51521	-0.41617683
64	0x3f1fae68	0.623755
65	0xbe514111	-0.20434977
66	0xbe88d937	-0.26728222
67	0x3ec518f8	0.38495612
68	0x3ecd3765	0.40081325
69	0x3e80a95c	0.2512921
70	0x3e8753ec	0.26431215
71	0x3f220f12	0.63304245
72	0x3f0fbc36	0.5614656
73	0xbc830c40	-0.015997052
74	0x3d0fa896	0.035072885
75	0xbf0321ca	-0.51223433
76	0x3922a8fb	0.00015512474
77	0xbe28f82b	-0.16500919
78	0x3efab9bd	0.48969832
79	0x3d963b94	0.073355824
80	0xbe28a707	-0.16469966
81	0xbe96790a	-0.2938922
82	0x3f744a5d	0.9542597
83	0x3e00c857	0.12576424
84	0x3dcab4ec	0.09897789
85	0xbd369f68	-0.044585615
86	0x3e594230	0.21216655
87	0xbe1157cd	-0.1419365
88	0xbb47a631	-0.0030464048
89	0x3ec78f04	0.389763
90	0x3e936505	0.2878801
91	0xbf0027f3	-0.5006096
92	0x3e78a1d6	0.24280486
93	0xbe068e6d	-0.13140269
94	0x3e1f4386	0.15553102
95	0x3c9383f1	0.01800725
96	0x3ec0b690	0.37639284
97	0xbe93d5e2	-0.28874117
98	0xbe3496cd	-0.17635651
99	0x3e2d2364	0.16908032
100	0xbeb0a6c2	-0.34502226
101	0x3f00002f	0.5000028
102	0xbd8aee31	-0.06783713
103	0x3f2d7f6b	0.6777255
104	0xbf1ab148	-0.6042676
105	0xbd2cb515	-0.04216488
106	0x3e6a4ea7	0.22881566
107	0xbf9e3c4b	-1.236215
108	0x3e2b8f97	0.16753994
109	0x3ede2d88	0.43394113
110	0xbe210a31	-0.15726544
111	0x3c903592	0.01760367
112	0x3edde775	0.4334065
113	0x3f47a987	0.77993053
114	0x3e2d3c3c	0.16917509
115	0x3e0486d1	0.12942053
116	0x3ebce3d8	0.3689258
117	0xbcd843fc	-0.026399605
118	0x3e2a288c	0.1661703
119	0xbd64027c	-0.05566643
120	0x3e0b39a8	0.13596213
121	0xbca69b94	-0.020337857
122	0xbe03574e	-0.12826273
123	0xbc55be9d	-0.013045934
124	0xbefd3990	-0.4945798
125	0xbe99aac7	-0.30013105
126	0x3ee26c08	0.44223046
127	0x3eb1fd8b	0.3476375
128	0xbebdc550	-0.370646
129	0x3f09857f	0.53719324
130	0xbe0c0887	-0.13675128
131	0xbf1d01ba	-0.6133076
132	0x3f3d464d	0.73935395
133	0xbe824824	-0.25445664
134	0x3d221b4f	0.039576825
135	0xbe0f246a	-0.13978735
136	0x3d889e9d	0.06670878
137	0xbc9aa969	-0.01887961
138	0x3e5dea65	0.21671446
139	0x3e52198b	0.20517556
140	0xbdff68df	-0.124711744
141	0xbe84fa09	-0.25972012
142	0x3e5ee7ef	0.21768163
143	0x3e2369be	0.15958306
144	0xbe5aae25	-0.21355493
145	0x3e9e7fc7	0.3095686
146	0x3eed35b4	0.46330035
147	0x3ead9712	0.3390432
148	0x3e2d092c	0.1689803
149	0xbf6a169f	-0.9144077
150	0x3e7886bd	0.24270149
151	0xbedc71fe	-0.4305572
152	0x3d83f3aa	0.064429596
153	0xbf87d111	-1.0610677
154	0x3f25805b	0.6464898
155	0x3e97116f	0.29505488
156	0xbe348374	-0.1762827
157	0xbd2039a7	-0.03911748
158	0x3d78dfb9	0.060760234
159	0x3e5823ab	0.21107356
160	0xbed3d3ff	-0.41372678
161	0xbe59d76d	-0.21273585
162	0xbd16bab5	-0.03679915
163	0xbeb08432	-0.34475857
164	0xbe086b73	-0.13322239
165	0xbf57f4e2	-0.84358037
166	0x3f0504d9	0.5196052
167	0xbcac5a7f	-0.021039246
168	0xbdd7db15	-0.105398335
169	0xbf9e0612	-1.2345603
170	0x3ea1db8e	0.3161282
171	0xbeceb382	-0.4037133
172	0x3de5f763	0.11228826
173	0x3efd55f1	0.4947963
174	0xbe43d4ad	-0.19124098
175	0xbf5d6ca8	-0.8649392
176	0xbf317ac9	-0.6932798
177	0x3d256f23	0.04038919
178	0xbe3ccba8	-0.18437064
179	0xbe3e7e70	-0.1860292
180	0x3f9d358d	1.2281967
181	0x3f251193	0.6447994
182	0xbf486338	-0.78276396
183	0xbeb9897f	-0.36237714
184	0x3e8149b0	0.25251532
185	0x3f3ac3eb	0.729552
186	0xbe37dbbf	-0.1795492
187	0xbea86e59	-0.3289669
188	0xbe87358d	-0.26408044
189	0xbe204dfe	-0.15654752
190	0xbe36a476	-0.17836174
191	0xbed15ecd	-0.4089264
192	0x3e703127	0.2345625
193	0xbe8a2b64	-0.2698623
194	0x3f268dae	0.65059936
195	0x3e603dca	0.2189857
196	0x3ea216cd	0.3165802
197	0x3df4cf51	0.11953605
198	0xbee706b4	-0.45122302
199	0xbe1e9abe	-0.15488717
200	0xbedf0afd	-0.4356307
201	0xbdb808e4	-0.08986071
202	0x3ef4c163	0.47803792
203	0xbe9ec05e	-0.3100614
204	0xbf43937a	-0.76396906
205	0x3f023c6f	0.50873464
206	0xbdd6bf56	-0.10485713
207	0xbe35ad1d	-0.17741819
208	0x3e075955	0.13217671
209	0xbec71cc1	-0.38889125
210	0xbe237fba	-0.15966693
211	0x3bedd029	0.0072574806
212	0xbc664b54	-0.014056046
213	0xbebb1886	-0.36542147
214	0xbdd79b0e	-0.10527621
215	0x3e21a66c	0.15786141
216	0x3eed7c34	0.46383822
217	0xbe1b81c3	-0.15186219
218	0xbdc49ced	-0.09600244
219	0x3e3de6ca	0.1854507
220	0x3e3c520d	0.18390675
221	0x3d089e55	0.033354122
222	0xbec7e1aa	-0.39039356
223	0xbf8b7f7a	-1.0898278
224	0x3e3a3143	0.18182854
225	0x3da536cd	0.08067093
226	0x3e69548c	0.22786158
227	0xbefffda5	-0.49998203
228	0x3e627d9a	0.22118226
229	0xbebbdceb	-0.36691985
230	0xbe0927ca	-0.13394085
231	0xbf016d8e	-0.5055779
232	0x3ef02979	0.4690664
233	0x3d9241d4	0.07141462
234	0x3ebaa4d3	0.36453876
235	0xbedc81da	-0.4306782
236	0x3d66f4ba	0.056385733
237	0xbf0d99fc	-0.55313087
238	0xbe284d98	-0.1643585
239	0x3f0939a3	0.5360357
240	0xbdce96d6	-0.100873634
241	0x3e77a739	0.24184884
242	0xbe3d7258	-0.1850065
243	0xbe568efe	-0.20952985
244	0x3e015bc0	0.12632656
245	0x3f671975	0.9027322
246	0x3dd71429	0.10501892
247	0x3f2cbf06	0.6747898
248	0x3d01370d	0.03154664
249	0xbe19d6f6	-0.15023407
250	0xbe8eb819	-0.2787483
251	0x3e088c30	0.13334727
252	0x3e7872e9	0.24262585
253	0x3ed142ae	0.40871185
254	0xbdd72304	-0.105047256
255	0xbe52f2c5	-0.20600422

bias f4 [64]
0	0xbe85bffb	-0.26123032
1	0x3dcff21d	0.10153601
2	0xbf0b7ae0	-0.5448437
3	0xbe58a1be	-0.2115545
4	0x3f3aa289	0.7290426
5	0xbe961298	-0.2931106
6	0xbf5dfb60	-0.8671169
7	0xbf0053a2	-0.50127614
8	0xbf0ab594	-0.54183316
9	0xbf27d984	-0.6556628
10	0xbf0980dc	-0.5371225
11	0xbe318f67	-0.1733986
12	0xbfc6229d	-1.5479313
13	0xbf262e19	-0.6491409
14	0xbdc11ed9	-0.09429712
15	0xbec55136	-0.38538522
16	0xbed888b1	-0.42291787
17	0xbe56b368	-0.20966876
18	0xbf9885f4	-1.1915879
19	0xbfade3fd	-1.3585202
20	0xbecbc6aa	-0.39800006
21	0xbe1d5ac9	-0.15366663
22	0x3e3edbcf	0.18638538
23	0xbe5d15f4	-0.21590406
24	0x3eb7d5fe	0.3590545
25	0x3e04c276	0.12964806
26	0xbf22cf2a	-0.6359736
27	0xbf1fd9c2	-0.6244165
28	0x3dad55d4	0.08463636
29	0xbe036fad	-0.1283557
30	0xbf0fe116	-0.5620283
31	0x3edafbc2	0.427702
32	0xbe429a0b	-0.19004075
33	0xbf87fc09	-1.062379
34	0xbe8be0f6	-0.2732007
35	0xbf047b6d	-0.5175083
36	0xbec07818	-0.37591624
37	0xbe98cdec	-0.29844606
38	0xbf3f7fef	-0.74804586
39	0xbf0297af	-0.510127
40	0x3e834584	0.25638974
41	0xbce62615	-0.02809433
42	0xbe6c8aa5	-0.23099764
43	0xbf342c9d	-0.70380574
44	0x3ced0a80	0.02893567
45	0x3ecba255	0.39772287
46	0x3e012ba4	0.12614304
47	0xbe64fa48	-0.223611
48	0xbf032045	-0.51221114
49	0xbd70bd25	-0.058774132
50	0xbed45390	-0.41470003
51	0xbeee08c6	-0.4649107
52	0xbf3b6650	-0.7320299
53	0xbef021be	-0.46900743
54	0xbf8d07f0	-1.1018047
55	0xbfd83672	-1.6891615
56	0x3e973945	0.2953588
57	0xbfada57f	-1.356613
58	0x3e980c72	0.29696995
59	0xbe754a5c	-0.23954147
60	0xbf0cfa0a	-0.5506903
61	0xbdcd99cd	-0.10039101
62	0xbea99499	-0.33121184
63	0xbfa8827f	-1.3164824

weight f4 [32, 64]
0	0x3eb684c7	0.35648176
1	0xbc9201b1	-0.017823072
2	0xbe4fe6d0	-0.20302892
3	0xbef7f5f0	-0.48429823
4	0xbe101de0	-0.14073896
5	0xbd559c11	-0.05215079
6	0xbecff4d0	-0.40616465
7	0xbe10437c	-0.14088243
8	0xbdf3dd7c	-0.11907479
9	0xbe4c9ff2	-0.1998289
10	0xbe9603b2	-0.29299694
11	0x3eb8cbea	0.36093074
12	0xbe834887	-0.2564127
13	0x3e07eef7	0.13274752
14	0x3d981e54	0.0742766
15	0xbf094376	-0.5361856
16	0xbe9860df	-0.29761407
17	0x3e5690f1	0.20953728
18	0xbf375278	-0.7161021
19	0x3ecfd6bd	0.4059352
20	0x3e9a0b9e	0.30086988
21	0xbddb0f73	-0.10696306
22	0xbe2cd3f0	-0.16877723
23	0x3ebdbfc5	0.3706037
24	0x3f034dbf	0.51290506
25	0xbeeef66c	-0.4667238
26	0x3ee64f02	0.44982153
27	0xbed71681	-0.42009357
28	0x3e6c08c7	0.23050223
29	0x3d4751b7	0.048661914
30	0x3b5a448c	0.0033305017
31	0x3e48c588	0.19606602
32	0x3e813541	0.25235942
33	0xbe2db80f	-0.16964744
34	0xbf3d339b	-0.7390687
35	0xbd34afcb	-0.04411296
36	0x3ea55535	0.3229157
37	0x3ebaa51f	0.36454102
38	0x3f2db9f5	0.6786187
39	0x3d786d30	0.060651004
40	0xbe43d16a	-0.19122854
41	0x3d42e3b7	0.047580447
42	0x3c004271	0.007828341
43	0x3ef5a8ee	0.47980446
44	0x3ebe3e34	0.37156832
45	0xbdd868d5	-0.1056687
46	0x3ebca517	0.36844704
47	0x3efe6cf2	0.49692494
48	0x3f067290	0.5251856
49	0xbedbb4e4	-0.42911446
50	0x3e744000	0.23852539
51	0x3d94a3cf	0.072578065
52	0xbf0e656b	-0.556235
53	0x3e8357a4	0.25652802
54	0xbc3e6b41	-0.011622251
55	0xbe043e2d	-0.12914343
56	0xbf0c0f03	-0.54710406
57	0xbeea0231	-0.45704797
58	0xbdc0ce3a	-0.094143346
59	0xbebc1981	-0.36738208
60	0xbe305e26	-0.17223415
61	0xbe864c5d	-0.26230136
62	0x3eafd907	0.34345266
63	0xbe76d5b4	-0.24104959
64	0xbef07332	-0.46962887
65	0xbf46fecc	-0.7773254
66	0xbda43f76	-0.08019917
67	0x3ecdecf6	0.4021985
68	0xbe193149	-0.14960207
69	0x3f1e6f34	0.6188843
70	0x3dffcf50	0.124907136
71	0x3f08d77e	0.53453815
72	0x3e055cb7	0.13023649
73	0x3e9f1621	0.3107157
74	0xbebb8bcf	-0.36630103
75	0x3eda0a2f	0.42585894
76	0x3e19cd5e	0.15019748
77	0xbef2c36f	-0.4741473
78	0x3e9064a8	0.28201795
79	0xbd4b1e9e	-0.049589746
80	0x3ec2edfd	0.38072196
81	0xbf0d195c	-0.5511682
82	0x3e80c236	0.2514817
83	0xbf2aadfc	-0.6667173
84	0xbf25c380	-0.64751434
85	0x3cb168af	0.021656362
86	0xbd501c64	-0.050808325
87	0x3e6a980c	0.22909564
88	0xbf833c05	-1.0252692
89	0x3ea8ad8b	0.32944903
90	0xbc97a73b	-0.018512359
91	0x3e69989a	0.22812119
92	0xbe2e56a5	-0.1702524
93	0xbe2ad35b	-0.16682188
94	0x3caf15fd	0.02137279
95	0xbf6a07ad	-0.9141796
96	0xbeb2cd4b	-0.3492225
97	0x3ec25100	0.37952423
98	0x3c646ac7	0.013941473
99	0xbf09ac16	-0.5377821
100	0xbe65b2eb	-0.22431533
101	0xbe0f670e	-0.14004156
102	0xbf1a2d54	-0.60225415
103	0x3ec8b664	0.39201653
104	0xbddf5dae	-0.1090654
105	0xbeb5e9d2	-0.35529953
106	0xbe9dbba8	-0.30807233
107	0xbf4ca646	-0.79941213
108	0x3c5ed5e8	0.013600804
109	0x3e45cf7b	0.19317429
110	0xbd637223	-0.05552877
111	0xbee59f08	-0.44847894
112	0xbed549d9	-0.41657904
113	0x3f00ef25	0.50364906
114	0xbf10ae7a	-0.5651623
115	0xbe542024	-0.20715386
116	0x3f5456b7	0.82944816
117	0xbe0be288	-0.13660634
118	0xbeadc783	-0.33941278
119	0xbee9279b	-0.4553803
120	0xbd8533db	-0.06504031
121	0xbde7fdf7	-0.11327737
122	0x3e71a5fa	0.23598471
123	0xbe0bb25f	-0.13642262
124	0xbe526329	-0.20545639
125	0xbea882eb	-0.32912382
126	0xbeba7df0	-0.36424208
127	0x3e1c6a96	0.15275034
128	0xbe130e0f	-0.14360832
129	0xbf1bbd4d	-0.60835725
130	0x3e895878	0.2682531
131	0xbec95ea8	-0.3933003
132	0xbf31ad84	-0.6940539
133	0x3ef33e54	0.4750849
134	0x3e87a2f9	0.26491526
135	0x3e65aabc	0.22428411
136	0x3ef98dda	0.48741037
137	0x3ee728a5	0.45148197
138	0x3e19de1a	0.15026131
139	0xbe72c667	-0.23708497
140	0x3f7796bb	0.9671437
141	0xbde206f8	-0.110364854
142	0x3f0c62b2	0.548381
143	0xbdf26b16	-0.11836831
144	0x3f33d9b0	0.7025404
145	0x3e6bda4c	0.23032492
146	0x3f01e5c9	0.5074125
147	0xbf74d612	-0.95639145
148	0xbdcc2dfe	-0.0996971
149	0xbe94308a	-0.28943282
150	0x3ee91839	0.45526293
151	0x3e493902	0.19650653
152	0xbd08940f	-0.033344325
153	0x3d3b08bd	0.04566263
154	0xbdba8099	-0.09106559
155	0x3fa5c3ca	1.2950375
156	0x3eb19703	0.34685525
157	0xbee80626	-0.4531719
158	0x3f69e132	0.91359246
159	0xbeb11cc5	-0.34592262
160	0x3d215c8c	0.0393949
161	0xbb8e7da3	-0.004348473
162	0x3e934728	0.28765225
163	0xbf6f6ade	-0.9352244
164	0xbeac6c6e	-0.33676475
165	0xbeb9c915	-0.36286226
166	0xbe8393f1	-0.25698808
167	0x3f3f2df9	0.74679524
168	0x3e3912c4	0.18073565
169	0xbd739b42	-0.059474237
170	0xbebc53e5	-0.36782756
171	0xbf54d5fe	-0.83139026
172	0xbe946c45	-0.28988853
173	0x3d9af82d	0.07566867
174	0xbf12a4c8	-0.57282686
175	0xbf1ddb0b	-0.6166236
176	0xbebe8ca6	-0.3721668
177	0x3f2a8d83	0.6662218
178	0x3d202e59	0.0391067
179	0xbf57235b	-0.84038323
180	0xbd79bdc4	-0.06097199
181	0x3e20632a	0.15662828
182	0xbf0704c4	-0.52741647
183	0xbf0057d0	-0.5013399
184	0xbec6d674	-0.3883549
185	0x3e2f0850	0.17093015
186	0xbd1c3fc2	-0.03814674
187	0xbe6d0594	-0.23146659
188	0x3eac3dbc	0.3364085
189	0x3f415a79	0.75528675
190	0xbebda222	-0.3703776
191	0x3d070de7	0.032972243
192	0x3e7b8c9a	0.24565354
193	0xbdd9f2f9	-0.106420465
194	0xbe932984	-0.2874261
195	0xbee85033	-0.45373687
196	0xbdd445bc	-0.10364863
197	0xbdbeb4fa	-0.09311862
198	0xbe7e7a8c	-0.24851435
199	0xbe1ca413	-0.15296964
200	0xbf181aa6	-0.5941566
201	0xbee871bc	-0.45399272
202	0xbedb2eba	-0.42809087
203	0x3c117ed0	0.008880332
204	0xbe98d1be	-0.2984752
205	0x3e240f40	0.16021442
206	0x3e52f3b3	0.20600776
207	0xbf552ef4	-0.8327477
208	0xbee52949	-0.4475806
209	0x3e090d23	0.13383918
210	0xbf3c9d11	-0.73677164
211	0x3f060eaf	0.52366155
212	0x3ec6ee74	0.388538
213	0xbe853f99	-0.26025084
214	0xbe99f0e7	-0.30066606
215	0x3f0cbd35	0.54976207
216	0x3e3b6451	0.18299986
217	0xbeb46f58	-0.352412
218	0x3ece1b15	0.40255037
219	0xbeac86ce	-0.33696598
220	0x3c276c7b	0.010218735
221	0x3efad1a9	0.48988083
222	0x3e12f4e7	0.14351235
223	0x3e005c2f	0.12535165
224	0x3dea7b18	0.114492595
225	0xbce973d1	-0.028497608
226	0xbd66d361	-0.05635393
227	0x3f06cda3	0.52657527
228	0x3daa57d2	0.08317532
229	0x3e44fce8	0.19237101
230	0x3ec4b326	0.3841793
231	0xbf0365c0	-0.51327133
232	0xbe9801c0	-0.29688835
233	0x3eaced8f	0.33774993
234	0xbcdaf1a6	-0.026726555
235	0xbe6ae588	-0.22939122
236	0xbe903fe2	-0.2817374
237	0xbe99e966	-0.3006088
238	0x3e1c1061	0.15240623
239	0xbd94a7df	-0.07258581
240	0x3baa9150	0.005205311
241	0xbebecf20	-0.372674
242	0x3ed3be4f	0.4135613
243	0x3e0c6a13	0.13712339
244	0xbf621a4e	-0.8832139
245	0xbe5f2fdc	-0.217956
246	0x3ee36ef4	0.44420588
247	0xbdebb09d	-0.11508296
248	0xbea05536	-0.3131501
249	0xbe9f8fe3	-0.31164464
250	0xbf1b60f2	-0.606948
251	0x3eb2a6e3	0.3489295
252	0x3c98bf55	0.018645922
253	0xbdcca215	-0.09991852
254	0x3ebadbaf	0.3649573
255	0xbd5f4787	-0.054511573

bias f4 [32]
0	0x3f3d400f	0.7392587
1	0x3f9ba794	1.2160516
2	0x3f3c385d	0.73523504
3	0x3ea5c2ee	0.32375282
4	0x3e1279e3	0.14304309
5	0x3f0e132c	0.55498004
6	0xbc0f53d8	-0.008748017
7	0x3eb84fe0	0.3599844
8	0xbec92d27	-0.3929226
9	0x3e149bf0	0.1451261
10	0x3f3e13ba	0.7424885
11	0x3ec736f8	0.38909125
12	0x3deee3bd	0.116645314
13	0x3f107dee	0.56442153
14	0x3f1f5aa0	0.6224766
15	0x3f3a65ba	0.7281147
16	0x3eb9e103	0.36304483
17	0x401588e0	2.3364792
18	0xbdb6c941	-0.08925105
19	0x3f0b57c9	0.54430825
20	0xbd9d4aff	-0.0768032
21	0x3f4e458c	0.8057487
22	0xbc13dd89	-0.009024986
23	0xbf065d6c	-0.524863
24	0xbe0be582	-0.13661769
25	0x3f5d6602	0.86483777
26	0x3f43c594	0.76473355
27	0x3efd7f9d	0.49511424
28	0x3eb939ad	0.36176816
29	0x3eac5e70	0.336658
30	0x3ea57678	0.32316947
31	0x3f60135b	0.87529534

weight f4 [1, 32]
0	0xbe022be5	-0.12712057
1	0x3dfee413	0.124458455
2	0x3e07bfe9	0.13256802
3	0xbe073def	-0.1320722
4	0x3dce7328	0.10080558
5	0x3e0ea167	0.13928758
6	0x3ddbb9c8	0.10728794
7	0xbdef8d58	-0.11696881
8	0x3e0e59a9	0.1390139
9	0x3e06b4e9	0.13154949
10	0x3b2cc7e3	0.002636426
11	0x3dd797ec	0.10527024
12	0x3dc11205	0.09427265
13	0x3ded672b	0.11591943
14	0x3de2ca3d	0.1107373
15	0xbe030442	-0.12794593
16	0xbe161e10	-0.14659905
17	0x3e1bb1de	0.1520457
18	0xbca29539	-0.019846546
19	0x3e127f5d	0.14306398
20	0xbdfa72fe	-0.12228964
21	0xbda73151	-0.08163703
22	0xbdf5b78a	-0.11997898
23	0xbde35b45	-0.11101393
24	0x3c33cbdf	0.0109739
25	0xbe0e337d	-0.13886829
26	0xbdf32b10	-0.11873448
27	0x3dc0f407	0.094215445
28	0xbdfa0759	-0.12208433
29	0xbdc987cb	-0.098403536
30	0x3e0cb5e5	0.13741262
31	0x3e07ddbf	0.13268183

weight f4 [64]
0	0x3f95b27a	1.1695092
1	0x3f8a5f76	1.0810382
2	0x3fa1e006	1.2646492
3	0x3fa04b36	1.2522953
4	0x3f8f3b0d	1.1189896
5	0x3f363f11	0.7118998
6	0x3f3d1c24	0.73871064
7	0x3f175e78	0.5912852
8	0x3fa95df3	1.3231796
9	0x3f98b873	1.193129
10	0x3f748fad	0.9553173
11	0x3f1afa3f	0.60538095
12	0x3fbc38c8	1.4704828
13	0x3fab1cb1	1.3368131
14	0x3f02bdb3	0.5107071
15	0x3fc64f1b	1.5492891
16	0x3fa5fef0	1.2968426
17	0x3f3113e8	0.69171
18	0x3fbef37a	1.4918053
19	0x3fdd1b29	1.7273914
20	0x3f946917	1.1594571
21	0x3e9b661d	0.30351344
22	0x3fb19357	1.387309
23	0x3ef5f4ae	0.48038238
24	0x3fb88bd6	1.4417675
25	0x3f95bb11	1.1697713
26	0x3fb60751	1.4220983
27	0x3fb87e3e	1.4413526
28	0x3f31b8e6	0.6942276
29	0x3f8d15b2	1.1022246
30	0x3f7e2d34	0.99287724
31	0x3fae9a1e	1.3640783
32	0x3f63ca3b	0.88980454
33	0x3f75dcd2	0.9604007
34	0x3f88a64e	1.0675752
35	0x3fb6a72d	1.4269768
36	0x3faf66b9	1.3703223
37	0x3f7b160f	0.98080534
38	0x3fa39e80	1.2782745
39	0x3fadeaa9	1.3587238
40	0x3f7898b7	0.97108024
41	0x3f646d36	0.8922914
42	0x3f94d80f	1.1628436
43	0x3f9f340b	1.2437757
44	0x3fa60423	1.2970012
45	0x3fa8e8b7	1.3196019
46	0x3f8f0b48	1.1175318
47	0x3fa1a59a	1.2628663
48	0x3fd96287	1.6983193
49	0x3fbb7350	1.4644566
50	0x3f90cb3e	1.1312025
51	0x3f7c85f6	0.9864191
52	0x3fc55c75	1.5418841
53	0x3fb40f8a	1.4067242
54	0x3fab7b82	1.3397067
55	0x3f870bac	1.0550437
56	0x3fc17ffe	1.5117185
57	0x3f39f627	0.72641224
58	0x3f989163	1.1919369
59	0x3f840261	1.0313226
60	0x3f27deb9	0.6557422
61	0x3f9dd82a	1.2331593
62	0x3f8aac5d	1.0833851
63	0x3fbae8ad	1.4602257

bias f4 [64]
0	0xbc0246e1	-0.007951469
1	0xbecff9bd	-0.40620223
2	0xbecba86b	-0.3977693
3	0x3e3ce463	0.18446498
4	0x3e535ae4	0.20640141
5	0x3ee8ab1f	0.45443055
6	0xbf4784db	-0.77937096
7	0xbe90b154	-0.2826029
8	0x3ee98659	0.45610312
9	0x3e4e9412	0.20173672
10	0x3dc8e1c9	0.0980869
11	0x3d18ba87	0.03728726
12	0x3a81254c	0.0009853034
13	0xbe8ad849	-0.27118137
14	0x3e7b9eb5	0.2457226
15	0xbc9c3667	-0.01906891
16	0x3deab853	0.11460938
17	0xbea81d0d	-0.32834664
18	0x3dbb65c3	0.09150269
19	0xbd8d842e	-0.06909977
20	0x3eeaa5ce	0.45829624
21	0xbeb4d003	-0.3531495
22	0x3d774511	0.0603686
23	0x3f07ea54	0.5309193
24	0xbe0b3851	-0.13595702
25	0x3de17cf4	0.11010161
26	0xbdbc98b8	-0.09208816
27	0x3c684edb	0.014178957
28	0xbe453526	-0.19258556
29	0xbe0eed56	-0.13957724
30	0x3f369bb7	0.7133135
31	0x3e65db5d	0.22446962
32	0x3daf1c36	0.08550303
33	0x3ed35be3	0.41281042
34	0xbf055bc9	-0.5209318
35	0x3ce31c2c	0.027723394
36	0xbe2be6bd	-0.16787238
37	0x3d415df9	0.04720876
38	0x3e9c8d68	0.30576634
39	0xbe8a620e	-0.27027935
40	0xbd910176	-0.07080357
41	0xbde3fa7a	-0.11131759
42	0xbe8f2289	-0.27956036
43	0x3e0f816a	0.14014211
44	0xbe554014	-0.20825225
45	0x3ca8ddbd	0.020613546
46	0xbb8b884a	-0.0042581903
47	0x3e9aa919	0.30207136
48	0x3e868216	0.26271123
49	0x3baab8b3	0.005210006
50	0x3e8b1e90	0.27171755
51	0x3e14ff5d	0.14550538
52	0xbf365382	-0.7122117
53	0x3cf489c4	0.029850848
54	0xbe932474	-0.2873875
55	0x3ecc3772	0.3988605
56	0x3e7fa9e6	0.24967155
57	0x3e55ee51	0.20891692
58	0xbd64d5df	-0.055868026
59	0xbe231239	-0.1592492
60	0xbc815dd5	-0.015791813
61	0x3de95dd8	0.113948524
62	0xbe2b583d	-0.16732879
63	0xbe18e4e6	-0.14931068

running_mean f4 [64]
0	0x3f12c8b8	0.5733752
1	0x3f903c4a	1.1268399
2	0x3dfe2394	0.1240913
3	0x3f5b14f8	0.8557887
4	0x40203595	2.5032704
5	0x3e538546	0.20656309
6	0x3d44136e	0.047870092
7	0x3d022826	0.03177657
8	0x3f2326d5	0.6373113
9	0x3efcd1ef	0.49378917
10	0x3e929bc2	0.2863446
11	0x3e6f4d8c	0.23369426
12	0x3e9b96f0	0.30388594
13	0x3f292210	0.660676
14	0x3e9e0146	0.30860347
15	0x3f11f5b4	0.5701554
16	0x3fcbcc62	1.5921748
17	0x3fe84537	1.8146123
18	0x3f8c9944	1.0984273
19	0x3e8e86cc	0.27837217
20	0x3fc594ea	1.543607
21	0x3f5f252a	0.8716608
22	0x3ec61e9f	0.38695237
23	0x3ed22037	0.41040203
24	0x3fe92ce5	1.8216826
25	0x3edc4989	0.43024853
26	0x3dfdc378	0.12390798
27	0x3f215927	0.6302666
28	0x3fce9031	1.6137754
29	0x3f556bd3	0.8336765
30	0x3fade6b1	1.3586026
31	0x3f3154e5	0.69270164
32	0x3f2f9e3c	0.6860082
33	0x3f3d425e	0.73929393
34	0x3e9654c8	0.29361558
35	0x3ea74a5e	0.32673925
36	0x3e751cff	0.23936842
37	0x3e8d915d	0.27649966
38	0x3dcdc5a9	0.10047466
39	0x3fe44f10	1.7836628
40	0x3f85fbb1	1.0467435
41	0x3f3abb47	0.7294201
42	0x3fce1f65	1.6103331
43	0x3f1ad09c	0.6047456
44	0x3ebbdb57	0.3669078
45	0x3fbccc6b	1.4749883
46	0x3f1a87f6	0.6036371
47	0x3f1d3bd3	0.6141941
48	0x3e7a41fe	0.24439237
49	0x3f4caf93	0.79955405
50	0x3f4adaa6	0.7923988
51	0x3e3352ae	0.17512009
52	0x3f14b03f	0.5808143
53	0x3e809ee5	0.25121227
54	0x3d8afec5	0.06786875
55	0x3cc026fb	0.023456087
56	0x3f44753c	0.76741385
57	0x3f9c1975	1.2195269
58	0x3e69cdcb	0.2283241
59	0x3f62c25c	0.8857782
60	0x3c8a348b	0.016870758
61	0x3f2f5f91	0.685052
62	0x40478a55	3.117818
63	0xbcdb2f12	-0.026755843

running_var f4 [64]
0	0x3f741f41	0.9536019
1	0x3ff0d315	1.8814417
2	0x3e888f4d	0.2667183
3	0x3f9ead75	1.2396685
4	0x400db487	2.2141435
5	0x3e75678f	0.23965286
6	0x3d53323d	0.051561583
7	0x3e3545fc	0.17702478
8	0x3fa68a37	1.301093
9	0x3f47f28f	0.7810449
10	0x3eb5043a	0.35354787
11	0x3eaed89c	0.34149635
12	0x3f273cd1	0.65327173
13	0x3f56f9b3	0.8397476
14	0x3ec1e1ac	0.37867486
15	0x3f6ff2a3	0.9372961
16	0x402823ac	2.6271772
17	0x4001cd5c	2.0281591
18	0x4035a5c7	2.8382432
19	0x3f0fd09f	0.56177706
20	0x3ffd1ddf	1.9774741
21	0x3f5e5c16	0.8685926
22	0x3f31ca14	0.6944897
23	0x3f15c9aa	0.5851084
24	0x404dc704	3.215272
25	0x3f7adb7e	0.9799117
26	0x3deefcb8	0.11669296
27	0x3f6bc3ea	0.92095816
28	0x3fc8249f	1.5636176
29	0x3ff69672	1.9264662
30	0x3fb82dfe	1.4389036
31	0x3fb53afd	1.4158627
32	0x3f654b80	0.8956833
33	0x3f8ec5c0	1.1154099
34	0x3ec68753	0.3877512
35	0x3f3453d8	0.70440435
36	0x3ee74771	0.45171693
37	0x3f0463be	0.51714694
38	0x3e1a992f	0.15097497
39	0x4006cd71	2.1062891
40	0x3ff43064	1.9077268
41	0x3f9bfe0a	1.2186902
42	0x401dc6da	2.465262
43	0x3f6c0fed	0.922118
44	0x3ee09a94	0.43867934
45	0x402cbd13	2.6990402
46	0x3f9cd848	1.2253504
47	0x3f2dca0d	0.6788643
48	0x3ec8f723	0.3925105
49	0x3fcba63d	1.5910107
50	0x3fc27658	1.5192366
51	0x3e98b443	0.2982503
52	0x3f9108cf	1.1330813
53	0x3f10c33b	0.565479
54	0x3d99ed89	0.07516009
55	0x3d3f79b4	0.046746925
56	0x3fbce129	1.4756213
57	0x3fad65ef	1.3546733
58	0x3e998506	0.299843
59	0x3fa9b9ea	1.3259861
60	0x3dc82fe8	0.097747624
61	0x3f9c6636	1.2218692
62	0x40225faa	2.5370889
63	0x3d1fc7a7	0.039008763

weight f4 [32]
0	0x3e93865e	0.28813452
1	0x3e8a4aec	0.27010286
2	0x3ea237a8	0.31683087
3	0x3e939c1e	0.28830045
4	0x3e4a124d	0.19733544
5	0x3e8e8686	0.27837008
6	0x3e541cb5	0.20714076
7	0x3e8e2c39	0.27768114
8	0xbea563c1	-0.3230267
9	0x3e6d08a8	0.23147833
10	0x3d8c877a	0.068617776
11	0x3e9a96ce	0.3019318
12	0x3e2487b3	0.1606739
13	0x3e9c918e	0.305798
14	0x3e975bc2	0.29562193
15	0x3e856642	0.2605458
16	0x3e80e010	0.25170946
17	0x3eaae4a0	0.33377552
18	0x3d866145	0.065615214
19	0x3e93b1a1	0.28846458
20	0x3e8dd918	0.27704692
21	0x3e8d7585	0.27628723
22	0x3e42a872	0.1900957
23	0x3e49927c	0.19684786
24	0xbc90a61e	-0.017657336
25	0x3e829757	0.25506088
26	0x3e8baeb7	0.27281734
27	0x3e7c5d93	0.2464507
28	0x3e8c04a6	0.27347296
29	0xbe4748cf	-0.19461368
30	0x3e85b528	0.26114774
31	0x3e80aaa5	0.2513019

bias f4 [32]
0	0xbd31e73c	-0.043433413
1	0x3d69e19c	0.057099923
2	0x3d47104a	0.04859952
3	0x3cb69d27	0.022291733
4	0xbdd1d158	-0.10245007
5	0x3d2cdfc2	0.04220558
6	0x3d19bda9	0.03753439
7	0xbc933b46	-0.0179726
8	0x3d8c1680	0.06840229
9	0xbd117093	-0.03550775
10	0xbd436566	-0.047704123
11	0x3d361b6c	0.044459745
12	0xbcef2b86	-0.029195558
13	0x3c7e9516	0.015538475
14	0x3cfe78f8	0.031063542
15	0xbc80a121	-0.015701832
16	0x3c1a89a7	0.009432233
17	0x3d43ab3d	0.047770727
18	0xbcf030a1	-0.029320063
19	0x3c1ad978	0.009451263
20	0xbadc57ac	-0.0016810796
21	0x3d8906b9	0.06690735
22	0x3c3282d1	0.010895447
23	0xbde2f7a1	-0.11082388
24	0x3b737b27	0.0037152262
25	0x3d06627b	0.032808762
26	0x3c979e27	0.01850803
27	0x3da3e867	0.080033116
28	0x3df912df	0.121618025
29	0x3c07cda5	0.008288776
30	0xbc75533c	-0.014973458
31	0xbd48ec7a	-0.049053647

running_mean f4 [32]
0	0x40847161	4.13884
1	0x406777ed	3.6166947
2	0x4089c5a3	4.3053756
3	0x407516cb	3.8295162
4	0x4048c8f5	3.1372654
5	0x406574c1	3.585251
6	0x3fe78343	1.8086933
7	0x408b2078	4.3477135
8	0x401226ef	2.2836263
9	0x40081884	2.1264963
10	0x401ad8a5	2.419473
11	0x4045dc2a	3.0915627
12	0x403aad2e	2.91682
13	0x4055fad3	3.343434
14	0x4089b9b5	4.3039193
15	0x4087f632	4.248803
16	0x408b2112	4.347787
17	0x40b088ae	5.5166845
18	0x3f85686e	1.0422494
19	0x405d559f	3.458351
20	0x407876c2	3.8822484
21	0x406c82b6	3.695478
22	0x4021fcfc	2.531066
23	0x400c9c87	2.1970537
24	0x3fadf03d	1.358894
25	0x4091e858	4.5596123
26	0x408bf3f2	4.3735285
27	0x4001c7ca	2.0278192
28	0x405d0022	3.453133
29	0x400f3778	2.2377605
30	0x4022de35	2.5448124
31	0x408e4cce	4.4468756

running_var f4 [32]
0	0x41e3c248	28.469864
1	0x41afe646	21.987438
2	0x4211a375	36.409626
3	0x41c445cd	24.534082
4	0x41b7ba60	22.966003
5	0x41c2bdcf	24.34268
6	0x411c5c0e	9.772474
7	0x421d96f7	39.397427
8	0x416929b6	14.572683
9	0x40cc74e8	6.389271
10	0x415e0c98	13.878075
11	0x41b3e475	22.486551
12	0x416f6846	14.962957
13	0x41b15e3d	22.171015
14	0x41d45dd1	26.545809
15	0x41b4d2aa	22.602863
16	0x41ff72b0	31.931
17	0x41f7c56f	30.971403
18	0x408368ba	4.106534
19	0x41a16c26	20.177807
20	0x42000fe1	32.015507
21	0x41e51e33	28.639746
22	0x414f9ffb	12.976558
23	0x417498f9	15.287347
24	0x4115f8e7	9.373267
25	0x420cc61f	35.193478
26	0x41faee95	31.366495
27	0x40b99642	5.799592
28	0x41a01a56	20.01286
29	0x41316d87	11.08924
30	0x41179b8f	9.475478
31	0x420dbefc	35.43651
