Models/TrainedModels/FCNNs/FCNN1.pt (torch, 21585 bytes, 13 tensors)

weight f4 [64, 22]
000000 44 ef b2 be b3 28 76 3e f8 08 63 3e 77 82 96 3e
       -0.3494817 0.24038963 0.2217139 0.29396412
000010 d3 c1 ce 3e e6 10 e4 be 03 21 1f be 89 68 8a 3c
       0.4038225 -0.44544142 -0.15539937 0.01689555
000020 b2 c2 1a 3f a8 64 9c be 60 33 5e bd 18 2b 61 3d
       0.6045333 -0.30545545 -0.054248214 0.054972738
000030 8c 4b 92 be bd ba 4e bf 24 82 85 bc d0 18 7e 3e
       -0.28573263 -0.8075369 -0.016297407 0.24814153
000040 0e 90 a3 3d ce 50 ec 3d 1c 59 98 3e 8b 97 6b be
       0.079864606 0.1153885 0.29755485 -0.23007028
000050 44 fb 19 3e 66 5b b6 3e dd 49 f0 3e ac ef d7 be
       0.15037256 0.35616606 0.46931353 -0.42175043
000060 6f f3 fe be 83 58 9b be 6b f4 08 be d9 8b 8f 3e
       -0.497951 -0.30340967 -0.13374488 0.28036383
000070 89 86 66 3f 05 8b 73 be 18 11 b0 be ff 83 30 be
       0.90049034 -0.237835 -0.34388041 -0.17237853
000080 ab a4 23 bf 5f 2f e4 3e ad d7 ba be 30 dc c4 be
       -0.6392314 0.4456739 -0.36492673 -0.3844924
000090 19 a4 45 3e 9f 6b 2d 3e 6f 24 c8 be 64 0d e3 bd
       0.1930088 0.16935585 -0.39090297 -0.110865384
0000a0 70 c6 0e be 9b 29 a4 be 0d 61 b6 3e 40 25 73 bd
       -0.13942885 -0.32062992 0.3562092 -0.059361696
0000b0 f3 59 8d bd 26 fe 8a 3e 27 11 6d 3e bf 5b 48 3d
       -0.06901922 0.27147025 0.23151074 0.04891562
0000c0 6f 17 23 3e ad 2e 0b bf 17 72 fd bd 3c 84 5f bf
       0.15926908 -0.54368097 -0.123752765 -0.8731115
0000d0 93 3d 98 be 46 b5 83 bd 4b 55 f7 be 37 b4 63 bd
       -0.29734477 -0.064310595 -0.4830726 -0.05559179
0000e0 da 34 88 3f f2 61 f9 3e de 95 f9 3c 95 c4 c3 be
       1.0641129 0.4870754 0.03046697 -0.38235918
0000f0 13 29 16 3f 55 bd 93 3e 5e 92 60 be 7d 85 e1 3b
       0.58656424 0.28855386 -0.21930835 0.006882368
000100 d8 9e 0c 3d fc 9d 08 3f a7 f6 0a bf a8 18 b0 3d
       0.034331173 0.53366065 -0.5428261 0.08598453
000110 50 b7 90 3e 9e e4 0e 3f a8 fa 7b 3e b2 41 f8 3d
       0.28264856 0.5581759 0.24607337 0.121219054
000120 35 6d 09 3f 66 df a2 3e a7 cf 1a 3e 2a 78 90 3d
       0.5368226 0.31811064 0.15118276 0.070541695
000130 a6 84 22 3f c1 33 8d bc 84 6c 05 3f 81 c0 1d 3e
       0.63483655 -0.017236592 0.52118707 0.15405466
000140 25 d6 ee 3d 15 0f a3 be a6 76 89 3f 66 3f 45 3f
       0.116619386 -0.31847444 1.0739334 0.77049863
000150 1d 60 7a be 2a 42 42 3c 11 21 98 3d 84 a4 6e be
       -0.24450727 0.011856595 0.07428182 -0.23304945
000160 78 00 89 3f 88 cf 4b bc 1e b1 22 be 30 2b d7 bd
       1.0703268 -0.012439616 -0.15887877 -0.10506284
000170 c3 8f 6e bd 70 21 d3 3e ba 7c 55 3e 0f 11 37 3e
       -0.05824257 0.41236448 0.2084836 0.17877601
000180 ae d3 aa 3d ac 97 8f bd 6d 0d 61 3e 1a 24 cf 3e
       0.08341156 -0.07011351 0.21977778 0.4045723
000190 b5 35 67 3f 47 ef 28 3f b0 b5 60 3d 7f 31 36 bd
       0.90316325 0.6599011 0.05486077 -0.044480797
0001a0 89 cb 8b bf b0 26 4d be 85 b3 8b 3e f1 58 5c 3e
       -1.0921489 -0.2003429 0.272854 0.21518303
0001b0 ca 46 c2 be 1d 4f 5c 3f 7b 33 73 be 6c c7 fd 3b
       -0.37944633 0.8605822 -0.23750107 0.00774472
0001c0 15 4d bf 3d 13 b7 24 bf 8a db 73 3e 8c eb 49 bf
       0.09340874 -0.6434185 0.23814216 -0.7887504
0001d0 c2 74 97 be 50 a2 1e bf 6f 19 04 3f 7b d6 14 3f
       -0.29581267 -0.6196642 0.5160131 0.5813977
0001e0 3f 1b dc 3e 4b dd 6a be 66 4f 16 be 28 c3 c2 be
       0.42989537 -0.22935979 -0.14678726 -0.38039517
0001f0 a2 88 56 bf 7f 56 cb be fd 29 71 3c 45 2a 98 3e
       -0.83802235 -0.3971443 0.014719483 0.2971975
000200 52 da 99 3e ba b9 33 be f2 65 15 bf 0a 43 24 3f
       0.30049378 -0.17551318 -0.5835868 0.64164793
000210 20 14 f2 bc 51 ef 7c 3e 0e 41 a1 3e be 22 66 3d
       -0.029550612 0.24700667 0.31494945 0.056185476
000220 e7 26 80 3c b0 df 42 be e2 6b 98 be 23 d3 27 be
       0.01564355 -0.19030643 -0.29769808 -0.16389136
000230 18 d4 e9 bc 28 fd bd be 62 c7 d6 3e 6e 2e c8 3d
       -0.028543517 -0.37107205 0.41948992 0.09774481
000240 c6 f4 93 3e fa c7 17 3d 60 db c0 3e 0c a1 9d 3d
       0.28897685 0.037055947 0.3766737 0.07696733
000250 7d f7 ac be 32 22 bd bd e6 a2 39 3e 47 e7 4b 3d
       -0.3378257 -0.09235038 0.18128547 0.04978111
000260 0c 22 6b bf 92 19 9d bd ea d8 98 3e dd 91 c9 3e
       -0.91848826 -0.07670893 0.29852992 0.39369097
000270 e7 fe a3 3e 3b 03 57 bf fb a7 cb 3e 8e 75 d2 be
       0.32030413 -0.83989304 0.39776596 -0.41105312
000280 b9 5a 7e 3f a7 a9 f3 3e 37 de 4b 3f f6 33 43 be
       0.9935718 0.47590372 0.7963595 -0.1906279
000290 04 7e 22 be 0d e5 eb be 00 c2 a3 3e 30 33 fb 3e
       -0.15868384 -0.4607319 0.31983948 0.4906249
0002a0 78 0c e3 3e a6 83 f3 bc 3a 41 a4 bd 9b 84 ea be
       0.4434545 -0.02972586 -0.080202535 -0.45804295
0002b0 41 1e b0 bd 7c 68 86 3f 6c 1c 9a 3d cd 00 0c bd
       -0.085995205 1.0500636 0.07524952 -0.03418045
0002c0 c5 86 96 bf c4 d3 29 be 7f 16 9a 3d 7f e0 94 be
       -1.1759878 -0.16584688 0.07523822 -0.29077527
0002d0 14 bc e1 3e 4c bb 08 bf 21 a5 dd be e2 51 d0 3c
       0.44088805 -0.5341079 -0.43290046 0.02542967
0002e0 d4 07 f4 3e 8c 21 7a 3f ab d5 23 3f 39 fa a8 be
       0.47662222 0.9770744 0.63997906 -0.33003405
0002f0 be 5a 55 bf 0e d9 9d bd b8 ec 15 3d b3 a0 99 3e
       -0.83341587 -0.077074155 0.036602706 0.30005416
000300 cb af d3 3b 03 5e 0e be 13 20 06 3e c1 eb 30 3f
       0.006460165 -0.1390305 0.13098173 0.6910973
000310 54 3e 2c 3e ed 0b 81 3e e1 54 53 3d e4 9c a7 3e
       0.16820651 0.2520441 0.05159462 0.32736886
000320 e7 5a 83 be ce 6f cc 3d 22 f2 f8 3d c1 9c 70 bf
       -0.2565529 0.099822626 0.12155558 -0.9398919
000330 64 71 0b 3d a0 2a 01 bf 84 ae 21 3e ad d0 7d bd
       0.034043685 -0.50455666 0.15789229 -0.061966587
000340 21 dd 85 be 0e 6f 4d 3f a7 4c 10 3e 12 e3 e1 3e
       -0.2614527 0.8024758 0.1409174 0.44118553
000350 ff 51 9b be b8 cf d4 3e e5 5f 88 bf 41 47 47 3e
       -0.30335996 0.41564727 -1.0654265 0.19460775
000360 56 11 9a 3e c2 e1 e9 bd 26 ee 04 3f fb dd 66 3f
       0.3009135 -0.11420013 0.51925886 0.90182465
000370 cd c3 50 bf 5c 59 33 3d d3 37 f4 be 61 c0 a7 3e
       -0.8154877 0.04378639 -0.4769884 0.3276396
000380 8c b3 85 be 16 17 83 3e 7e 17 f1 bd 3b 3b 6a 3e
       -0.26113546 0.2560355 -0.11772059 0.22874157
000390 ec ad d3 be e3 1f d8 3e ee 3a 1d 3e 59 e2 62 3f
       -0.4134363 0.42211828 0.15354511 0.8862663
0003a0 b2 e4 21 3e c8 38 54 bf c9 fc c6 be 72 ec fe 3e
       0.15809897 -0.8289914 -0.38864735 0.49789768
0003b0 c4 7b 1a bf 56 96 de 3e 92 5c 91 bd 61 da 9a be
       -0.603451 0.43474072 -0.070977345 -0.30244735
0003c0 da 96 91 3e 4c 3f de 3d f5 f7 84 be b7 61 4c 3f
       0.28435403 0.10851917 -0.25970426 0.798366
0003d0 b8 20 13 bf 24 45 07 3d f7 4e 1b 3c 4f c4 1c 3e
       -0.574718 0.033024922 0.009479276 0.15309261
0003e0 f0 39 47 bf 2c 99 20 be a3 70 3a bf 2c 8d bf bd
       -0.7782278 -0.1568343 -0.7282812 -0.09353098
0003f0 fd 02 b5 be f8 8f 6a bf 45 86 42 3f 49 a6 0a 3f
       -0.35353842 -0.9162593 0.7598613 0.5415998

bias f4 [64]
000000 7e a6 65 be 39 37 20 be 56 6d 97 3c 55 81 07 3f
       -0.22426793 -0.15646066 0.018484753 0.5293172
000010 63 a9 2d be 14 90 64 3e a0 41 57 3e 12 d4 0d 3e
       -0.16959147 0.22320586 0.21021128 0.1385043
000020 04 4c 25 be c7 eb 0d be 33 7c 84 3e 41 9c 25 be
       -0.16142279 -0.13859473 0.25876006 -0.16172887
000030 45 5f 40 3c 0e a5 d8 3e 46 b5 20 3e 98 9c 13 3f
       0.011741464 0.42313427 0.1569415 0.5766082
000040 27 4a 6b 3e 72 79 76 be aa de a7 3e 41 9d db be
       0.22977506 -0.24069765 0.32787067 -0.42893413
000050 82 f6 08 be b5 88 c1 3e 5b 7b e0 3e 7f ee 90 bf
       -0.13375285 0.37799612 0.43844113 -1.1322783
000060 14 ff 03 bf f7 ee d4 be 47 78 c0 be 52 00 10 be
       -0.51561093 -0.41588566 -0.37591764 -0.14062622
000070 6f 83 b5 bf 4f 81 98 bf 63 8a e5 3e 5a 74 b1 be
       -1.4180735 -1.1914462 0.44832143 -0.34659082
000080 58 23 aa be 64 36 4f bf 26 b1 cd be 2f 80 20 3e
       -0.3323009 -0.8094237 -0.40174216 0.15673898
000090 e1 17 09 bd 20 86 66 be 1c 7a 34 bf 84 2f 2e bf
       -0.03347004 -0.22512102 -0.70498824 -0.68041253
0000a0 58 f9 eb 3e 8f 24 ce be f4 75 81 3d 78 d5 0e bf
       0.46088672 -0.40262267 0.06321326 -0.5579448
0000b0 19 1e 5d be 96 48 3e 3e e7 13 54 be 86 bf 97 3d
       -0.21593513 0.18582377 -0.20710717 0.07409577
0000c0 a7 da 76 be e2 60 1a bf c7 2e 1e bf f8 92 b1 be
       -0.24106847 -0.6030408 -0.61790127 -0.3468244
0000d0 e3 ea 14 bf 18 f5 66 be b8 dd 93 3e 41 56 c0 be
       -0.5817091 -0.22554433 0.28880095 -0.37565807
0000e0 9a c8 58 3e 91 0b 76 be 14 42 1c 3d f2 dc 1f bf
       0.21170273 -0.2402785 0.038148955 -0.6244651
0000f0 d8 1e a8 be c7 b7 63 bf 65 38 81 bf 3c dd e4 3e
       -0.32836032 -0.88952297 -1.0095335 0.44700038

weight f4 [32, 64]
000000 e0 e0 bb bd 91 d0 0f bf ae 59 d0 bd 7f 31 7b bd
       -0.09173751 -0.5617762 -0.10173355 -0.0613265
000010 ed 5b 6b 3e 7e 96 49 bd f5 0d 31 3e af 52 e2 3e
       0.22984286 -0.049215786 0.1729048 0.44203708
000020 65 e3 bc bc be 3b 0f 3f 31 23 eb be 50 9f c9 be
       -0.023057649 0.55950534 -0.45925286 -0.39379358
000030 8e 74 9c 3d b0 80 20 3f 58 1d 8b be 63 4d d1 3d
       0.076394185 0.6269636 -0.27170825 0.102198385
000040 8c a0 e4 3d 38 c0 95 3e f7 a1 cb 3d a4 15 68 be
       0.111634344 0.29248214 0.09943002 -0.22664505
000050 72 a6 9a be 1e d4 2b 3e 1d 5c 82 be 88 83 b8 bc
       -0.30205113 0.16780135 -0.25460902 -0.022523656
000060 d1 51 84 be 18 08 74 be 61 da 20 bd d8 42 dd 3e
       -0.2584367 -0.23831213 -0.039270762 0.4321506
000070 c6 9f 33 bc 03 15 36 3e 5f 90 2f 3e 95 14 1b 3e
       -0.010963386 0.17781453 0.17144917 0.1514457
000080 ce 17 08 3e 53 3c 88 3e bd b0 51 bd 52 3c a8 bd
       0.13290331 0.26608524 -0.05119394 -0.0821463
000090 f2 65 05 be 2c b0 df bd b9 79 5b be ea 52 28 bd
       -0.1302717 -0.10922274 -0.21433152 -0.041094698
0000a0 fa 27 50 3e cd 81 92 3e 47 a9 de 3d 55 d8 0c 3e
       0.2032775 0.28614655 0.10872131 0.13754399
0000b0 12 3a 0b be 66 c3 3b bc 1a e5 a8 3e b8 3f 8f 3d
       -0.13596371 -0.011460161 0.3298729 0.06994575
0000c0 eb c1 1d be f6 23 cf 3e 1e 0e 1c be d3 f4 2e be
       -0.15406005 0.40457124 -0.1523976 -0.1708558
0000d0 e8 dd 20 3d 15 25 fa be e7 bb 02 3e 6b 54 e2 bd
       0.039274126 -0.48856416 0.12766992 -0.11051258
0000e0 a9 1e 17 bf 9c a1 9e bd 0f fc 15 3e fc fd 9c be
       -0.5903116 -0.07745668 0.14646934 -0.30662525
0000f0 ba 09 4c bc c2 de 2c be 51 be 74 be 08 d9 1b 3e
       -0.012453491 -0.1688185 -0.23900725 0.1521951
000100 13 f7 e1 bd 68 fa f3 3e e1 54 0e bd 97 02 18 3f
       -0.11033454 0.47651982 -0.034748916 0.5937895
000110 89 b6 b4 be ca 58 21 bb 1e e9 04 bf 3f 60 bb bc
       -0.35295513 -0.0024619573 -0.5191821 -0.022873042
000120 ba 8f b1 3a b7 ce fa 3c a5 6d 7b 3e ab 15 cc 3e
       0.0013546862 0.030616147 0.24553545 0.3986028
000130 db c6 40 be ae 8d 8b 3d c2 5f e7 3e 9b ee 8d be
       -0.18825857 0.06814133 0.45190245 -0.27721104
000140 0d 13 9b bd d2 30 54 3e 4f 70 97 3c 83 19 b0 be
       -0.07571993 0.20721748 0.01848617 -0.34394464
000150 dd 30 88 3e 7f 48 29 3f 58 03 2d 3e 75 2e 8f 3d
       0.2659978 0.66126245 0.16895807 0.06991283
000160 58 3e 20 3e 1b d2 e4 3e c4 e4 d4 be 66 1e aa be
       0.15648782 0.44691548 -0.41580784 -0.33226317
000170 74 a0 1f be 72 c8 8d be c2 19 fd 3d 5e 01 9b 3e
       -0.15588552 -0.2769199 0.123584285 0.3027448
000180 6c 8a b0 be b5 22 77 be 28 78 4f 3f ef 30 72 3e
       -0.34480608 -0.24134333 0.8104272 0.23651479
000190 2f 20 1c 3d 43 49 23 bf f1 18 09 bd a9 17 8c 3e
       0.03811663 -0.63783664 -0.03347105 0.273618
0001a0 23 41 b0 be af 7c be be ec 77 c7 be e2 ae 0b 3f
       -0.34424695 -0.372045 -0.3895868 0.54563725
0001b0 33 8a 85 be 3d 16 0c bf f1 3e 9f be 2e 8f 2b 3f
       -0.26082 -0.5472143 -0.31102708 0.6701535
0001c0 70 80 d8 be a4 50 ac 37 14 a1 46 be d9 a3 bd 3e
       -0.4228549 2.0541549e-05 -0.19397384 0.37039068
0001d0 81 5c 82 be f2 54 3c bc ab cf 8e 3d 78 d7 34 3e
       -0.254612 -0.011494862 0.06973203 0.1766032
0001e0 13 3d cc bd 66 aa 12 be 98 5d 03 be bd a5 69 3e
       -0.099725865 -0.14322814 -0.12828672 0.2281713
0001f0 b5 c0 40 3f 33 80 49 be 84 ce 1a bf ac 8f 39 be
       0.7529405 -0.1967781 -0.6047137 -0.18121213
000200 3f 56 cf 3e c7 7e 1c 3f b8 d2 75 be 4a 5d 36 3c
       0.40495488 0.61130947 -0.24006164 0.01113064
000210 73 5d 72 3e ce 45 14 be 6e 06 8b be cc 3f ae be
       0.2366846 -0.14479753 -0.27153343 -0.34033048
000220 c4 9b b8 be f9 96 95 3e b6 f1 d1 3d 06 0f b1 be
       -0.3605634 0.29216745 0.10251181 -0.34581774
000230 c3 0a 42 be 80 66 bf be 25 f6 89 be 72 45 4e 3e
       -0.18949418 -0.3738289 -0.26945606 0.20143679
000240 f1 07 a0 be c8 77 a6 be c1 b9 c9 be 35 f1 fd 3d
       -0.3125606 -0.3251326 -0.3939953 0.12399522
000250 74 3e 14 3d 6a f2 03 be 43 65 cc 3e b1 0e e6 3d
       0.036192372 -0.12885442 0.39921007 0.11233271
000260 46 5c ed bd d1 8e 01 3e e7 17 73 be 84 f0 03 3e
       -0.115898654 0.12652136 -0.23739587 0.12884718
000270 94 8f 26 be 1e 39 d9 bd 68 a7 47 be 3e 6b b3 3d
       -0.16265708 -0.10606597 -0.19497454 0.08760689
000280 46 32 a0 3d f8 70 97 be 57 b3 9d bd ae 33 ce 3d
       0.07822089 -0.29578376 -0.07700222 0.10068451
000290 3f 97 3c bf b1 f3 f8 3b 9e a3 fb bd 9b cc 1f be
       -0.73668283 0.0075974097 -0.12287067 -0.15605395
0002a0 dd 71 40 bd 60 04 8f bd 29 b0 7d 3e 72 46 0b 3e
       -0.04698359 -0.06983256 0.24774231 0.13601092
0002b0 2b 53 84 3e b8 25 0a be e3 b5 cb bd 62 70 82 be
       0.25844702 -0.13490951 -0.099468015 -0.25476366
0002c0 5d e0 a6 bd e7 14 c4 3d b4 2d 77 be 9a 0a 49 be
       -0.08148263 0.09574299 -0.24138528 -0.1963295
0002d0 a5 a4 29 3f 18 5f 02 bf 1a 4f c5 be 50 3e 52 3c
       0.6626685 -0.5092635 -0.38536912 0.012832239
0002e0 dd 5e 9d 3e d1 6a a6 be 73 88 60 3d 43 3f 7c be
       0.30736437 -0.3250337 0.054817628 -0.24633507
0002f0 97 c3 1a be 58 35 a2 be 35 64 e4 bd 18 05 86 3e
       -0.15113674 -0.31681323 -0.111519255 0.2617576
000300 ab 8a ff bd 9d b7 2c 3e 78 b1 a3 be 7d b7 1e 3e
       -0.12477621 0.16866918 -0.31971335 0.15499683
000310 a1 55 00 3e 4e 5b 5c 3c c5 cc 7d 3e 60 83 fa be
       0.12532665 0.013449503 0.24785145 -0.48928356
000320 00 31 1a be 39 70 b7 3e 90 94 89 3e 9a 23 5f bd
       -0.15057755 0.35827807 0.26871157 -0.05447731
000330 72 7b a4 be 31 e9 0a be 05 77 64 3e bc 44 3f be
       -0.3212543 -0.13565518 0.22311027 -0.18678564
000340 65 78 90 bc f0 64 20 be 6a 2a a4 bd af c5 b3 3d
       -0.017635534 -0.15663505 -0.08015902 0.087779395
000350 cb c8 5b 3f 1e ba 94 be bc c5 56 be 1d a0 4d 3d
       0.8585326 -0.29048246 -0.20973867 0.050201524
000360 9e 99 3f 3e 22 2e 83 3d 45 a9 62 bd 2e 8c bc be
       0.18710944 0.064052835 -0.05533721 -0.368257
000370 8a df db be 35 88 fa be e5 36 14 be ab 04 0f be
       -0.42943984 -0.48932043 -0.14474066 -0.13966624
000380 25 00 82 bd 3b f1 2d be 44 85 58 be 1c f6 b8 3e
       -0.06347684 -0.16986553 -0.21144587 0.36125267
000390 ae 92 3e be 95 21 c1 be 56 3b db be cf 02 09 bf
       -0.18610641 -0.37720934 -0.42818707 -0.5351991
0003a0 3d 69 4f 3e 1d f0 bf be 10 39 e7 3e d2 db f8 3e
       0.20254989 -0.3748788 0.45160723 0.4860521
0003b0 b4 20 8a bd c1 00 e9 3b b0 35 10 be b8 16 b0 be
       -0.06744519 0.0071106856 -0.1408298 -0.34392333
0003c0 9d 58 75 3e 4b ae 89 3e 13 49 60 bf e9 f8 41 be
       0.23959585 0.26890787 -0.876115 -0.18942608
0003d0 e0 0d 1f 3e 51 db db be d1 69 4a be 2e 87 c6 bd
       0.15532637 -0.42940763 -0.19766928 -0.09693752
0003e0 26 cd 38 be fb 6a 3c be d9 4f 97 3e 48 a7 0d bf
       -0.18047008 -0.18400185 0.29553106 -0.55333376
0003f0 7f 95 30 3e 53 4f 05 3f 4d 5b 1f 3e 8c 34 2e be
       0.17244528 0.52074164 0.15562172 -0.17012233

bias f4 [32]
000000 46 ae 94 3c 16 08 1d be 28 b1 94 be 70 36 9b 3e
       0.018149506 -0.15335116 -0.2904141 0.3031497
000010 59 7f 7b 3e 14 b7 09 be 75 8e 4d bd a4 3a 6c be
       0.24560298 -0.13448745 -0.050184686 -0.23069245
000020 fc ca 4d 3f 39 e4 05 3f 2f 05 a8 bd ad e4 ce 3d
       0.80387855 0.52301365 -0.08204114 0.1010221
000030 5b 2f 32 3f c6 98 fc 3e 2c 0d a7 3c c5 91 bb be
       0.6960351 0.49335307 0.020392023 -0.3663465
000040 28 a9 de 3d 31 b0 35 3f 73 64 97 3f ee 85 67 be
       0.10872108 0.7097197 1.182753 -0.22609684
000050 a7 40 e4 3d f2 dc e7 3c 83 7e 9a bd 99 f8 d3 3d
       0.11145144 0.028303597 -0.075436614 0.103501506
000060 d7 5a bf 3e 38 de 4e 3e e5 a8 8b 3e d6 0b 3e 3f
       0.37373993 0.20201957 0.27277294 0.7423681
000070 e9 c1 1c 3f 38 22 01 3f 22 72 12 3f 7e d8 05 be
       0.61233383 0.5044284 0.572054 -0.13070866

weight f4 [1, 32]
000000 fd b4 0f be b7 51 ba bd b4 b4 d0 bd 25 a3 8e bd
       -0.14033885 -0.09097617 -0.101907164 -0.06964711
000010 d9 25 10 3e f8 03 ca bd f4 b7 00 be 15 8a b5 bd
       0.14076938 -0.09864038 -0.12570173 -0.08864228
000020 43 0e 04 be e9 da 0e 3e 48 89 ff bd 9b b2 e3 bd
       -0.12896065 0.13950695 -0.12477356 -0.11118051
000030 79 8b 27 3e e9 82 f3 bd 63 ef eb 3d 89 76 79 3d
       0.16361798 -0.118902035 0.11520269 0.06090406
000040 49 31 08 be 4f 68 08 3e 9a 50 06 be c7 47 0f be
       -0.13300051 0.1332104 -0.13116685 -0.13992225
000050 53 90 d9 3d 06 7f 21 be 2f 44 d9 bd 7a e5 86 bc
       0.10623231 -0.15771112 -0.10608708 -0.016466845
000060 16 97 01 3e 22 bb 0e 3e 55 a9 aa bd a0 a0 f5 3d
       0.12655291 0.13938573 -0.08333079 0.119935274
000070 b9 0c f0 bd a0 20 1d 3e 8d 22 eb bd 91 f1 7e 3d
       -0.11721177 0.15344477 -0.114811994 0.062242094

weight f4 [64]
000000 3c 26 70 3f ee 51 8d 3f 15 73 99 3f c7 3b 7d 3f
       0.9380834 1.1040628 1.1988245 0.9891934
000010 df 3a 9e 3f c2 f3 a8 3f 28 1a 4b 3f e9 7a d0 3f
       1.2361716 1.3199389 0.79336786 1.6287509
000020 ad 3f a0 3f 33 08 a9 3f 34 ce b6 3f 61 9a a1 3f
       1.2519432 1.3205627 1.4281678 1.2625238
000030 d4 58 b4 3f a2 90 bb 3f 2a c7 89 3f 82 94 a4 3f
       1.4089608 1.4653513 1.0763905 1.2857821
000040 f7 f0 b9 3f 60 4e ce 3f 04 06 a7 3f ae 73 0e 3f
       1.4526662 1.6117668 1.3048711 0.55645263
000050 13 62 a7 3f 2b 04 b4 3f 5c 83 ce 3e cf cb 9e 3f
       1.3076805 1.4063772 0.40334594 1.2405947
000060 aa 52 b8 3f 24 3e 9a 3f d6 35 05 3f b5 8a 75 3f
       1.4400227 1.2050214 0.5203527 0.95914775
000070 f9 8f 8c 3f 65 95 53 3f 07 36 3e 3f b2 77 7b 3f
       1.0981437 0.8264983 0.7430119 0.98229516
000080 86 45 8c 3f ac 7d c3 3f fa 33 93 3f f8 08 8c 3f
       1.0958717 1.5272727 1.1500237 1.0940237
000090 e9 53 99 3f da 54 b5 3f 75 80 a9 3f e3 6b 84 3f
       1.1978732 1.416652 1.3242327 1.0345424
0000a0 1d e1 9d 3f 16 30 eb 3f 79 1c a1 3f 36 ee 9b 3f
       1.2334324 1.837405 1.2586814 1.2182071
0000b0 16 c2 90 3f f0 0d a3 3f 9a 51 5a 3f b4 41 97 3f
       1.130923 1.2738628 0.85280764 1.1816926
0000c0 a0 84 56 3f 86 5c af 3f 0b 4a b4 3f b1 ce 6c 3f
       0.8379612 1.3700111 1.4085096 0.92502886
0000d0 7e 36 be 3f a8 85 9e 3f 46 d0 80 3f 3a e7 ae 3f
       1.486038 1.2384539 1.006356 1.3664315
0000e0 3e 29 5d 3f 9a ba b5 3f 04 2c 98 3f 82 b9 96 3f
       0.86391056 1.4197571 1.1888433 1.1775362
0000f0 2e 7d bf 3f 5d d0 9c 3f 30 df a6 3f 69 f5 a4 3f
       1.4960077 1.2251087 1.3036861 1.2887393

bias f4 [64]
000000 46 d7 89 be fc 05 d9 be ec 9f a7 3b 12 9d a6 3e
       -0.26922053 -0.42387378 0.0051154997 0.3254171
000010 2f ce 84 3e f7 61 10 3f 25 f8 8e be 5f 67 b4 bd
       0.25938556 0.5639948 -0.27923694 -0.08808779
000020 6a 73 50 be 6e 87 2b 3e 4e d5 18 be 7a 64 1a 3e
       -0.20356527 0.16750881 -0.1492512 0.15077391
000030 93 8a 3e 3c eb d4 97 3e c6 c8 84 bd c2 eb 20 3e
       0.011629718 0.2965463 -0.06483607 0.15714934
000040 95 60 66 3d 7c 87 6d 3e 67 de 00 3f 26 bb d5 bd
       0.05624445 0.23196214 0.5033936 -0.10436086
000050 45 6f 14 3e f1 c5 95 3e 33 37 16 be d1 c5 84 be
       0.14495571 0.2925258 -0.14669494 -0.25932172
000060 96 fe da 3d 08 2d df be 97 18 2f bd 16 69 1e 3e
       0.1069309 -0.43589044 -0.04274806 0.15469775
000070 5a 59 c2 bd 98 76 eb be d2 c7 56 be c1 9a 77 3d
       -0.09489699 -0.45988917 -0.20974663 0.06045032
000080 d9 b6 3a be 02 98 91 be d2 64 8c 3e 0b 39 6a 3e
       -0.18233813 -0.28436285 0.2742067 0.22873323
000090 71 a5 e8 3e d4 26 4c bc 48 f4 05 3e 9b 10 a1 3e
       0.45438722 -0.012460429 0.13081467 0.3145798
0000a0 2d 48 c9 3d ce 3f a3 3e 4e a0 44 be fe 56 90 bd
       0.098282196 0.31884617 -0.19201776 -0.070478424
0000b0 1f d2 d3 be 63 e4 01 bd 55 ea f6 be 46 d5 73 3e
       -0.41371247 -0.031711947 -0.48225656 0.23811826
0000c0 5e e9 65 be 89 d4 54 be 1c 47 db 3d 15 55 0b be
       -0.22452304 -0.207842 0.107069224 -0.13606675
0000d0 d9 f6 a2 be 61 69 c9 bd e7 4b f6 3d f1 bc cd bd
       -0.31828955 -0.098345526 0.12026196 -0.10045803
0000e0 49 2f 35 3f 6a f3 bc 3d e0 76 20 be 69 23 4e 3e
       0.70775276 0.09226115 -0.15670347 0.20130695
0000f0 ed f2 ab be dc 58 b3 be e5 47 cc 3e 8d aa 10 3e
       -0.33583775 -0.35028732 0.398986 0.1412756

running_mean f4 [64]
000000 40 ce 8a 3f de f5 f1 3e ae eb 93 3f 11 1f 16 40
       1.0844193 0.47257894 1.1556299 2.3456461
000010 9d 3a c7 3f 73 e9 a5 3f cb 35 3e 3f 88 d3 c7 3f
       1.5564762 1.2961868 0.7430083 1.5611429
000020 e4 ff c1 3f 36 ff e7 3f 55 85 c9 3f a6 35 15 3f
       1.5156217 1.8124759 1.5743815 0.58284986
000030 2e fd 2d 3f 32 9e fe 3f e1 ef b8 3f 5b 66 c3 3f
       0.67964447 1.9892027 1.4448205 1.5265611
000040 d0 ab 20 3f f0 68 56 3f a2 04 3e 3f 97 77 77 3e
       0.62762165 0.8375387 0.7422582 0.24166714
000050 33 ef 24 3f 31 27 a9 3f 7b 5e ee 3e 0e cf 78 3d
       0.6442749 1.3215085 0.46556458 0.060744338
000060 d0 f7 98 3f 88 b5 07 3f 00 19 70 3f 3e d8 81 3e
       1.1950626 0.5301137 0.93788147 0.25360292
000070 24 e3 15 3c 2b 21 f1 3e 6d 8b 30 40 c0 d8 c9 3e
       0.009148393 0.47095618 2.7585099 0.3942318
000080 ae 05 8c 3e 9c 28 ca 3f 1e d8 a8 3e d0 dc b2 3f
       0.27348083 1.5793643 0.32977384 1.3973637
000090 21 cf 1a 40 be 2d 3a 40 51 57 71 3e 92 98 0e 3f
       2.4188921 2.909042 0.23568465 0.55701554
0000a0 c9 b0 83 3f 23 a5 ad 3e a8 1f bb 3e 7a 12 9c 3e
       1.0288326 0.33915052 0.3654759 0.30482846
0000b0 3b b5 12 3f 0d 96 47 3e 3e e6 2d 3f e4 3a 4c 3f
       0.57307786 0.19490834 0.67929447 0.7977736
0000c0 c4 49 2d 3f e5 e3 b2 3f 1f 97 be 3e 4a 26 9c 3e
       0.6769068 1.3975798 0.3722467 0.30497962
0000d0 ea e0 0a 3f b5 24 7a 3f 64 81 18 3f ae a2 ab 3e
       0.5424944 0.9771226 0.59572434 0.33522552
0000e0 51 ef 93 3e 94 a8 71 3f 88 ad 1f 40 35 26 d1 3e
       0.2889352 0.94397855 2.4949665 0.40849462
0000f0 58 f8 cf 3f 71 b6 46 3e a2 d3 3b 3f 82 dc ba 3f
       1.6247663 0.19405533 0.733698 1.4598544

running_var f4 [64]
000000 1d 74 c8 3f 5d b7 2d 3f 8c 2e f7 3f 5d e1 0d 40
       1.5660435 0.67857915 1.931108 2.21688
000010 b3 5a fe 3f b9 d1 04 40 6b 79 64 3f e4 fd 4a 40
       1.9871429 2.0753005 0.8924777 3.1717463
000020 8e e0 0d 40 7d 3b 1c 40 46 ae 33 40 73 e3 e6 3f
       2.2168307 2.4411309 2.8075118 1.8038162
000030 1d 7d 9f 3f 0c a4 11 40 2c 9b e3 3f 7d ea be 3f
       1.2460057 2.2756376 1.778173 1.491531
000040 bc 20 9a 3f ee 92 cd 3f ff 80 9b 3f 54 a8 b6 3d
       1.204124 1.6060464 1.2148741 0.08918825
000050 86 98 ca 3f 6f 4e 15 40 e9 d8 0a 3f cd 54 ba 3d
       1.5827796 2.3329122 0.5423723 0.09098206
000060 56 55 3c 40 9d db 56 3f 76 b9 a4 3f 00 0f a5 3e
       2.9427085 0.83928853 1.2869098 0.32238007
000070 48 ff 08 3d 16 a3 56 3f 01 35 f2 3f 92 24 46 3f
       0.03344658 0.838426 1.8922426 0.7739955
000080 25 d9 cc 3e 23 83 db 3f fe 72 04 3f db cc 16 40
       0.40009418 1.7149395 0.51737964 2.3562534
000090 8a fb 21 40 6c c9 71 40 5d 10 c7 3e eb 54 7e 3f
       2.5309777 3.7779188 0.38879672 0.99348325
0000a0 6e 44 9a 3f 0c 07 0a 3f d2 20 1a 3f f2 2a 6f 3e
       1.2052133 0.53917 0.6020633 0.23356226
0000b0 be 30 92 3f 9d 90 aa 3e c3 07 87 3f 7f f8 82 3f
       1.1421125 0.33313456 1.0549244 1.0232085
0000c0 2e 71 a1 3f 33 27 f7 3f 93 f0 b8 3e a6 27 e3 3e
       1.2612665 1.9308838 0.36121044 0.44366187
0000d0 51 35 92 3f 51 70 a4 3f d4 bc 2f 3f a2 18 f7 3e
       1.1422521 1.2846776 0.68647504 0.4826098
0000e0 c9 11 ab 3e 23 ac 03 40 a1 c4 0d 40 a2 11 4c 3f
       0.33412006 2.0573814 2.2151263 0.79714406
0000f0 dd de 27 40 bf 49 cd 3e 27 04 6c 3f cc 97 f8 3f
       2.6229775 0.40095326 0.92193836 1.9421325

weight f4 [32]
000000 bc a0 69 3e 9b 67 39 be 52 54 53 3e c3 e1 63 3e
       0.22815222 -0.18105929 0.20637634 0.2225409
000010 f7 71 7a 3e 9c c3 8a 3e 6a 47 76 3e 07 28 3f 3e
       0.24457537 0.27102363 0.2405068 0.18667613
000020 e9 84 b0 3e fa e8 87 3e 84 04 5f 3e c9 0f 67 be
       0.34476402 0.26544935 0.21779066 -0.22564615
000030 6b bb af 3e a0 f2 a3 3e 9a c3 80 3e 4b 36 cd 3d
       0.34322676 0.32021046 0.25149232 0.10020121
000040 35 20 7f 3e 41 1b a5 3e 85 30 a1 3e f9 84 96 3e
       0.2491463 0.32247356 0.3148233 0.29398325
000050 59 5c 85 3e c8 15 b0 3e 84 44 ad 3e d5 21 83 3d
       0.26047018 0.34391618 0.33841336 0.06402937
000060 96 70 89 3e a3 52 87 3e 12 b4 3d 3e 8f 8f 99 3e
       0.2684371 0.26430234 0.18525723 0.2999234
000070 ec 83 8f 3e d8 fc 93 3e 37 76 86 3e d4 1b f6 3d
       0.28030336 0.28903842 0.26262066 0.120170265

bias f4 [32]
000000 f9 42 9a 3b 9d 23 58 bc 2a de b5 3b e5 04 b5 bc
       0.004707691 -0.013192085 0.0055501657 -0.02209706
000010 be c2 93 3d 58 e6 02 3e d2 3d b3 bb a4 77 92 bd
       0.072148785 0.12783182 -0.005470016 -0.07151726
000020 f2 24 05 3c ce e3 df 3c 2a 8e 7d 3c 31 d8 f2 bb
       0.008126484 0.027330305 0.015475789 -0.007411026
000030 41 ba b4 bc 21 d2 18 bc e1 3d 68 3d 6f 08 83 bd
       -0.022061469 -0.009327442 0.056699637 -0.06398093
000040 38 f7 5e bc 55 f3 86 bd 78 68 97 3d 79 dc a6 bd
       -0.013608746 -0.06589381 0.07392973 -0.081475206
000050 7b 3d 11 3d 14 bd 18 3d f9 b8 b2 bc 09 69 b3 3c
       0.035459023 0.037289694 -0.021816717 0.02190067
000060 ff d7 6d 3a 49 11 b6 bd c6 3b 3c bd 23 20 c5 bc
       0.00090730184 -0.08890016 -0.045955442 -0.024063176
000070 bb 6f ad 3b 30 52 b5 3d 46 a1 00 bd fe ee 67 be
       0.0052928603 0.08853567 -0.031403802 -0.22649762

running_mean f4 [32]
000000 7d 76 f1 3f 13 d1 13 40 2a f2 d5 3f 2a 11 d9 3f
       1.8864285 2.3096359 1.6714528 1.6958363
000010 48 77 87 40 8a 5f 6c 40 e6 ab c2 3f b5 28 05 40
       4.2333107 3.6933312 1.5208709 2.0806096
000020 d5 f5 6c 40 9c 3d 85 40 bd e7 48 40 ea 9b 41 40
       3.7025044 4.1637707 3.1391442 3.0251412
000030 0f af a2 40 88 f2 3e 40 92 aa 77 40 35 fc 1e 40
       5.0838695 2.983553 3.8697858 2.4841435
000040 57 29 0e 40 d9 b4 9f 40 b5 87 95 40 22 49 3a 40
       2.2212732 4.990826 4.672816 2.9107137
000050 3d 8f 91 40 6f 8c 29 40 8d 97 45 40 1c 88 0f 40
       4.548735 2.6491964 3.087375 2.2426825
000060 b9 10 51 40 0d be 6e 40 15 f3 e8 3f 6b 00 9a 40
       3.2666457 3.7303498 1.8199183 4.812551
000070 44 f3 25 40 44 90 47 40 c0 0c 64 40 03 89 86 3f
       2.5929728 3.1181803 3.5632782 1.0510563

running_var f4 [32]
000000 04 03 f8 40 b4 9f 38 41 dd 98 0f 41 dc 2f 16 41
       7.750368 11.53899 8.97482 9.386684
000010 5b 3a f3 41 a0 74 d3 41 bb aa d6 40 76 bf 42 41
       30.403494 26.431946 6.708341 12.171743
000020 89 80 dc 41 1f 83 dc 41 c7 b9 ce 41 34 a0 98 41
       27.562761 27.564024 25.840712 19.078224
000030 d3 ec ef 41 19 2c 81 41 2d 2b de 41 4e 7e 99 41
       29.990637 16.146532 27.771082 19.186672
000040 c0 12 7a 41 c0 c7 28 42 e6 ec 1c 42 5c ee ca 41
       15.629578 42.19507 39.231346 25.366386
000050 2d 4d 51 42 e1 b8 93 41 75 4b d4 41 f4 e3 91 41
       52.325367 18.465273 26.536844 18.236305
000060 d7 32 9d 41 a7 38 16 42 4d a8 29 41 3e 34 01 42
       19.649824 37.555325 10.603589 32.301018
000070 87 ec 84 41 ea 6a 8e 41 fa 44 a5 41 7f 40 ad 40
       16.615492 17.802204 20.65868 5.414123
