Models/TrainedModels/FCNNs/FCNN4.pt (torch, 84783 bytes, 9 tensors)

weight f4 [64, 22]
00000000: 9db6 213d 48a8 dcbd 39b3 0c3e 36c6 903e
00000010: cb50 41be 8df7 d43d 272c cd3d f334 9cbe
00000020: 2333 c1bb 16d4 263e 35ad e8bd 1723 c2bd
00000030: 4e26 72be d81e acbe f173 9a3e 1507 043e
00000040: b9b0 88be 4f6b 9fbe 63b9 c53d efc1 0bbe
00000050: 9a0c 183f 5765 bcbe accc 863d e5e2 1c3d
00000060: 503c 34bd af79 97be 362e ca3d f0af aabd
00000070: d305 39bd 7695 ed3e c1f8 793e 2dcb a43e
00000080: ba33 ea3e 38d8 2dbe 67d3 fcbe 6068 5ebe
00000090: 01eb 5e3e 33b0 d2bd b6f9 db3e 998d 0cbe
000000a0: f164 84be 4182 0f3f 6f05 ecbe 064d dabe
000000b0: 80d4 2dbf c90c 503f 3182 88bc 4669 fe3d
000000c0: fc87 33bd 0c4b 2c3f 2013 183e b524 e13e
000000d0: 645d 83be 8272 e0be 5e6a 04bf b1ac f9bd
000000e0: 0280 0f3f acc5 febd 7f93 643e a4e7 6c3d
000000f0: 2593 0dbf 2a69 39bf 8aa6 9ebe 22f7 b7be
00000100: 7146 b1bd b9e8 a2be c9ca 063f 3e6b 9abd
00000110: ae67 31be 8d7a c9bd deca 3d3e 2cda 4d3d
00000120: 0a1b adbd 83cf 96bd 79c4 8b3e e615 e8bd
00000130: 2994 babd 2688 b33e cc00 0bbe 4936 2bbf
00000140: 067d b53f fb3d 833e 79aa 1abf 2fc8 363f
00000150: 2995 d7be 60e5 e23e f207 1bbe 404d d6bd
00000160: 0148 eb3d badc 15bf 5528 cbbd ed73 16bd
00000170: c09a d3bd 0ff2 a0bd 265a fd3b ac6c 30be
00000180: 7125 d03d 0815 223e e0fe abbe 8db6 c0be
00000190: 8382 c9bb 2bcb 073e c360 60bc 6351 0cbd
000001a0: df35 6ebd 5564 82be fcb7 6f3b f7f7 39be
000001b0: 6e05 72be 724d 1f3e 18f6 5f3f 5904 403f
000001c0: 3896 33bd 882f 72be d378 6cbd 41bc 2e3e
000001d0: 2975 fb3d 9207 013f c9c1 8e3d f092 223e
000001e0: 9853 b33e 648c e43d 3611 1dbe 7d68 9abe
000001f0: 09f9 c83d eb78 ef3d 89cf 1bbf 92a0 113d
00000200: bd61 14bf 025a 953e 11fd 94bc 5b43 12bf
00000210: 85c4 903e f22f 0ebe ba47 67be 5cef 10bf
00000220: 85b8 073e e360 9cbe 9eda febd 471e 1e3e
00000230: 8e3a a43e 9b50 383e 7b8c 49be 1d20 83bd
00000240: 017f b0bd f94c 91be c4c8 e0be bead 04be
00000250: 89c5 0bbe b4df 60bf 02e6 2a3f c788 12be
00000260: e420 a33e 7918 f23e 21bb 373e 3eb9 dbbe
00000270: 5d3e 42be 3929 403d 55eb 1cbe 4b4e 92bd
00000280: 350f 2fbe 1c7e 4b3e a942 cc3c 9f37 acbd
00000290: cf75 bfbd c6af 0b3e fe0f 913e 6dd5 e43d
000002a0: 694a 1f3e 9856 183e f550 ca3e eac6 d9be
000002b0: 50cd 2c3e 8914 e8be b57c 9a3e 731a adbd
000002c0: 5dbf 933d d005 b5be ce91 2bbe e359 03bd
000002d0: 6815 383e 6bbc 603e 96da d83e 8055 c4be
000002e0: 0a5c 2abe 808d a5bf 3c8c c0be c337 653f
000002f0: a1ea d8be fa70 0ebf 0606 b3bd e4ab 983e
00000300: fa0e 02bf de7b d63e c84a 213e a88e 8dbf
00000310: d557 753e 6574 3f3f 998e d6bd 57ca 8c3d
00000320: a261 fc3e 39aa a13e 714e b6bd 7213 49be
00000330: eafa 113f 5f6c eb3d be27 a13e 0fa0 b83d
00000340: 4ced e43d 45a2 b03e 0146 243f 3cae d13d
00000350: a377 b1be dbf4 a83e 4c95 80be 148b ce3e
00000360: 7385 953e 76b6 48be fa2d 38be 6ac6 1fbe
00000370: 8fdf 0cbf ecb2 04bf a8a9 4a3e 9f68 6e3f
00000380: 6b29 963e a5ce ca3e a699 8d3c 95ca 073e
00000390: 4f91 643e 42ba d9bd 45b7 cd3d a925 293e
000003a0: 4c87 2fbd 552d 64be ee36 9b3e aeef 403e
000003b0: 5e6d 1d3f 40ba bbbd 4071 8d3e 93ca 91be
000003c0: d45c 86be e432 1ebe a4ca 413e c4a2 123f
000003d0: 7ae2 62bd 8b82 4e3e 3538 683e b657 3ebc
000003e0: bdbd b63e f269 3dbf 93ed 33be c142 2fbe
000003f0: 68a0 afbd 42fb 493e 0f88 833e fa30 8b3e
0.039480794 -0.107742846 0.13740243 0.28276223 -0.18878476 0.10398779 0.10018187 -0.30509147
-0.0058959886 0.16291842 -0.113611616 -0.09479349 -0.23647425 -0.33617282 0.3016658 0.12893327
-0.2669733 -0.31136557 0.096545 -0.13648199 0.5939423 -0.36796066 0.06582007 0.03830232
-0.04400283 -0.29585025 0.09872095 -0.08334339 -0.04517157 0.46403092 0.24411298 0.3218626
0.4574259 -0.16977012 -0.49380037 -0.21719503 0.21769334 -0.102875136 0.42963952 -0.1372589
-0.25858262 0.56058127 -0.46097896 -0.4263689 -0.67902374 0.8126951 -0.016663643 0.12422423
-0.043830857 0.6730201 0.14851046 0.43973318 -0.2565719 -0.43837363 -0.51724803 -0.121911414
0.560547 -0.12440047 0.2232189 0.057838097 -0.5530265 -0.7242609 -0.30986434 -0.35930735
-0.08656014 -0.31818178 0.52653176 -0.07539986 -0.17324707 -0.09837828 0.18534419 0.050256893
-0.08452423 -0.073637985 0.27298334 -0.11332302 -0.091102906 0.3506481 -0.13574523 -0.6687971
1.4178779 0.25633225 -0.6041637 0.71399206 -0.42105988 0.44315624 -0.1513975 -0.10463953
0.11488343 -0.58539927 -0.09919802 -0.03673165 -0.103322506 -0.07858669 0.007731694 -0.17228955
0.101633914 0.15828335 -0.33592892 -0.37639275 -0.0061495914 0.13261096 -0.013694945 -0.034257304
-0.058156844 -0.25467172 0.003657817 -0.18160997 -0.23634884 0.15556887 0.87484884 0.75006634
-0.04384443 -0.23650944 -0.057732414 0.17064 0.12278206 0.50402176 0.06970555 0.15876365
0.35024714 0.1115959 -0.15338597 -0.30157843 0.09813125 0.11692985 -0.6086355 0.035553522
-0.57961637 0.29170233 -0.018187078 -0.57134026 0.28274933 -0.13885477 -0.22585955 -0.56615233
0.13253982 -0.3054267 -0.12444042 0.15441237 0.32075924 0.17999499 -0.19682495 -0.064026095
-0.08617974 -0.28379038 -0.43903172 -0.12956902 -0.13649572 -0.87841344 0.66757214 -0.14309989
0.3186103 0.47284296 0.17942478 -0.42914766 -0.18969102 0.046914313 -0.15324147 -0.071438394
-0.17095645 0.19872326 0.02493413 -0.084090464 -0.09348642 0.13641271 0.28332514 0.1117352
0.15555729 0.14876783 0.3951489 -0.42534572 0.16875196 -0.45328167 0.3017327 -0.084523104
0.07214234 -0.35355997 -0.16754839 -0.032068145 0.17976916 0.21946876 0.42354268 -0.3834648
-0.16636673 -1.2933807 -0.3760699 0.8953821 -0.42366508 -0.5564114 -0.08741383 0.29818642
-0.508041 0.41891378 0.15751183 -1.105916 0.23959287 0.7478698 -0.10476417 0.06874531
0.49293238 0.31575182 -0.0890168 -0.19636324 0.5702349 0.114952795 0.31475633 0.09014904
0.11178073 0.34498802 0.6416932 0.10238311 -0.34661588 0.3299931 -0.25113904 0.40340483
0.29203376 -0.19600853 -0.17986289 -0.15603033 -0.55028623 -0.51835513 0.19791281 0.9312839
0.29328474 0.39610782 0.01728518 0.13260873 0.22321056 -0.10631229 0.100447215 0.16518272
-0.04285364 -0.22282918 0.30315346 0.1884143 0.61495006 -0.09166384 0.27625465 -0.28474864
-0.26242697 -0.154491 0.18924958 0.5727961 -0.055391766 0.20166986 0.22677691 -0.011617592
0.35691634 -0.73989785 -0.17571096 -0.17115308 -0.08575517 0.19724753 0.25689742 0.27185804

bias f4 [64]
00000000: edf4 7dbf 89aa 94bf 0eb2 cc3d 9f3c 61bf
00000010: 6b74 90bf 93bb 9cbf 79b4 b4bf 2463 e6bf
00000020: 1d57 08bf ea7e b1bf 6fbb 72bf 6851 88bf
00000030: a400 53bf 2767 85bf 4c92 5bbe cb86 8ebf
00000040: 7c73 9abf c3d7 9fbf a02e fabe bc9e 86bf
00000050: 2437 adbf 38b8 b8bd 5c30 39bf 61b2 86bf
00000060: 9735 98bc d3a2 3fbe 0f9d f1bf 5693 d9bd
00000070: d7e5 93be 5236 e73b 5e90 49bf d8f6 a6bf
00000080: 42c8 94bf 26be bcbf 4d37 88bf e377 c5bf
00000090: 1941 82be 506d debf 6492 84bf 477a 74bf
000000a0: ed42 0dbe edfe 53bf 11ce cebf 11a2 88bf
000000b0: 3cd7 88bf d194 aebf 2bdd 24bf fa39 d4bf
000000c0: c686 54bf a314 84be de79 44bf ebdb 1fbf
000000d0: cd35 223f ed13 49bf 0086 febe bc54 b6be
000000e0: 23f7 3bbf 6de7 6ebf 5b4c b2bf 789f 24bf
000000f0: 6d3b 59bf 181a b3be 8809 6abf eb33 11bf
-0.9920185 -1.1614543 0.09994899 -0.87983125 -1.1285528 -1.2244743 -1.4117576 -1.7999005
-0.53257924 -1.3866856 -0.9481725 -1.0649843 -0.8242285 -1.0422105 -0.21442527 -1.1134886
-1.2066493 -1.248772 -0.48863697 -1.0517192 -1.3532453 -0.09019512 -0.72339416 -1.0523187
-0.018580241 -0.18714456 -1.8876055 -0.10623805 -0.2888629 0.007056036 -0.7873591 -1.3044081
-1.1623614 -1.4745529 -1.0641876 -1.5427212 -0.2544029 -1.737711 -1.0357175 -0.9549908
-0.13795061 -0.8281086 -1.6156636 -1.0674459 -1.0690684 -1.3639165 -0.64399976 -1.6580193
-0.8301815 -0.25796995 -0.76748455 -0.62444943 0.63363343 -0.7854603 -0.4971161 -0.35611522
-0.73423976 -0.9332188 -1.3929552 -0.6430583 -0.848563 -0.34980845 -0.91420794 -0.56719846

weight f4 [128, 64]
00000000: ba04 69be de90 1bbf 2929 a5bd b3d0 63bf
00000010: e881 0bbc 944b dabe eec6 2cbf 9907 bbbe
00000020: b77e a6be a593 c3be 5a1f 0abf 938a 76be
00000030: 94be ebbd 8681 43bf d37a 44be b72e aebe
00000040: 5e1f d6bd 69b7 0f3c 3514 d6bd 3572 773e
00000050: 9daf 373f 7e0c 7cbf 50a9 a83e 5b33 81be
00000060: 6b83 663d 647d 623e db6f 1bbe 760f 80bf
00000070: 6427 7abe d5c6 37bf d4f5 49bf 4198 953d
00000080: 400b 913e 442c 34be 74e9 96be ca5e 24bf
00000090: 8856 bdbe 35b9 923e b0b4 36bf f2cd eabe
000000a0: ac65 31bf b3d1 02bf c23b 993e 9c67 a33d
000000b0: d582 263f 1450 d0be 1e38 82bf 11ce de3d
000000c0: b627 ca3e c5ba c1be f707 0abf b963 b33d
000000d0: abd7 76be faeb db3e 1617 87bf bec7 07be
000000e0: 07e9 593e a195 1abf a56f d2bd 59af 1abf
000000f0: a15b fd3e 90f6 0cbf 9090 013e d178 21bf
00000100: a05c 4b3d da90 1d3e b06e 27bf d1d5 37bf
00000110: a576 39bf 6d1f d0be 6842 73bf 0408 71be
00000120: 5a40 93bf 6a0e 32bd 3b03 54be cb0e 603f
00000130: faa7 40bf 6208 213e 2d78 78be 4fe0 e63c
00000140: 7e5b c03e 21c4 84bd 2c13 c5bf 7af6 7ebc
00000150: 648f ac3d 5672 50bf 4c54 1dbf 0f89 e3bd
00000160: 6168 213f 2af1 893f 1291 a13e 4811 b8bf
00000170: edc3 2dbf 36d6 34bf bdc0 fb3e f77f 0bbe
00000180: 24f1 ed3e 2984 273e 7b59 f4bc e340 0b3e
00000190: 0526 3bbf ba78 c43e ea48 f1bd b50a a03e
000001a0: 4425 31bf 0f50 4bbf d07d 88bf c1f9 f4be
000001b0: ba51 0abf 78e6 4e3f fd80 15bf f83d ddbe
000001c0: 8bfa 6c3e 6e95 253e a11f bbbe 7655 58bf
000001d0: 3776 47bf 0b41 a8bd defa 07bf 2fed 72bf
000001e0: 19af 06bf f1dc 45bf cdbd 8cbe 0b75 8ebf
000001f0: ce8f 27bf c0e9 cdbe 8745 a83e f796 2ebf
00000200: 3621 75be 103e 283f 9f76 1fbf 8b57 83bf
00000210: 5d27 b2be 1978 5abf 2180 81bd 7fde 3bbf
00000220: cc0e 13be cef4 fa3e 1cb5 c0bd 32c6 643f
00000230: 2bbe b5bf 900c 97be 5fda 963a ec4c 353e
00000240: a340 1d3e a77a 32be b63b 36be 4818 e9be
00000250: 633c 943d 6762 5ebe 0d72 b83c 8d20 1fbf
00000260: e8df 183e e242 fabd 254d 513f f7c7 9b3c
00000270: b601 013e 8418 adbe 349f f33e 4cd1 23bf
00000280: 03c4 a33e 5937 b7be f0d7 6e3e 71b1 88be
00000290: c7cf 05bf e691 203f a55f 0f3f b071 833f
000002a0: 1cee 60be 4b18 4c3e f394 d83e 280d 39bd
000002b0: d361 6b3f 1572 593b 6411 fabe 5190 a13e
000002c0: 4dc1 b33c 2b98 62be dd33 54bd 29cb 44be
000002d0: ac7c 21bf 0d14 afbe 4736 3ebf 27d6 883e
000002e0: c4dd 89be f556 123f 0103 643e 7bcd 80be
000002f0: b67a adbe 9d60 c1be d892 a53e b81a 2a3e
00000300: d287 45bf eadb 7b3e 46ce 3cbe 723b c9bd
00000310: 9a0d 02bf 0d16 bd3e 5259 83be f487 47bf
00000320: a1a4 f4be 7a32 b53d 4ec0 10bf 265c f9be
00000330: c6c9 c43d dbf6 b3be 2d03 c1be 92c0 0c3f
00000340: c3ee 243f 5d66 3dbb d496 2ebf b1a6 2dbf
00000350: bf5c 89bf fe9c d03e 0e98 a53e f047 4d3d
00000360: 82dc 5a3f e3c5 02bd 9417 32bf 7da5 2cbe
00000370: fad9 a8be f134 1b3e 91a4 aebe 795b bcbd
00000380: 4fb4 17be bbe7 07bf f75e 7bbd a238 08bf
00000390: bed9 c33e 19c5 7cbe ab4c d5be 2a5e b1bd
000003a0: 48ea 003f 906a 89be ac3a 30be ecc3 88bf
000003b0: 85e3 b1be 2ec7 1fbf 2d0e 50be 60b6 d0bd
000003c0: 06ad d53d 8b37 8e3e c7d7 8ebe d10b 0e3f
000003d0: fb0a 57be 20b3 4f3e f7f1 3f3e 3f5c f03d
000003e0: 611d dabc 38ed ef3e a912 253f 1ec7 4f3e
000003f0: 75ad f0be 8b1e 22bf 5603 49be b09d 43be
-0.2275571 -0.60767925 -0.08064491 -0.88990325 -0.008514859 -0.42635787 -0.6749104 -0.36529234
-0.3251855 -0.3819858 -0.5395409 -0.240763 -0.11510959 -0.7636951 -0.19187479 -0.34020016
-0.104552016 0.008771756 -0.10453073 0.2416466 0.7175234 -0.9845656 0.32941675 -0.25234494
0.056277674 0.22118145 -0.15179388 -1.0004718 -0.24429089 -0.7178777 -0.7889073 0.07304431
0.28328896 -0.17595011 -0.29474986 -0.64207137 -0.3698008 0.28656927 -0.7136946 -0.4586025
-0.69295764 -0.51101226 0.29928404 0.07978746 0.65043384 -0.40686095 -1.0173376 0.10879148
0.39483422 -0.37837806 -0.53918403 0.08759255 -0.24105708 0.42953473 -1.055392 -0.1325979
0.21280299 -0.60384566 -0.10275201 -0.6042381 0.4948397 -0.55063725 0.12652802 -0.63074976
0.04964888 0.15387288 -0.6540327 -0.7181063 -0.7244666 -0.40648976 -0.950232 -0.23538214
-1.1504014 -0.043470778 -0.20704357 0.8752257 -0.7525631 0.15725854 -0.24264593 0.02818313
0.37569803 -0.06482721 -1.5396476 -0.015561694 0.08425787 -0.8142446 -0.6145675 -0.11110126
0.63049895 1.0776722 0.31555992 -1.4380274 -0.67877084 -0.7063936 0.49170485 -0.13623033
0.46473038 0.16359009 -0.029827824 0.13598971 -0.7310489 0.38373357 -0.117814854 0.3125817
-0.6919749 -0.79419035 -1.0663395 -0.47846797 -0.54030955 0.8082042 -0.58399945 -0.4321134
0.2314245 0.16170284 -0.36547568 -0.84505403 -0.77914757 -0.08215531 -0.5311717 -0.94893163
-0.5261093 -0.77290255 -0.27488557 -1.1129469 -0.65453804 -0.402174 0.32865545 -0.68199104
-0.2393845 0.657197 -0.62290376 -1.0261091 -0.34795657 -0.85339504 -0.06323267 -0.7338638
-0.14361113 0.49014896 -0.09409544 0.8936492 -1.419866 -0.29501772 0.0011509171 0.17705125
0.15356688 -0.174296 -0.17796215 -0.45526338 0.0723808 -0.21717225 0.022515321 -0.62159044
0.14929163 -0.12219788 0.8175834 0.01901625 0.12598309 -0.33807766 0.475824 -0.63991237
0.31985483 -0.35784414 0.23324561 -0.26697877 -0.5227017 0.62722623 0.56005317 1.026907
-0.21965832 0.19931142 0.4230114 -0.045178562 0.9194614 0.003317957 -0.48841393 0.31555417
0.021942759 -0.2212836 -0.051807273 -0.19218124 -0.6308086 -0.34194985 -0.7430157 0.26725885
-0.26927006 0.57163936 0.22266771 -0.2515677 -0.33882684 -0.37769023 0.32338595 0.16611755
-0.7716037 0.2459561 -0.18438062 -0.098257914 -0.50802004 0.36930886 -0.25654083 -0.77941823
-0.47781852 0.08847518 -0.56543434 -0.48703116 0.09608798 -0.35149273 -0.37697735 0.5498134
0.6442682 -0.0028900125 -0.68198895 -0.67832476 -1.0731429 0.40744776 0.3234257 0.050117433
0.8549272 -0.031927 -0.6956723 -0.16860004 -0.32978803 0.15156914 -0.3410993 -0.091971345
-0.14814876 -0.5308797 -0.061369862 -0.53211415 0.38252062 -0.24684562 -0.41660056 -0.086605385
0.50357485 -0.26839113 -0.17209882 -1.0684791 -0.34743896 -0.624133 -0.20317908 -0.10191035
0.10433392 0.2777675 -0.27899 0.5548678 -0.21000282 0.20283175 0.18744646 0.117363445
-0.026625337 0.4686067 0.644816 0.20290801 -0.47007337 -0.63327855 -0.19630179 -0.19103122

bias f4 [128]
00000000: 7df1 80bf f746 93bf 9852 983e 8303 89be
00000010: dc16 5dbf 76c9 4ebf d86f 2dbf ef6c febe
00000020: ea19 a9bd 71a4 14bf e806 f6bd 5a97 87bf
00000030: 63cc 36bf 1dea d1be 3d17 75bf 9fd2 25bf
00000040: afec 9ebe 51e4 1bbf 3867 a1be e50d d7be
00000050: 05d2 08bf 04f0 2ebf de19 0fbe 5835 6a3f
00000060: f4e3 3ebe 421f 89bf 7eda 21bf 40e3 d1be
00000070: c92c a63e 87e9 33be 90e1 cbbe 368d 6dbe
00000080: b0e4 c43e 4e2d 1abf 31b9 3cbf 3935 8ebf
00000090: b667 ecbb c21c 68bf 3cda fabe 4b55 56bf
000000a0: 790b 6dbe f92c 85be 0abc bfbe 9cba 803d
000000b0: d5e9 94bf 175f 26bf 9e79 afbe 8bf6 11bf
000000c0: 90ac 11bf 5a86 903e 2e8c 133e 8dd8 0cbe
000000d0: 8b43 a7be 5ce7 45bf 6d1c 39bf 19f6 d1be
000000e0: 7e15 d9bd 6408 a33e 0e3a 94bf 964b 3ebf
000000f0: 1389 7e3d fc7a 2fbf b700 a0be 815b 3dbf
00000100: ecf6 38bf 3e62 04bf a2eb 42bf ddbf 61bf
00000110: 4f85 efbe 1f92 44bf 1caa 0bbf 54aa 65be
00000120: 7fd0 23bf 04fa c2bf fabb 5ebf e717 64bf
00000130: 75b3 bcbe 1863 06bb 6aee 14bf 9cf8 89bd
00000140: ea97 a0be 92e8 603d d13a 0c3f fd57 ddbd
00000150: ed4a aabf 090e 57bf 29fe e0be 030a 83bf
00000160: 4d65 30bf 8795 08bf 8351 903f 18a8 34bf
00000170: 8ac0 b2be aa20 8ebf 1a7a 28bf 8b63 65be
00000180: 76b1 3ebd 3408 a5be fcf6 d6be d5af 55bf
00000190: a287 d1be fccf 7ebf 4024 58bf 9a37 cebe
000001a0: 41a4 813f b1c2 c73f 130d 77be 4fdc 37bf
000001b0: c583 01bf 6725 d3bd 8aa2 47bf cf62 48bf
000001c0: 84fd dabe f71a 33bf bc2c abbe de88 35bf
000001d0: dfc6 b0be 7145 2d3f d951 53bf d4c0 c03d
000001e0: e443 d6bd eb37 1fbf b9b6 63bf 0c77 513e
000001f0: d88a a5be 48f1 fdbe 750f 94bf 4f5e a5be
-1.0073696 -1.1506032 0.29750514 -0.26760492 -0.86363006 -0.80776155 -0.67748785 -0.49692485
-0.08256896 -0.5806342 -0.12013036 -1.0593064 -0.7140562 -0.40998927 -0.95738584 -0.6477451
-0.3103995 -0.6089526 -0.31524062 -0.42002788 -0.53445464 -0.68334985 -0.13974711 0.91487646
-0.18641645 -1.0712664 -0.6322402 -0.4099369 0.32456043 -0.17569552 -0.39820528 -0.23198399
0.38455725 -0.6022538 -0.7372008 -1.1109992 -0.0072145117 -0.9066888 -0.48994625 -0.83723897
-0.23148908 -0.26010874 -0.3744815 0.06285593 -1.163386 -0.64988846 -0.34272474 -0.5701682
-0.56903934 0.28227502 0.14408943 -0.13754483 -0.3266872 -0.7730615 -0.72309 -0.4100807
-0.105998024 0.3184234 -1.1580217 -0.74334085 0.062142443 -0.68547034 -0.31250545 -0.7396775
-0.7225177 -0.51712406 -0.761408 -0.88183385 -0.46781394 -0.76785463 -0.5455644 -0.22428256
-0.63990015 -1.5232549 -0.8700558 -0.8909897 -0.36855665 -0.0020505842 -0.5817629 -0.067368716
-0.313659 0.054909296 0.54777247 -0.10807798 -1.3304116 -0.8400579 -0.4394391 -1.023743
-0.6890457 -0.5335316 1.1274875 -0.7056899 -0.3491252 -1.1103718 -0.6581131 -0.22401254
-0.04655596 -0.3223282 -0.4198531 -0.83471423 -0.40923792 -0.9953611 -0.84430313 -0.40276796
1.0128251 1.560629 -0.24126081 -0.7182054 -0.5059169 -0.10309868 -0.7798239 -0.7827577
-0.42771542 -0.6996302 -0.33432567 -0.7091197 -0.34526727 0.67684084 -0.82546765 0.09411779
-0.10462168 -0.621947 -0.8895069 0.20455569 -0.32332492 -0.49598145 -1.1567217 -0.32298514

weight f4 [64, 128]
00000000: 8c26 8bbd 1829 6f3f 6374 e2be 786e 503d
00000010: 7dba d23e 67d1 4fbe 0f61 2d3e a62a 4c3d
00000020: 472b 343e 3187 0abf 3dbc 4abe 50e1 ba3c
00000030: 53bd 10be 7ba4 6d3f d1f1 43bf 4d00 d6bc
00000040: d163 92bd cd78 76be 5a73 b73e 6118 ef3e
00000050: bca2 43bd cb62 703e 0158 013d 11ac cdbe
00000060: 3715 eabe 578e ecbe da6d 2b3d f554 313e
00000070: f02c 02bf f56c 0dbf aa8e 2bbf dd7c c8be
00000080: 362b 7a3e 3430 d7bd f8a0 f4bd eedc 9a3d
00000090: 77c3 f8be 326a 4b3e 5236 16bf a870 903e
000000a0: 7671 1abf ed8d 753d ea77 c23c 3be1 78be
000000b0: e188 96bb e36d 53be dbce 90bc bb6e c73e
000000c0: aa97 cb3e fc7f 8b3e b196 3cbf bf1e 28be
000000d0: 0575 033d 3d3c 433e 6c5c 70be d2a8 413e
000000e0: efed fe3d 0d73 abbe 00a1 3f3f 7566 033f
000000f0: 4328 1ebd 0506 3fbc dc8b 933d 8c10 28bf
00000100: 15cf c83e a182 60be e369 85bc 8025 5c3f
00000110: 0049 413e 2c97 ac3e f90b c63e fb97 98be
00000120: 5f69 5c3e 79b7 11bf 6528 4c3e 8f7a a73e
00000130: 97d5 19bf b860 a7be f272 02be 51bf 7dbe
00000140: 9d2b 9a3d 03b4 dabe c2d3 90be 8ee0 a7bd
00000150: bb32 1a3e 0387 923e 5efb 6a3e f57c cf3b
00000160: 654c f3be b303 bb3e a23b 29be 8c88 04bf
00000170: 767c 5a3c 39b8 063f 5cf5 633e 7814 8dbd
00000180: c11e 4e3d 9af3 0dbf 2a04 d2be 5615 13be
00000190: eadb 9abe 30d3 063f 0c6a fd3e 537a 05bd
000001a0: 80ad 2fbf 245e 6bbf 49fa 183e 174f d03e
000001b0: a304 0dbe c7f2 50be 936a 783d 4573 9cbe
000001c0: b039 bdbd 2c5e 383e adb3 26be c56c 2a3e
000001d0: 60ff ca3e 1c0c 81bf a6ba 0b3b ecff f4bb
000001e0: 1962 d53e 1252 0a3f a6a7 a0be 1c38 a0be
000001f0: 520a d43b af21 903e ab5c 023f 725e 18be
00000200: cba1 843e 697f 663f f834 893e a66a 2a3e
00000210: ba69 3d3f 580a 54bf edd2 abbd 1686 86be
00000220: fbef aabe 71e1 d53e cef4 193e 542b a23c
00000230: 0824 da3e 6dee 293e 65de 803e 4128 183f
00000240: a279 1b3e 6bfe 1bbe bdc1 023e 1954 f8be
00000250: d30e cdbe b2c8 b6be 5527 353e 57cd 9cbe
00000260: e20b 44be 61b7 d4be 88ae d73e deaa 84be
00000270: 8c22 e3be 8861 fabe 2239 b03e 9570 c8be
00000280: 3060 ef3e c2b5 c43e b3b3 42be e19a 4c3f
00000290: bb33 9a3e 9fb0 703e 2ca8 683e f621 34be
000002a0: 13a4 c33e 071c 88be a4c6 d33e 03ac fabe
000002b0: fe31 6d3f b380 abbd d4b4 413e 02b1 953e
000002c0: 7968 7abe 9006 01be 06b0 9ebe 133f 88be
000002d0: f01f 293e 46c1 44be ee92 213f 1574 2b3d
000002e0: c1bd b13d 00ce 08be 9d54 853f eb10 8c3e
000002f0: 9e5e 8d3d 6bb4 49bc 3f7b f3bd d9d5 bfbe
00000300: 98e6 4f3e b938 55be af6e 083e 2120 4d3e
00000310: fb67 6e3f 76f3 163f 3287 abbe b994 06bf
00000320: 9ea8 27bf b12a 31bf 0e66 aa3d 0eaf ae3e
00000330: e5ed 1dbf 4188 eebe 720b b2be 7452 16bf
00000340: fa92 46bf 64eb c73d bc4a 32bf 950a 04bf
00000350: 7b20 cf3d 6e9a 113e 1587 a2be 68d9 5fbe
00000360: d8fc c53c 9e9f ef3e 8b0d a6be 5107 5fbe
00000370: 1071 9f3e 1114 4cbd bd3e c73d 7dcc e8bd
00000380: c07e 98be 33ef 16be 70ec a6be b22f 9fbe
00000390: 95ef ea3e 3abf 79be 5dd3 d7bd 574b c8be
000003a0: 009a 92bd 8df3 30be 60a3 8dbe 7818 843e
000003b0: ae44 10be 07e7 f3bd 8397 523e f993 9f3f
000003c0: 63c1 fc3d 6503 d1bd d148 a4be d223 6bbd
000003d0: fb01 b43c 0b4a b1be cab1 fc3d 55ec c7be
000003e0: fdbc b9bd 18cf a6be caaa 1b3f ad95 813d
000003f0: c29d e3be c112 1dbf 65a0 e6be 5ce3 163e
-0.067944616 0.9342208 -0.4422942 0.0508866 0.41157904 -0.20294724 0.16931556 0.04984536
0.17594634 -0.54112536 -0.1979837 0.022812515 -0.14134721 0.928291 -0.7654086 -0.02612319
-0.07147945 -0.2406952 0.35830194 0.46698287 -0.047762617 0.23475187 0.031578068 -0.4017034
-0.4571931 -0.46202347 0.04185281 0.17317565 -0.5084982 -0.5524438 -0.67014563 -0.39157763
0.24430546 -0.10507241 -0.11944765 0.0756167 -0.48586628 0.19864729 -0.58676636 0.2821095
-0.6032938 0.059949804 0.02373882 -0.24304669 -0.004593954 -0.20647387 -0.017676761 0.38951668
0.39764148 0.27246082 -0.73667437 -0.16417979 0.03209402 0.19065948 -0.23472756 0.18912056
0.12447726 -0.33486214 0.7485504 0.5132821 -0.038612615 -0.01165915 0.072044104 -0.6565025
0.3922049 -0.21924831 -0.016285842 0.8599472 0.18875504 0.33709085 0.3868101 -0.29803452
0.21524571 -0.5692058 0.19937284 0.32710692 -0.6009154 -0.32690978 -0.1273916 -0.24780013
0.0752785 -0.42715463 -0.28286558 -0.08197127 0.15058415 0.2861863 0.22947451 0.0063320347
-0.47519222 0.3652626 -0.16526654 -0.51770854 0.013335338 0.5262485 0.22261566 -0.0688867
0.050322298 -0.5544983 -0.41018802 -0.14363608 -0.30245906 0.52665997 0.4949497 -0.03258736
-0.68624115 -0.9194052 0.14939226 0.4068534 -0.137713 -0.20405112 0.060648512 -0.30556694
-0.09239519 0.18004674 -0.16279478 0.16643055 0.3964796 -1.008182 0.0021320968 -0.0074767973
0.41676405 0.5403148 -0.31377906 -0.31292808 0.006470957 0.281507 0.5092265 -0.14879778
0.25904688 0.9003816 0.26798224 0.16642246 0.7398945 -0.82828283 -0.0838984 -0.26274174
-0.33386216 0.4177356 0.15034792 0.019796051 0.42605615 0.16594858 0.25169674 0.5943642
0.15183118 -0.15233772 0.12769218 -0.4850166 -0.40050372 -0.35699993 0.17690785 -0.30625412
-0.19145158 -0.41546157 0.42125344 -0.2591161 -0.44362295 -0.48902535 0.3441859 -0.39148393
0.46753073 0.3841992 -0.19013862 0.79923826 0.30117592 0.23504876 0.22720402 -0.1759108
0.38211116 -0.26583883 0.41362488 -0.4895936 0.9265441 -0.08374157 0.18916637 0.2923661
-0.24453916 -0.1260016 -0.3099367 -0.26610622 0.1651609 -0.19214353 0.6311482 0.04185875
0.08678771 -0.13359833 1.0416447 0.27356657 0.069028124 -0.012311081 -0.11888742 -0.3746784
0.20302808 -0.20822419 0.13323472 0.20031787 0.9312741 0.5896524 -0.33501583 -0.5257068
-0.65491664 -0.69205767 0.08320247 0.3411793 -0.61691123 -0.46588328 -0.34774357 -0.58719563
-0.7756802 0.09761694 -0.69645286 -0.51578647 0.10113617 0.14219067 -0.31743684 -0.21860278
0.024168417 0.46801466 -0.32432207 -0.21780135 0.31140947 -0.049823824 0.09728763 -0.11367128
-0.29784203 -0.14739685 -0.32602262 -0.31091076 0.45885912 -0.24389353 -0.10538361 -0.3911998
-0.071582794 -0.17280407 -0.27663708 0.25799918 -0.14088699 -0.11909299 0.2056561 1.2467033
0.12341573 -0.102057256 -0.32086805 -0.057407208 0.0219736 -0.34626803 0.12338598 -0.39047495
-0.0906925 -0.32579875 0.6080748 0.063273765 -0.44456297 -0.6135674 -0.45044246 0.14735168

bias f4 [64]
00000000: e154 4bbf e05a 41bf 86cd 3a3f cd42 003f
00000010: e5c1 f13e 9674 b2bf ec5d 9fbf 2744 5bbe
00000020: 9d3a 43bf 098e 3cbf f503 d53e e2d8 cf3e
00000030: ed3d 7fbf b273 6ebe be3a 66bf 74f5 4ebf
00000040: 8144 eabc c174 98bf e10a 18be e4c5 dfbe
00000050: 0b50 febe c2b5 02bf c5b6 b9bf 884a 92bf
00000060: 8e41 a63d ea48 4dbf 8a3e 54bf 3c39 07bf
00000070: 8965 cbbe df03 8dbf 515c 07be ca65 893e
00000080: 4718 083e a097 a23e 8fba b2be 41d9 4dbf
00000090: 96ca b53e 46e4 8bbf efa0 3cbf 9182 a0bf
000000a0: fa56 ccbe fbd4 84bf de1c 213f 2932 42bf
000000b0: 2130 e9be 828e f9be 6b4d 01c0 5830 d5bf
000000c0: 714d d7bf 7bed 02bf f10d 95bf eb89 4ebf
000000d0: 6546 2ebf 3117 0d3f 8cce 9cbf c5a4 84bf
000000e0: a300 0cbf 521d 8dbe eaf6 16bf 540a 56bf
000000f0: 3cd6 e7bf 9c33 9abe 29ef a6be 2f08 213f
-0.7942639 -0.7552929 0.72969854 0.5010193 0.47218242 -1.3941829 -1.2450538 -0.21412717
-0.7626131 -0.7365423 0.4160458 0.40595156 -0.99703866 -0.23286322 -0.89933383 -0.8084328
-0.028597118 -1.191063 -0.148479 -0.43705666 -0.49670443 -0.5105859 -1.4508902 -1.1428995
0.08117972 -0.80189383 -0.8290793 -0.5282171 -0.39725903 -1.1016806 -0.1321881 0.2683547
0.13290511 0.31756306 -0.34907958 -0.8040963 0.35506123 -1.0929039 -0.73683065 -1.2539846
-0.39910108 -1.0377496 0.6293467 -0.7585779 -0.45544532 -0.48741537 -2.0203502 -1.6655378
-1.6820508 -0.51143616 -1.164488 -0.80679196 -0.68076164 0.5511351 -1.2250533 -1.0362784
-0.5468847 -0.27561432 -0.5897051 -0.8360951 -1.8112254 -0.301175 -0.3260434 0.6290311

weight f4 [32, 64]
00000000: 9482 a93e 9cd1 30bd 623a 01be 150a b6bd
00000010: 3edb 8cbe e957 073f 6813 ca3d 1a5e 10be
00000020: af52 bb3d b2ef b3be 2f53 ecbe 5d12 43bf
00000030: bc7b 9d3e 2cc3 d6be 69c5 c1be e214 29bd
00000040: 57e0 f4be 57d2 31bd 4e3d 24be b9fa 95bd
00000050: 4098 633b d1d7 85be 66fd b2bd 835b 253e
00000060: 17ba 153e c59f 8b3e 93d2 873f 1add 9abc
00000070: 56d6 3e3e d50c c1be c131 1a3d ad8a 15bf
00000080: 621c adbe f91e acbe e105 c4be 8ba6 a93e
00000090: 0a22 95be 7fa4 0c3f feec 963f d239 a83e
000000a0: 5366 8cbe 6130 bfbe 19b2 c7be f823 113f
000000b0: e786 81be 31bc c8bd e77b 243f 7ca5 473e
000000c0: b85f 00bd b387 583e 8977 cd3f 3893 22be
000000d0: a8e3 40be c444 b6be 6c7a 1abd e02f 8a3f
000000e0: 31b4 abbd 03a9 15bf 2c47 5e3e 3613 30bc
000000f0: 73c9 233e 6c5c 253d d5f1 1fbe e99a 9fbd
00000100: 4708 443c ea04 5ebe 4cfb e3be a0f5 f2be
00000110: c4fc e1be 68c6 703e 6335 57bc ae4f afbe
00000120: f032 4dbf e94c f73e 5234 8fbe 6d60 c23e
00000130: 9d37 abbe ac84 c2bc 2b16 073d c740 813e
00000140: e08e 7cbe f301 93be 13a5 c6bd 213d 06bf
00000150: 0a67 10bf ce38 2abf 9241 bd3e ec7d 953e
00000160: 4dd8 52bf 020c 003f 7f3e 693f cdea d1be
00000170: c8e7 ecbe f6b5 8d3d 04bf 8bbe 87c9 25bf
00000180: 561d b9bd bd25 96be 57a4 79be 5fc5 e8bc
00000190: dec1 80be f943 023f 8e1e ab3f c9b7 123c
000001a0: 278f 08bf 48b4 ef3e 4a4e 97be 2f49 8b3e
000001b0: 4ae6 4e3e fddc 8a3f 3fe5 82bc 1a89 b13f
000001c0: 189f 4fbd 5fb7 b73d cb50 383f e284 ab3d
000001d0: d983 dc3c 8b18 83be d68f 6a3e f130 f63e
000001e0: 8a6e d6bd 0429 503e de27 b0be 9819 a83e
000001f0: 862f 3e3b 1059 e33e f29f 003c 78e5 17bf
00000200: c17f 0e3f 9557 87bc f9f1 e2bb 205c 6abf
00000210: b4ab 03bf 9d10 3c3f c055 953d f7e6 a53a
00000220: 985b be3d 6670 d2bc 17ef c3be a097 6bbe
00000230: 8bbf 643e 9037 65be 09fa 3e3e 1f04 81be
00000240: 98eb bbbe cf1e 8fbd 7737 0fbf e61d 433f
00000250: 677b a7be 5b0c 5b3e fba3 473e 0d85 403e
00000260: ce15 19bf 8d97 a23e 89ce 2a3f d031 69be
00000270: c1d2 03bf ca6e 4a3f d568 c4be 6b78 09be
00000280: e825 afbd e2a6 d5be 86a5 39bf e3dc f4bd
00000290: 5d38 f0be e810 f2bd 2ef1 153f 0e9e c23d
000002a0: 8adb 2fbf 52ca 883c 4b32 dcbe f710 11be
000002b0: 8eda 253e 576e 55bd 71fe ca3d 58cf c83e
000002c0: fefb eb3e d3be 623c 1f19 833f daf9 8fbc
000002d0: fc4b 27be ee7c 85bd 9d06 89bd f30c 383f
000002e0: 876c 1ebf 9193 8ebe d2c7 ba3d 2b09 c63e
000002f0: 76ad 723d d070 163c f20d 8f3e 82f2 05be
00000300: 4625 be3e 5c4b 3fbe 2103 9ebe 9e06 b1be
00000310: bf3a b2bd a38c bebe ea84 543e e39b bcbe
00000320: 23e6 aabd b86b 6c3f 4701 79be abb3 9dbe
00000330: 93c0 273e 349c a0be 7861 96be 50de 283d
00000340: 4f5d 01be 7aa8 3abf 941f 0abe 2cf6 f2be
00000350: 0efd b1bd dfc0 99be d75d 373e 4ffd 40be
00000360: 5989 22bd 7b83 fbbb d288 713e 0c1e c8bd
00000370: 16f6 97be 7d0b 0ebe 434c b3be 3153 84bc
00000380: d504 17bc 11d4 fabe 9e67 ddbe 55ed 3a3e
00000390: 778a f5bd fc7e 5bbe 3aba cf3f 4f6f a5be
000003a0: 570a 7abc 0c1b bfbe b391 77be 6e1f 9ebd
000003b0: 44fc 04bd c84e ccbd 0365 b3bd 3c9d 423f
000003c0: 443b c03e ba1d 473e d8ba 973f 46dc a03d
000003d0: 5800 8abe be33 ecbe 9673 aa3d f63b 6f3f
000003e0: b903 bfbd baee 23be 559d 10be 4718 a23e
000003f0: a5de d6be be0e 873e 23f0 dd3d ea67 2abe
0.33107436 -0.04316865 -0.12619928 -0.08888642 -0.2751102 0.52868515 0.09866983 -0.14098397
0.0914663 -0.3514381 -0.46157214 -0.76199895 0.30758464 -0.4194578 -0.37845924 -0.04127968
-0.47827408 -0.043413486 -0.16039011 -0.07323212 0.00347282 -0.26141217 -0.08739738 0.1614819
0.14621769 0.27270332 1.0611137 -0.018904258 0.1863645 -0.37705103 0.037645105 -0.5841473
-0.33810717 -0.3361738 -0.38285735 0.33134875 -0.29127532 0.549385 1.1791074 0.32856613
-0.27421817 -0.37341598 -0.39003065 0.5669551 -0.25298235 -0.0980152 0.6425156 0.19496721
-0.031341285 0.21145515 1.6052104 -0.15876472 -0.18836844 -0.3559934 -0.037714407 1.079586
-0.08383978 -0.58461016 0.21706837 -0.010746768 0.15994816 0.040371343 -0.15619595 -0.07793219
0.011964864 -0.21681562 -0.44527662 -0.47453022 -0.44138157 0.23513186 -0.013135287 -0.34240478
-0.8015585 0.48300865 -0.27969605 0.37964192 -0.33440867 -0.023744904 0.032980125 0.25244734
-0.24663877 -0.28712425 -0.09699454 -0.52437025 -0.56407225 -0.6649293 0.3696409 0.29197633
-0.823613 0.5001832 0.91110986 -0.4099945 -0.46270585 0.06919472 -0.2729417 -0.6476063
-0.090387985 -0.29325667 -0.24379097 -0.028414426 -0.2514791 0.5088497 1.33687 0.008954951
-0.53343433 0.4681723 -0.29551917 0.27204272 0.20205036 1.084869 -0.015978454 1.3869965
-0.050688833 0.08970522 0.7199828 0.08374955 0.026918339 -0.25604662 0.22906432 0.48084214
-0.104703024 0.20328146 -0.34405416 0.32832026 0.0029020025 0.44403887 0.007850634 -0.59334517
0.55663687 -0.016521255 -0.006925818 -0.9154682 -0.51433873 0.7346285 0.07291746 0.0012657334
0.09294814 -0.025688361 -0.3826835 -0.23007059 0.22338693 -0.22384477 0.18650068 -0.25198457
-0.3670318 -0.06988298 -0.5594401 0.76217496 -0.32711336 0.21391432 0.19496147 0.18800755
-0.59798896 0.3175625 0.667214 -0.22772908 -0.5149346 0.790753 -0.3836123 -0.13424842
-0.08552152 -0.41728884 -0.72518194 -0.11956193 -0.46918002 -0.11819631 0.58571136 0.09502803
-0.68694365 0.016698036 -0.4300712 -0.14166628 0.16196653 -0.05210718 0.09911812 0.3922069
0.46090692 0.013839441 1.0242041 -0.017575193 -0.1633758 -0.06517969 -0.066907145 0.7189476
-0.6188435 -0.2784696 0.09120144 0.3867887 0.059247456 0.00918217 0.27940327 -0.1308079
0.37137812 -0.18681091 -0.30861762 -0.3457536 -0.08702611 -0.37216672 0.20753828 -0.36837682
-0.08344676 0.92351866 -0.24316894 -0.30801138 0.16382055 -0.31369174 -0.29371238 0.04122764
-0.1263325 -0.72913325 -0.13488609 -0.4745344 -0.086908445 -0.3002996 0.17906891 -0.1884663
-0.039681766 -0.007675586 0.23587349 -0.09771356 -0.29679936 -0.1387157 -0.3501912 -0.01615295
-0.009217461 -0.4898992 -0.43243116 0.18254597 -0.11989301 -0.2143516 1.6228707 -0.32311484
-0.015261254 -0.37325323 -0.24176674 -0.077208385 -0.03246714 -0.09975964 -0.08759501 0.7602117
0.37545216 0.19444934 1.1853895 0.07854514 -0.26953387 -0.46133226 0.083228275 0.9345087
-0.09326882 -0.16009036 -0.14122517 0.31659147 -0.4196674 0.26378435 0.10836818 -0.16641203

bias f4 [32]
00000000: 49e5 8cbf 99a5 a8bf 6bac 89bf a38e dbbc
00000010: 719a 83bf e73a 8dbf e486 c4bf e740 38bf
00000020: d88e 81bf 0a32 57bf 3ca8 b6bf cced 1dbf
00000030: d06c 59bf b01c 80bf cd1a adbf f81e 8abf
00000040: 3534 62bf ca96 1dbf f2fc 9abf bcf0 60bf
00000050: 0115 44bf 3574 91bf b645 31bf b9ea 9abf
00000060: b7ca 95bf ef32 43bf e5b3 1cbf 2eac 77bf
00000070: b3da 97bf dc4f 97bf 5c64 28bf 373c 36bf
-1.1007472 -1.3175536 -1.0755743 -0.026801413 -1.0281507 -1.10336 -1.5353665 -0.71974033
-1.0121717 -0.8406073 -1.4270091 -0.61690974 -0.8493166 -1.0008755 -1.3523804 -1.0790701
-0.8836091 -0.6155821 -1.2108443 -0.8786733 -0.7659455 -1.1363589 -0.69246995 -1.2102882
-1.1702489 -0.76249593 -0.61212 -0.967471 -1.1863617 -1.1821246 -0.65778136 -0.7118563

weight f4 [1, 32]
00000000: 8f39 a53c 3aa3 39bb 02b9 843c 8a32 033d
00000010: 6625 8a3c 3bfa 003d df6d 993c d99d 683b
00000020: cb18 143d 6d76 873b 0559 513d 948a af3a
00000030: 5462 023d 3ec9 1d3d 2f72 dc3c ca6b 0b3c
00000040: 5d0b 6f3d 18b0 0a3d 7f78 453c 67a0 ee3c
00000050: 76ff c73c 8d19 873c d961 c43c 811e a33c
00000060: c2c0 273d 0b90 8f3c 776c 4b3d 3100 c53c
00000070: f229 d53c 2b9a 1e3d a794 c13c 7777 af3c
0.020169048 -0.002832605 0.0162015 0.03203062 0.016863536 0.03148864 0.018729148 0.0035494475
0.036156457 0.0041339905 0.051110286 0.001339274 0.031832054 0.038521998 0.026909916 0.008509586
0.058360446 0.033859342 0.012052654 0.02912922 0.024413805 0.016491676 0.023972439 0.019912006
0.040955313 0.01752474 0.049663987 0.024047943 0.026020978 0.038721245 0.023630453 0.02141927
