Models/TrainedModels/FCNNs/FCNN1.pt (torch, 19857 bytes, 13 tensors)

fc1.weight f4 [64, 22]
-0.7444111 -0.5368208 -0.30449134 -0.93847245 -0.18779749 -1.0972539 -0.29780608 -0.593636
0.038135253 -0.18966444 0.12160767 -0.28842527 0.76835984 0.18127418 -0.23893505 -0.41643092
-0.06792386 0.2315707 0.25320554 -0.16386224 -0.6174991 1.1659149 -0.21525714 -0.4183843
-0.43043116 -0.119723506 0.005007937 0.6295549 0.62199324 -0.32437915 -0.12917112 -0.25489512
-0.31573063 0.21261851 -0.057580102 -0.87941164 0.30822435 0.012110494 -0.52535444 0.52862054
-0.0077370103 -0.20942676 -0.3042277 -0.29149067 -0.08607107 0.27808115 -0.62412965 0.010320481
-0.10060438 0.19209862 -0.05112918 -0.39933288 -0.604328 0.03885123 0.079740494 0.947376
0.5298704 -0.8022289 0.055112157 0.27642006 -0.39470184 0.5649547 0.3680197 0.27639663
0.51128495 -0.17177267 -0.06386866 -0.027060661 0.2746271 0.11982741 -0.09838841 -0.39010474
-0.20751989 -0.10340777 0.31178838 -0.059794705 0.18623489 0.018700909 0.4215844 1.0591161
-0.12062184 0.618973 -0.18333374 -0.4341218 0.5107825 -0.23188831 0.96370393 0.50825566
-0.093592785 -0.56095415 -0.32876825 -0.0949172 -0.22830424 -0.025069004 0.54188186 0.20379195
-0.076396175 0.43661034 -0.048909985 -0.2902476 -0.11931982 0.23148097 0.09845335 -0.21871156
0.17756906 0.15887983 0.41611063 -0.22388574 -0.033336986 -0.25838837 -1.1232911 -0.45565856
-0.79089004 -1.0740707 -0.21615928 -0.12677665 -1.2989607 0.51387715 -0.11800549 0.1823036
0.3114321 -0.4911893 0.5496129 0.053438585 0.038451135 -0.42326906 -0.4159817 0.43516693
-0.15568785 -0.39764568 0.023776311 0.16901204 -0.17562762 -0.40252855 -0.44515705 0.107888184
0.14789347 0.6802401 0.30663624 -0.6007513 -0.43025565 -0.2738981 -0.015631644 -0.03908646
-0.31791297 0.4374058 -0.41422716 0.08266733 -0.3133685 0.2448405 -0.48932034 -0.03187769
-0.09971111 0.2673255 0.65500766 -0.15148087 0.0071221874 0.31470743 -0.27816924 0.1210333
0.23834187 -0.091747776 -0.48989207 0.03410433 -0.26658282 0.15073374 0.117593035 -0.86556286
0.3010949 -0.39171624 -0.05482055 -0.38594353 0.67614245 0.088141754 0.047363095 -0.6207262
-0.47922263 0.07180911 0.49573767 0.47943684 0.40275285 -0.06176105 0.08568772 0.6097257
0.45181668 -0.17318119 0.5025819 -0.23402615 -0.20554176 -0.22421673 -0.2955362 -0.1524463
0.8154032 -0.16130878 -0.04073342 -0.16785222 -0.08765022 -0.7022534 -0.34287578 -0.20472747
-0.24645999 -0.135603 -0.10463114 -0.13026148 -0.080807336 -0.19755594 -0.15892442 -0.50358945
-0.1706581 0.9218586 -0.3385957 -0.96975446 -0.2766387 0.48776624 -0.33901784 0.54105693
0.29726806 -0.85057604 0.265143 0.7323837 -1.0378492 -0.6542868 0.041845772 -0.17963348
0.18094248 -0.40030906 -0.46014237 -0.005319874 0.17850292 -0.6320131 -0.060815196 0.24542142
0.030852001 -0.58722913 0.009629861 0.07726843 -0.43207934 0.64632916 0.15578976 -0.5934331
0.56474817 0.59650403 0.5521469 -0.026143475 -0.56978226 -0.56250614 -0.4679758 0.31030223
0.5297829 0.4365192 -0.1619978 -0.064393945 -0.51707834 0.08076448 -0.068225764 -0.63782644
00000000: ba91 3ebf 176d 09bf 4ae6 9bbe bb3f 70bf
00000010: fc4d 40be d172 8cbf 0a7a 98be 87f8 17bf
00000020: b633 1c3d 6537 42be 710d f93d 7aac 93be
00000030: 3bb3 443f f09f 393e 64ab 74be 6f36 d5be
00000040: aa1b 8bbd df20 6d3e 28a4 813e 81cb 27be
00000050: 6c14 1ebf b33c 953f 5e6c 5cbe 7836 d6be
00000060: 7961 dcbe 9931 f5bd 9f19 a43b 832a 213f
00000070: f33a 1f3f 0615 a6be 6f45 04be 9d81 82be
00000080: 72a7 a1be abb8 593e 1dd9 6bbd 1f21 61bf
00000090: 95cf 9d3e 186b 463c a17d 06bf ad53 073f
000000a0: bf86 fdbb f873 56be bcc3 9bbe 443e 95be
000000b0: 0746 b0bd a760 8e3e f6c6 1fbf 3c17 293c
000000c0: ab09 cebd 80b5 443e d56c 51bd 5c75 ccbe
000000d0: 3db5 1abf 7822 1f3d fc4e a33d 3c87 723f
000000e0: 96a5 073f e05e 4dbf 49bd 613d ee86 8d3e
000000f0: 5c16 cabe dfa0 103f 146d bc3e dc83 8d3e
00000100: 92e3 023f 2de5 2fbe 92cd 82bd 52ae ddbc
00000110: ec9b 8c3e 1368 f53d dd7f c9bd cfbb c7be
00000120: 1880 54be 74c7 d3bd baa2 9f3e 4beb 74bd
00000130: 5cb4 3e3e a632 993c e9d9 d73e 1e91 873f
00000140: 9508 f7bd 0475 1e3f d7bb 3bbe 3645 debe
00000150: a4c2 023f 2174 6dbe 4db5 763f 0b1d 023f
00000160: 93ad bfbd b19a 0fbf 5054 a8be f363 c2bd
00000170: 96c8 69be 835d cdbc c5b8 0a3f d6ae 503e
00000180: 9975 9cbd 648b df3e d655 48bd 559b 94be
00000190: f35d f4bd 5909 6d3e e9a1 c93d ecf5 5fbe
000001a0: aad4 353e 65b1 223e 740c d53e 4e42 65be
000001b0: 5d8c 08bd 7b4b 84be 01c8 8fbf 144c e9be
000001c0: c577 4abf 267b 89bf dc58 5dbe bdd1 01be
000001d0: 5844 a6bf 748d 033f ddac f1bd cbad 3a3e
000001e0: 0774 9f3e 2a7d fbbe 6eb3 0c3f 6be2 5a3d
000001f0: f07e 1d3d b9b6 d8be 8efb d4be 33ce de3e
00000200: a36c 1fbe 3798 cbbe 8ac6 c23c 7e11 2d3e
00000210: bad7 33be 3918 cebe a0eb e3be 7bf4 dc3d
00000220: 6371 173e 3724 2e3f 6dff 9c3e d6ca 19bf
00000230: 784a dcbe 5f3c 8cbe ef0d 80bc 2019 20bd
00000240: 7dc5 a2be a7f3 df3e 9515 d4be 7d4d a93d
00000250: d671 a0be 78b7 7a3e 3288 fabe 2e92 02bd
00000260: 5735 ccbd e3de 883e 95ae 273f cd1d 1bbe
00000270: 3d61 e93b 5521 a13e 336c 8ebe 4fe0 f73d
00000280: e40f 743e 42e6 bbbd 22d3 fabe fbb0 0b3d
00000290: 8b7d 88be f259 1a3e 9ed4 f03d 8795 5dbf
000002a0: 1c29 9a3e 088f c8be 838b 60bd 649a c5be
000002b0: ac17 2d3f aa83 b43d ceff 413d eae7 1ebf
000002c0: ab5c f5be a810 933d 54d1 fd3e bf78 f53e
000002d0: 9f35 ce3e 28f9 7cbd 0b7d af3d fc16 1c3f
000002e0: 8454 e73e 6956 31be 35a9 003f 8da4 6fbe
000002f0: 8a79 52be 1299 65be 8550 97be e21a 1cbe
00000300: 44be 503f 212e 25be 16d8 26bd 74e1 2bbe
00000310: f581 b3bd e1c6 33bf 6a8d afbe 14a4 51be
00000320: 0260 7cbe 83db 0abe da48 d6bd 4463 05be
00000330: 517e a5bd 1b4c 4abe 15bd 22be 3deb 00bf
00000340: ffc0 2ebe edfe 6b3f 6a5c adbe d441 78bf
00000350: 96a3 8dbe 7fbc f93e bf93 adbe b582 0a3f
00000360: 8533 983e 5abf 59bf d3c0 873e 807d 3b3f
00000370: 3ed8 84bf 577f 27bf 7966 2b3d d7f1 37be
00000380: fc48 393e 4ff5 ccbe c897 ebbe 5652 aebb
00000390: 78c9 363e 9ccb 21bf 5b19 79bd c14f 7b3e
000003a0: 56bd fc3c a654 16bf 91c6 1d3c e93e 9e3d
000003b0: 8139 ddbe d475 253f 5a87 1f3e 3beb 17bf
000003c0: 5693 103f 7db4 183f 8059 0d3f d72a d6bc
000003d0: 40dd 11bf 6700 10bf 869a efbe efdf 9e3e
000003e0: da9f 073f 727f df3e c0e2 25be f9e0 83bd
000003f0: 3f5f 04bf d967 a53d f3b9 8bbd 9848 23bf

fc1.bias f4 [64]
-0.24953717 -0.6945037 0.020739943 -1.0438551 -0.18730223 -0.32036856 -0.31860015 -1.4834265
0.05038883 0.15782599 0.33474708 -0.16081804 -0.46091127 0.5253019 -0.67452157 -0.65039605
-0.9221738 -0.58788586 -0.043752614 -0.15683497 -0.34137282 -0.08886417 -1.1579504 0.42213765
-0.092713684 -0.26324195 -0.11808032 0.07582682 -0.3576072 -0.81772476 -0.92522776 -0.35496098
0.0010994748 0.46496361 -0.56470275 0.590835 0.008099784 -0.21680318 -0.6171261 0.11044118
-0.044841237 -0.9415174 -0.40587193 -0.35857207 0.06376099 0.16901721 0.497484 -0.028321337
-0.2987709 -0.43906438 -0.11196734 -0.018551532 -0.7412012 -0.040517204 0.32540753 -0.3285702
0.09492817 0.08082376 -0.19858024 -0.29450598 -0.48959693 -0.373804 -0.6427834 -0.023834826
00000000: ac86 7fbe ffca 31bf d0e6 a93c 0b9d 85bf
00000010: 28cc 3fbe 5907 a4be 8f1f a3be ebe0 bdbf
00000020: 8564 4e3d 239d 213e f863 ab3e 7cad 24be
00000030: 90fc ebbe 2f7a 063f 72ad 2cbf 5b80 26bf
00000040: 9513 6cbf b07f 16bf f135 33bd 5999 20be
00000050: 6bc8 aebe 6bfe b5bd b837 94bf 6d22 d83e
00000060: ace0 bdbd a6c7 86be 18d4 f1bd 184b 9b3d
00000070: 4a18 b7be 6956 51bf badb 6cbf 72bd b5be
00000080: 411c 903a b60f ee3e 5c90 10bf f640 173f
00000090: f5b4 043c a701 5ebe fafb 1dbf fc2e e23d
000000a0: 72ab 37bd 4907 71bf 72ce cfbe c296 b7be
000000b0: 1f95 823d d912 2d3e 39b6 fe3e 2602 e8bc
000000c0: 80f8 98be 0ccd e0be 224f e5bd 62f9 97bc
000000d0: 5dbf 3dbf 5ef5 25bd d19b a63e 5a3a a8be
000000e0: b369 c23d ed86 a53d 9e58 4bbe 7dc9 96be
000000f0: 73ac fabe 3d63 bfbe 748d 24bf 4141 c3bc

fc2.weight f4 [32, 64]
0.34842208 0.46090528 0.0117078675 -0.12533611 0.2369219 0.7001844 0.0022587953 -0.3685484
-0.1218991 -0.0812569 -0.081104875 -0.38857636 0.084911965 -0.042737707 0.019710423 0.23402442
-0.11541977 0.0701698 -0.08484155 -0.22645728 0.39826846 -0.21264517 0.091083705 0.17057833
0.08402714 0.041338023 -0.18684 -0.069876246 -0.2070429 -0.50801903 -0.3527693 -0.27673194
0.16370916 -0.09688231 -0.2412945 -0.123383604 -0.30224854 -0.103639 -0.1194757 -0.25899345
-0.10484355 -0.08303281 -0.18088202 0.022104109 0.26070204 -0.06272383 0.12573889 0.060315754
0.5141255 -0.18769526 0.28802767 -0.1768532 -0.15370853 -0.10760967 0.104811475 -0.13786642
-0.37221274 -0.025579887 -0.13914365 -0.16111068 -0.17341676 -0.06451061 -0.27720726 -0.114156395
-0.008386048 0.030457353 -0.08552876 -0.41828412 0.23580807 0.5812523 0.0036116717 -0.29156786
-0.23113155 0.038246423 -0.4981809 0.019677466 -0.16920716 0.18362482 0.679956 -0.3083454
-0.11786493 -0.08778646 0.06379749 -0.2660462 0.41154182 -0.11640653 -0.11534813 0.295809
0.2834014 0.2153575 -0.35989806 0.13722654 -0.22776051 -0.109034084 -0.31946614 -0.10237811
0.24542291 -0.5338766 -0.0018920412 -0.0968296 0.8636478 -0.5291438 -0.48624042 -0.07803295
-0.4407432 -0.018460356 -0.26165745 0.7571201 0.10943869 -0.7478626 0.5129386 -0.6243966
0.6253564 -0.5785678 0.7834533 -0.3809963 -0.2195673 -0.046811108 0.577722 -0.22322772
-0.24620323 0.24154879 -0.17685246 -0.47420025 -0.2557854 0.35480562 -0.26194644 0.39082623
0.13470615 -0.07855355 -0.20135206 -0.7959778 -0.56097203 0.30626106 -0.18150377 -0.0030523771
-0.2231289 -0.27123594 -0.11908166 0.17535535 -0.2230007 -0.2803268 0.26392916 -0.32007834
-0.21372545 0.061311744 0.8295349 -0.009268957 0.47851574 -0.13682486 -0.46996897 0.46841672
0.40782893 -0.20508982 -0.31288165 0.076074325 0.039717283 0.25800428 -0.48494294 -0.43526065
-0.36561787 -0.69808453 0.38881075 -0.33038396 0.11995048 -0.3907791 -0.39791924 -0.36934122
-0.7397705 -0.26080477 0.13871494 0.32857773 0.5493938 -0.51431066 0.45190865 -0.9687794
0.5808118 -0.47427174 -0.04074484 -0.8551099 -0.4796411 0.014521392 0.41869074 0.17486629
-0.41909638 0.11626542 -0.40989342 -0.40713233 -0.74547213 0.4675159 -0.5691346 0.4982876
-0.5561003 0.37706557 -0.044068936 0.17345968 0.2737482 -0.32897475 0.36686262 0.82720333
-0.16272786 0.4981825 0.1954044 0.33415273 -0.52632767 0.29159394 0.13658458 -0.34649408
-0.24518785 -0.7326773 -0.5564906 0.28993884 0.07411951 0.31348482 -0.103460655 -0.25459254
-0.5958303 -0.48451465 0.13714077 0.5930027 0.15778944 -0.6531508 0.47577423 -0.096630506
0.45625153 -0.460457 -0.13189639 0.4819543 -0.44135895 -0.11774059 0.09053432 -0.30480033
0.37449357 0.033914555 -0.06868168 -0.12779522 -0.52698416 0.37056604 -0.68289274 0.35195437
-0.48269087 -0.17973943 -0.16929188 -0.4274507 -0.4247974 0.37867633 -0.20952924 0.63051856
0.04828514 -0.19895314 -0.23837751 0.02182037 0.024185497 -0.48079115 0.05531495 0.039923158
00000000: 6164 b23e c7fb eb3e 5bd2 3f3c 1c58 00be
00000010: a89b 723e 493f 333f 4c08 143b 60b2 bcbe
00000020: 3ca6 f9bd 056a a6bd 501a a6bd 7bf3 c6be
00000030: 53e6 ad3d bc0d 2fbd c177 a13c 19a4 6f3e
00000040: 3361 ecbd 2fb5 8f3d 68c1 adbd 6be4 67be
00000050: d8e9 cb3e a8bf 59be 188a ba3d 16ac 2e3e
00000060: 6c16 ac3d 0f52 293d fc52 3fbe 471b 8fbd
00000070: 0e03 54be 890d 02bf 2d9e b4be cfaf 8dbe
00000080: 60a3 273e 3c6a c6bd e815 77be 8bb0 fcbd
00000090: 52c0 9abe af40 d4bd adaf f4bd ca9a 84be
000000a0: 37b8 d6bd 1b0d aabd 2339 39be ad13 b53c
000000b0: bd7a 853e 5a75 80bd b2c1 003e a70d 773d
000000c0: bb9d 033f 3033 40be 5d78 933e 0119 35be
000000d0: c565 1dbe 7562 dcbd 66a7 d63d db2c 0dbe
000000e0: ab92 bebe e98c d1bc ac7b 0ebe 33fa 24be
000000f0: 2a94 31be 241e 84bd 1cee 8dbe d4ca e9bd
00000100: a265 09bc b381 f93c b429 afbd 5629 d6be
00000110: ac77 713e f3cc 143f ccb1 6c3b 6248 95be
00000120: c0ad 6cbe 48a8 1c3d 9111 ffbe a332 a13c
00000130: a444 2dbe 2508 3c3e 9911 2e3f 73df 9dbe
00000140: 2b63 f1bd 63c9 b3bd 42a8 823d 3537 88be
00000150: 9cb5 d23e 8c66 eebd a43b ecbd 4774 973e
00000160: fd19 913e ad86 5c3e 8f44 b8be 1d85 0c3e
00000170: 0d3a 69be 434d dfbd 1191 a3be 9dab d1bd
00000180: 2550 7b3e 23ac 08bf 5efe f7ba 994e c6bd
00000190: 0618 5d3f f875 07bf 81f4 f8be bdcf 9fbd
000001a0: 18a9 e1be 2c3a 97bc f7f7 85be 9fd2 413f
000001b0: 6421 e03d ec73 3fbf f24f 033f 75d8 1fbf
000001c0: 5b17 203f 051d 14bf 6590 483f f211 c3be
000001d0: 40d6 60be 01bd 3fbd 97e5 133f cf95 64be
000001e0: b31c 7cbe 9158 773e d018 35be 60ca f2be
000001f0: 4ef6 82be 15a9 b53e d81d 86be 601a c83e
00000200: 69f0 093e afe0 a0bd 3c2f 4ebe 33c5 4bbf
00000210: dd9b 0fbf 40ce 9c3e 20dc 39be 640a 48bb
00000220: e77b 64be 70df 8abe 16e1 f3bd 5a90 333e
00000230: 4c5a 64be ff86 8fbe b921 873e 4fe1 a3be
00000240: d8da 5abe 0622 7b3d 665c 543f d3dc 17bc
00000250: 0400 f53e d11b 0cbe c69f f0be 51d4 ef3e
00000260: f4ce d03e 1103 52be 0632 a0be dbcc 9b3d
00000270: 97ae 223d 2319 843e 714a f8be 7cda debe
00000280: 4432 bbbe abb5 32bf 3412 c73e 1628 a9be
00000290: 99a8 f53d 3314 c8be 12bc cbbe 4b1a bdbe
000002a0: 9961 3dbf 3488 85be 4a0b 0e3e 573b a83e
000002b0: 12a5 0c3f dda9 03bf 9260 e73e ed01 78bf
000002c0: 15b0 143f bfd3 f2be 10e4 26bd 7be8 5abf
000002d0: 8593 f5be 22eb 6d3c a25e d63e 2610 333e
000002e0: cd93 d6be 911c ee3d 8ddd d1be a673 d0be
000002f0: 43d7 3ebf 3e5e ef3e ceb2 11bf 8d1f ff3e
00000300: 975c 0ebf bd0e c13e a181 34bd 6a9f 313e
00000310: b928 8c3e 616f a8be 6bd5 bb3e 99c3 533f
00000320: 22a2 26be c711 ff3e 1718 483e 1116 ab3e
00000330: 69bd 06bf cd4b 953e d4dc 0b3e ac67 b1be
00000340: 8612 7bbe bd90 3bbf 2b76 0ebf dd72 943e
00000350: f8cb 973d 1581 a03e 2ee3 d3bd f459 82be
00000360: 5688 18bf 4e12 f8be a16e 0c3e 06cf 173f
00000370: 8e93 213e e434 27bf ae98 f33e 37e6 c5bd
00000380: cd99 e93e 05c1 ebbe d90f 07be b7c2 f63e
00000390: cdf9 e1be fa21 f1bd 0f6a b93d ca0e 9cbe
000003a0: 9fbd bf3e fde9 0a3d fba8 8cbd c0dc 02be
000003b0: 6fe8 06bf d5ba bd3e 0fd2 2ebf 5d33 b43e
000003c0: 4223 f7be 9d0d 38be da5a 2dbe d1da dabe
000003d0: 0b7f d9be dde1 c13e d58e 56be aa69 213f
000003e0: a4c6 453d 5fba 4bbe 3c19 74be a2c0 b23c
000003f0: aa20 c63c 422a f6be ee91 623d 7786 233d

fc2.bias f4 [32]
-0.016686771 -0.13669574 0.8775631 0.55597323 0.20030628 1.2870824 0.21161506 0.16126153
1.0416163 0.13818672 0.39477858 0.7466805 -0.46402112 -0.23358485 0.29476166 0.4909167
0.8570015 0.6313869 0.3498138 0.7735928 0.5268916 0.16723557 0.16931574 0.624456
-0.118042715 0.1544947 0.22531322 0.15420224 0.59227693 0.38174865 0.6595884 -0.07927456
00000000: b2b2 88bc f8f9 0bbe faa7 603f 4354 0e3f
00000010: 171d 4d3e 1ebf a43f 9eb1 583e be21 253e
00000020: af53 853f d280 0d3e 6b20 ca3e 7426 3f3f
00000030: 2d94 edbe de30 6fbe 00eb 963e 6f59 fb3e
00000040: 7364 5b3f 92a2 213f cb1a b33e 2e0a 463f
00000050: 5ee2 063f cd3f 2b3e 1b61 2d3e 59dc 1f3f
00000060: 61c0 f1bd dc33 1e3e 82b8 663e 31e7 1d3e
00000070: 769f 173f 8f74 c33e c9da 283f b35a a2bd

fc3.weight f4 [1, 32]
-0.0071799513 0.100836694 0.15425004 -0.12532307 -0.11479946 0.13866058 0.1557925 -0.116573274
-0.12432639 -0.12876995 -0.1538741 -0.13982756 -0.12546764 -0.11239222 0.088864245 0.14668477
0.13033125 0.02433153 -0.13346925 0.097504094 -0.117682144 0.060378294 0.10636468 0.11358704
0.13230376 -0.07360689 -0.05890365 0.10229524 -0.13886735 0.105135046 0.1424437 0.09035663
00000000: cc45 ebbb 7883 ce3d b9f3 1d3e b154 00be
00000010: fb1b ebbd 0afd 0d3e 1288 1f3e f8bd eebd
00000020: d69e febd 45dc 03be 2c91 1dbe f52e 0fbe
00000030: 977a 00be e42d e6bd 75fe b53d 8834 163e
00000040: 8e75 053e eb52 c73c 2aac 08be 3ab0 c73d
00000050: 5603 f1bd 3b4f 773d bad5 d93d 52a0 e83d
00000060: a37a 073e 36bf 96bd f444 71bd 2b80 d13d
00000070: 3e33 0ebe 0b51 d73d c3dc 113e e60c b93d

bn1.weight f4 [64]
1.3707906 1.1099482 1.2481806 1.5946281 0.68875974 1.3503776 0.9230548 1.2387383
1.1943685 1.0244967 0.9811914 1.2284372 0.8822374 1.1244817 1.4286045 1.3876603
1.3465368 1.49652 1.419602 0.839017 1.0389746 0.60602325 1.4318931 1.2389629
1.173356 1.5360475 1.1104312 1.3027517 1.08257 1.2477233 1.158905 1.346583
1.0878061 1.6602919 1.5085961 0.99797875 1.3761336 0.73644525 1.391953 0.7600745
1.3903581 0.7940895 0.9783868 1.2261536 1.0472573 1.1990457 1.1694571 1.4350939
1.5128443 1.325695 0.9909758 1.1964031 1.1593531 1.3123482 1.3279613 0.84741664
0.85659343 0.6036468 1.0024254 1.2312328 1.2339199 1.4113024 1.4232802 0.93557113
00000000: 1176 af3f c812 8e3f 62c4 9f3f c61c cc3f
00000010: 8f52 303f 2cd9 ac3f 524d 6c3f fa8e 9e3f
00000020: 11e1 983f b522 833f 5c2f 7b3f 6e3d 9d3f
00000030: 4fda 613f 04ef 8f3f 83dc b63f da9e b13f
00000040: 515b ac3f f88d bf3f 85b5 b53f d1c9 563f
00000050: 1ffd 843f 5724 1b3f 4648 b73f 5696 9e3f
00000060: 8830 963f 349d c43f 9c22 8e3f 91c0 a63f
00000070: a791 8a3f 66b5 9f3f 0057 943f d55c ac3f
00000080: 3b3d 8b3f 7284 d43f ad19 c13f 897b 7f3f
00000090: 2525 b03f ad87 3c3f 842b b23f 3e94 423f
000000a0: 41f7 b13f 7349 4b3f 8f77 7a3f 9af2 9c3f
000000b0: 870c 863f 547a 993f c5b0 953f 28b1 b73f
000000c0: e2a4 c13f 60b0 a93f 97b0 7d3f bd23 993f
000000d0: af65 943f 07fb a73f a3fa a93f 4cf0 583f
000000e0: b549 5b3f 9988 1a3f 7a4f 803f 0999 9d3f
000000f0: 16f1 9d3f 8fa5 b43f 0c2e b63f 9781 6f3f

bn1.bias f4 [64]
-0.21356238 -0.15385722 -0.23163112 -0.15198216 -0.17538203 0.1901693 0.3105647 -0.031627905
0.22533688 -0.31027308 0.15134001 -0.022203915 0.21784644 0.205127 0.013837655 0.13530062
-0.12857567 0.13265099 0.098070085 0.09239167 -0.015187841 -0.42643785 -0.10933457 0.3238041
-0.18790144 -0.2128858 0.40533492 -0.40743527 -0.1448777 0.39860228 0.33018833 -0.21437532
0.11476956 -0.607094 0.23047854 -0.052487683 0.108791865 0.07952536 -0.32031605 -0.5295961
0.37683958 0.12406001 -0.03691184 0.05120291 0.059759848 -0.34128854 -0.5389722 -0.1512928
-0.13094534 0.12605642 -0.20055786 -0.25618488 -0.78916764 -0.07394816 -0.1863482 -0.29747272
-0.68179417 0.33832076 -0.20810138 -0.38697755 -0.24454328 -0.43116796 -0.023361739 0.06599632
00000000: 19b0 5abe bf8c 1dbe b530 6dbe 36a1 1bbe
00000010: 5997 33be bebb 423e 5602 9f3e 438c 01bd
00000020: b6be 663e 1ddc 9ebe e0f8 1a3e fce4 b5bc
00000030: 2313 5f3e d00c 523e 55b7 623c 3f8c 0a3e
00000040: 57a9 03be a9d5 073e f8d8 c83d d837 bd3d
00000050: 6cd6 78bc 1056 dabe ceea dfbd a7c9 a53e
00000060: 3c69 40be bcfe 59be 0f88 cf3e 5b9b d0be
00000070: d25a 14be 9915 cc3e 720e a93e 3485 5bbe
00000080: 4e0c eb3d 836a 1bbf 9102 6c3e 53fd 56bd
00000090: 45ce de3d 31de a23d 7700 a4be 9c93 07bf
000000a0: 1ef1 c03e 2d13 fe3d df30 17bd 24ba 513d
000000b0: bec6 743d 5fbd aebe 15fa 09bf 80ec 1abe
000000c0: 8916 06be ef14 013e 0a5f 4dbe aa2a 83be
000000d0: e406 4abf 2272 97bd 10d2 3ebe 584e 98be
000000e0: 108a 2ebf 6138 ad3e 8718 55be ec21 c6be
000000f0: 8e69 7abe 0cc2 dcbe 1e61 bfbc 1429 873d

bn1.running_mean f4 [64]
1.8839397 0.44381285 0.7979728 0.9294262 0.35899943 1.3057848 0.67858195 -0.017513756
0.44167253 1.9144548 2.5543838 0.371678 0.9443265 0.21928455 0.16553025 1.9570869
0.28090385 0.7541048 2.1127174 0.6063264 0.47484878 0.75343144 0.48542207 1.4746442
1.10008 0.30705243 0.4867599 0.23181327 1.1099896 0.21342596 0.33514622 0.43680552
0.14588913 2.903476 0.81309366 0.48994 0.96300054 0.16939195 1.5960677 0.9961661
0.32284924 1.1425422 1.9519341 0.9016668 0.42798042 0.5568747 0.7230871 0.29725918
0.54181457 0.24397458 1.5898539 0.4259476 0.36218092 0.24456131 0.615151 0.385658
1.5452547 0.37866753 1.0624275 0.28160244 0.23730005 0.71940184 0.64901024 1.1475275
00000000: f024 f13f 703b e33e f247 4c3f e0ee 6d3f
00000010: c6ce b73e f523 a73f 8cb7 2d3f 0279 8fbc
00000020: e722 e23e db0c f53f 067b 2340 944c be3e
00000030: 62bf 713f 218c 603e c380 293e d381 fa3f
00000040: a1d2 8f3e 030d 413f c336 0740 3538 1b3f
00000050: 611f f33e e2e0 403f 3e89 f83e 24c1 bc3f
00000060: 6ccf 8c3f fa35 9d3e 9838 f93e 7560 6d3e
00000070: 2414 8e3f 568c 5a3e 4998 ab3e f9a4 df3e
00000080: f663 153e 8dd2 3940 e826 503f 6ad9 fa3e
00000090: 3487 763f 1575 2d3e f24b cc3f be04 7f3f
000000a0: 7f4c a53e d33e 923f fad8 f93f a3d3 663f
000000b0: 4020 db3e 578f 0e3f 3c1c 393f 5b32 983e
000000c0: 5cb4 0a3f 79d4 793e 5580 cb3f ce15 da3e
000000d0: c76f b93e 486e 7a3e 897a 1d3f f774 c53e
000000e0: e8ca c53f b6e0 c13e a0fd 873f 322e 903e
000000f0: c9fe 723e b82a 383f 8925 263f 2ee2 923f

bn1.running_var f4 [64]
2.4642785 0.8025597 1.6267253 1.5484077 0.37413675 3.3009462 1.0190469 0.029624706
0.7095957 3.4282994 2.2872236 0.54392946 1.3561983 0.31633762 0.22104059 2.0198898
0.40580538 1.1507713 3.7148979 1.1171788 1.1131431 0.9195954 0.8601669 2.597593
1.8926569 0.4875992 0.9488319 0.3512127 1.5142938 0.31826857 0.45677567 0.9794768
0.35487932 3.4716563 1.6827053 0.80337787 1.4220856 0.30124098 1.9487666 1.1303978
0.48694676 1.4730691 3.9680943 1.7664437 0.8173871 1.0956959 1.0451843 0.3423038
1.3629413 0.370637 2.216371 0.745076 0.41624686 0.21344656 1.1402618 0.6747681
2.0980093 0.72226745 1.416017 0.49171367 0.4529805 1.4763752 1.088779 0.9849273
00000000: bdb6 1d40 8d74 4d3f 8938 d03f 3932 c63f
00000010: da8e bf3e b442 5340 2170 823f 83af f23c
00000020: 10a8 353f 4269 5b40 df61 1240 f63e 0b3f
00000030: e897 ad3f 01f7 a13e 7758 623e e045 0140
00000040: b9c5 cf3e 794c 933f e3c0 6d40 b7ff 8e3f
00000050: 797b 8e3f 9b6a 6b3f e633 5c3f f73e 2640
00000060: 9542 f23f 9aa6 f93e a6e6 723f 27d2 b33e
00000070: 61d4 c13f 19f4 a23e 80de e93e febe 7a3f
00000080: beb2 b53e 9e2f 5e40 e362 d73f 2caa 4d3f
00000090: e706 b63f 423c 9a3e 2f71 f93f e0b0 903f
000000a0: 1651 f93e 878d bc3f 42f5 7d40 d41a e23f
000000b0: 4840 513f c33f 8c3f 99c8 853f 7242 af3e
000000c0: dc74 ae3f 22c4 bd3e 06d9 0d40 4dbd 3e3f
000000d0: 4f1e d53e bc91 5a3e 19f4 913f 9abd 2c3f
000000e0: c945 0640 85e6 383f 0c40 b53f e5c1 fb3e
000000f0: 0fed e73e ddf9 bc3f 1c5d 8b3f 3224 7c3f

bn2.weight f4 [32]
-0.008976244 0.2080625 0.25503913 0.20954329 0.18844251 0.35158753 0.327206 0.3222172
0.27753854 0.2841838 0.33015746 0.31665877 0.26038265 0.27470386 0.30301484 0.28585923
0.21763828 0.076959655 0.2818591 0.20334858 0.29089284 0.15879104 -0.19815102 0.22088048
0.23625161 -0.19853537 -0.2140836 0.27815452 0.2935142 0.30552632 0.2973916 0.1892743
00000000: 1911 13bc 560e 553e 7d94 823e 8492 563e
00000010: 13f7 403e 4803 b43e 8b87 a73e a7f9 a43e
00000020: 8819 8e3e 8a80 913e 660a a93e 1921 a23e
00000030: e050 853e fca5 8c3e c324 9b3e 245c 923e
00000040: 92dc 5e3e 069d 9d3d d64f 903e 9c3a 503e
00000050: e8ef 943e 1e9a 223e 1ae8 4abe 7e2e 623e
00000060: f1eb 713e db4c 4bbe bb38 5bbe 456a 8e3e
00000070: 7e47 963e f26d 9c3e b643 983e 1fd1 413e

bn2.bias f4 [32]
0.011308154 0.09702188 -0.01235977 -0.02621828 -0.012217091 0.028060047 -0.02546785 0.145295
0.016549295 -0.026945721 0.062084332 0.06661348 0.0680654 0.13176006 0.11591137 -0.020616233
-0.020684417 8.936991e-06 0.01935631 -0.1565551 -0.018476637 -0.03148237 -0.019122517 0.01999242
0.011549076 -0.08763348 -0.02844482 0.036089733 -0.006098891 -0.13028437 0.00626196 0.043574143
00000000: d645 393c 68b3 c63d a280 4abc b8c7 d6bc
00000010: 322a 48bc 2fde e53c f4a1 d0bc 36c8 143e
00000020: 6392 873c 46bd dcbc 244c 7e3d a66c 883d
00000030: df65 8b3d 1cec 063e f162 ed3d 60e3 a8bc
00000040: 5e72 a9bc 16f0 1537 2091 9e3c fb4f 20be
00000050: 515c 97bc a8f3 00bd d3a6 9cbc 25c7 a33c
00000060: 5638 3d3c 2f79 b3bd 1c05 e9bc d4d2 133d
00000070: 35d9 c7bb 4469 05be 2131 cd3b cd7a 323d

bn2.running_mean f4 [32]
1.7260967 3.1392832 5.3054943 3.7351353 2.777398 4.6886067 2.8581028 3.1257353
4.8124375 3.1043582 3.5672557 3.4617136 3.0032163 3.318086 2.8848326 4.2646747
3.7164512 3.4117997 4.4774737 3.4381092 3.9682922 1.9082894 2.229119 3.8393157
3.8229072 3.1181602 3.4329803 3.426335 4.5507708 3.2372544 3.3174305 2.3635502
00000000: bdf0 dc3f 04ea 4840 9cc6 a940 750c 6f40
00000010: e4c0 3140 1109 9640 28eb 3640 0c0c 4840
00000020: 7dff 9940 cead 4640 eb4d 6440 b78c 5d40
00000030: b234 4040 855b 5440 19a1 3840 3778 8840
00000040: 56da 6d40 ed5a 5a40 7747 8f40 fb09 5c40
00000050: 80f8 7d40 d442 f43f e3a9 0e40 59b7 7540
00000060: 83aa 7440 f08f 4740 f3b5 5b40 1349 5b40
00000070: ea9f 9140 2d2f 4f40 c850 5440 6844 1740

bn2.running_var f4 [32]
6.864384 23.031557 44.177807 26.13268 9.103519 26.78109 12.273165 23.93271
24.52466 16.95107 24.240026 15.202558 27.008953 25.927433 17.067793 24.487282
23.139732 23.32405 31.34458 16.439318 29.623959 6.895631 8.840932 22.5108
32.503063 16.864784 21.949177 32.97353 32.246395 25.02446 12.880092 17.35442
00000000: 09a9 db40 a140 b841 13b6 3042 bb0f d141
00000010: 04a8 1141 ac3f d641 e25e 4441 3176 bf41
00000020: 8132 c441 cb9b 8741 93eb c141 ad3d 7341
00000030: 5612 d841 626b cf41 d78a 8841 f4e5 c341
00000040: 2c1e b941 a897 ba41 b3c1 fa41 b983 8341
00000050: defd ec41 02a9 dc40 7574 0d41 1e16 b441
00000060: 2303 0242 14eb 8641 ea97 af41 e5e4 0342
00000070: 4ffc 0042 1832 c841 db14 4e41 dad5 8a41
