Models/TrainedModels/FCNNs/FCNN1.pt (torch, 21585 bytes, 13 tensors)

weight f4 [64, 22]
0.26987705 -0.49382094 0.41395563 0.07163847 -0.20333728 -0.18823859 -0.18084082 0.14389043
0.18447253 -0.113753624 -0.6289138 0.112960145 -0.9211023 -0.71910256 -0.182699 0.3571949
0.2350903 0.28106925 0.004949198 -0.4410334 0.7594331 0.5752308 -0.3305017 -0.15339185
-0.6329985 -0.13247356 -0.076440334 0.3967831 0.120413914 -0.1329034 -0.5229053 0.21660963
-0.09014455 1.1174924 0.1595389 -0.919228 -0.07389701 0.47695085 -0.6692342 -0.215821
0.5112157 -0.028605327 0.45367193 -0.020823909 -0.6185401 -0.017516783 0.21480371 -0.4700174
0.1165652 -0.46278092 -0.18915236 0.08584468 0.5625657 0.17262511 0.27972075 0.055584427
0.2064107 0.69540846 0.27696404 0.6104298 -0.6430875 0.14980109 0.17267424 -0.29367137
0.59311235 -0.26409537 -0.51791763 0.8189709 -0.51356494 -0.5278815 0.036162216 0.28736222
-0.57603043 0.23515627 0.07435829 -0.013568528 0.04424188 -0.3444031 -0.021919843 0.40183076
0.3268434 -0.1976023 0.030173019 0.5078131 0.40427604 0.08161735 0.24018358 0.50304
0.08840975 0.08943478 -0.013637522 -0.5619768 -0.03990792 -0.06155257 -0.057995167 0.21555242
0.09339473 -0.47992256 -0.4833766 0.3683007 0.13227925 -0.0977072 -1.035552 0.19493598
-0.33029178 0.31024286 0.45125026 -0.1239819 0.55302614 0.10710858 0.40950492 -0.07593997
-0.12657617 0.1998446 -0.50413024 -0.4078665 -0.058298264 -0.1204259 -0.4943269 -0.18645339
-0.07644465 0.8928564 0.0889734 -0.6422568 0.33564726 0.67471737 0.56627405 -0.1075709
0.4605675 0.44636965 -0.45704153 -0.44689915 -0.030459002 -0.6391575 0.049888853 0.22544464
-0.58219564 0.05367664 -0.112042576 -0.35322672 -0.38708997 0.3459276 -1.1891136 0.3125619
-0.70322883 -0.82781875 0.15760146 0.29713964 0.046539243 -0.16814706 0.13237086 -1.249826
0.3413837 0.36330006 0.364418 -0.022706982 0.23304413 0.08643823 0.23579378 0.10439052
-0.76564306 0.18050365 -0.09120384 0.031625442 -0.4276791 -0.054528624 0.00077949313 0.4926174
-0.095358096 -0.37368345 -0.014864917 0.098179564 0.08919361 -0.29943368 -0.26180568 0.23701046
-0.48157698 0.6232523 0.28379893 -0.5206701 -0.063269556 0.0032034111 0.7099941 0.42678738
0.4779796 0.077119775 -0.28646165 0.45069697 -0.092650294 0.5514762 0.4339021 0.26378945
-1.2085029 0.7101626 -0.17889482 -1.8797827 -0.329197 -0.4811268 0.1847641 0.25547352
-0.00945239 -0.13544928 -0.046038017 -0.16761492 -0.37125167 0.08600054 0.09421846 0.3293543
-0.071840726 0.08482561 -0.54740393 0.081500575 -0.3162979 0.15152483 0.17655279 -0.46743584
-0.44038007 -0.112887375 0.3811957 0.12251523 -0.7201773 0.6952031 0.005723629 -0.71811414
0.16547276 0.14423925 0.1255584 0.37163547 0.2874123 -0.6331109 0.06277943 -0.25639015
-0.6311508 0.68060064 0.7791454 0.49079823 0.25843936 0.12450126 -0.06349086 -0.05683252
-0.10074649 -0.041672442 -0.1581908 0.10942597 0.73484164 0.5780997 0.35600397 0.033827387
0.054861654 0.45745307 0.34635502 -0.59023374 -0.18331473 -0.24530002 0.08106123 -0.19277735
00000000: 532d 8a3e 19d6 fcbe fef1 d33e 31b7 923d
00000010: a637 50be 9ec1 40be 562e 39be 0358 133e
00000020: 5ee6 3c3e a9f7 e8bd 7f00 21bf a657 e73d
00000030: 5ccd 6bbf 1b17 38bf 7215 3bbe 40e2 b63e
00000040: 83bb 703e 4fe8 8f3e e22c a23b 21cf e1be
00000050: 356a 423f 5342 133f 8537 a9be c112 1dbe
00000060: 310c 22bf 26a7 07be c08c 9cbd 2827 cb3e
00000070: 929b f63d d417 08be 1fdd 05bf eace 5d3e
00000080: b59d b8bd fe09 8f3f 2a5e 233e 8752 6bbf
00000090: 5157 97bd e732 f43e ef52 2bbf 2e00 5dbe
000000a0: 08df 023f b855 eabc b047 e83e e796 aabc
000000b0: a558 1ebf 5b7f 8fbc 81f5 5b3e 1fa6 f0be
000000c0: bcb9 ee3d 9ff1 ecbe 28b1 41be 56cf af3d
000000d0: 4e04 103f a3c4 303e 8f37 8f3e 7fac 633d
000000e0: 545d 533e 4a06 323f 3bce 8d3e 2145 1c3f
000000f0: 62a1 24bf 7565 193e 84d1 303e 185c 96be
00000100: 36d6 173f 8237 87be 4096 04bf 14a8 513f
00000110: fe78 03bf 3e23 07bf d51e 143d 2421 933e
00000120: bb76 13bf cecc 703e 2949 983d 884e 5ebc
00000130: f936 353d 9a55 b0be 3e91 b3bc c3bc cd3e
00000140: 0558 a73e 4258 4abe 682d f73c 0a00 023f
00000150: 45fd ce3e ff26 a73d aff2 753e 3bc7 003f
00000160: 2c10 b53d 9529 b73d ea6f 5fbc b6dd 0fbf
00000170: 7d76 23bd 8c1e 7cbd 578c 6dbd c6b9 5c3e
00000180: bc45 bf3d 69b8 f5be 237d f7be e991 bc3e
00000190: 3674 073e b61a c8bd f88c 84bf 4c9d 473e
000001a0: 011c a9be 27d8 9e3e 460a e73e 39ea fdbd
000001b0: 1f93 0d3f be5b db3d a1aa d13e 6a86 9bbd
000001c0: 2f9d 01be 10a4 4c3e ae0e 01bf e1d3 d0be
000001d0: 29ca 6ebd dba1 f6bd 6a18 fdbe a3ed 3ebe
000001e0: 038f 9cbd 3d92 643f b037 b63d f16a 24bf
000001f0: f5d9 ab3e 47ba 2c3f 56f7 103f 224e dcbd
00000200: 81cf eb3e 908a e43e 5901 eabe f7cf e4be
00000210: 2885 f9bc d39f 23bf 4158 4c3d f6da 663e
00000220: c60a 15bf 09dc 5b3d 9476 e5bd 22da b4be
00000230: a830 c6be 6c1d b13e e034 98bf 1d08 a03e
00000240: ce06 34bf eeeb 53bf 4762 213e b022 983e
00000250: ef9f 3e3d be2e 2cbe 3a8c 073e 4cfa 9fbf
00000260: d8c9 ae3e 7702 ba3e ff94 ba3e fe03 babc
00000270: 1fa3 6e3e 8706 b13d ed73 713e b2ca d53d
00000280: 2f01 44bf f3d5 383e 14c9 babd ae89 013d
00000290: c1f8 dabe 6859 5fbd e656 4c3a 5938 fc3e
000002a0: 1b4b c3bd 7053 bfbe fb8b 73bc 5e12 c93d
000002b0: 24ab b63d 5f4f 99be 650b 86be dfb2 723e
000002c0: 4291 f6be 768d 1f3f 184e 913e a34a 05bf
000002d0: 7893 81bd 52f0 513b 2cc2 353f e083 da3e
000002e0: beb9 f43e f9f0 9d3d 1aab 92be c1c1 e63e
000002f0: 70bf bdbd 8b2d 0d3f 6b28 de3e 690f 873e
00000300: 39b0 9abf 37cd 353f 3430 37be b89c f0bf
00000310: 828c a8be 4056 f6be cd32 3d3e 6dcd 823e
00000320: 32de 1abc 37b3 0abe 5c92 3cbd 3fa3 2bbe
00000330: b314 bebe 0d21 b03d 9cf5 c03d 20a1 a83e
00000340: 3b21 93bd 0db9 ad3d aa22 0cbf c6e9 a63d
00000350: ccf1 a1be 5329 1b3e 41ca 343e c053 efbe
00000360: 7f79 e1be 7f31 e7bd 152c c33e 44e9 fa3d
00000370: 8a5d 38bf d5f8 313f 488d bb3b 54d6 37bf
00000380: b171 293e 74b3 133e 6292 003e 0147 be3e
00000390: b427 933e 8e13 22bf 8092 803d 9245 83be
000003a0: 1993 21bf d83b 2e3f 1376 473f e849 fb3e
000003b0: 2a52 843e 84fa fe3d 7f07 82bd 37c9 68bd
000003c0: 2d54 cebd b9b0 2abd c5fc 21be b91a e03d
000003d0: 951e 3c3f 58fe 133f 2746 b63e 968e 0a3d
000003e0: 9db6 603d 4a37 ea3e 7255 b13e 8f19 17bf
000003f0: dbb6 3bbe ee2f 7bbe 6e03 a63d 6d67 45be

bias f4 [64]
-0.6214944 -0.85036284 0.3561199 -0.7268395 -0.36507022 -0.22972849 -0.5973464 -0.12873968
-1.0738596 -0.5328175 -0.9298135 -0.15928842 -0.25303024 -0.038570426 -0.24407879 -0.6140377
-1.3834759 -0.59771496 -0.1320118 0.030149518 -0.39600778 -0.9063543 -0.55974174 -0.691114
0.114531025 -0.334807 -0.0025338023 -0.5104669 -0.32497516 -1.3215654 0.08479333 0.19195057
0.32089078 -0.36116648 -0.0009185394 -0.3959811 -1.0958235 -0.32655367 -0.71123034 0.13066263
0.7742418 -0.19712426 -0.59360796 -0.39791736 -0.16323474 0.027554875 -0.65094984 0.59906214
-0.4860542 -0.78518283 0.3756219 -0.042523023 -0.5779755 -0.3124276 -0.53243893 -0.9190161
-0.36459127 -0.21975733 0.6427286 -0.7665885 -0.6762364 0.21349639 -0.2336917 -0.9458789
00000000: 421a 1fbf 61b1 59bf 5955 b63e 2712 3abf
00000010: 7cea babe f23d 6bbe b2eb 18bf 56d4 03be
00000020: 3b74 89bf ba66 08bf 4208 6ebf 811c 23be
00000030: 2e8d 81be 06fc 1dbd caef 79be 9331 1dbf
00000040: bd15 b1bf d903 19bf 1a2e 07be 1ffc f63c
00000050: 88c1 cabe d606 68bf 3c4b 0fbf d9ec 30bf
00000060: 3e8f ea3d d36b abbe 260e 26bb f5ad 02bf
00000070: 2563 a6be 0e29 a9bf 20a8 ad3d b18e 443e
00000080: cc4b a43e d0ea b8be 23ca 70ba 09be cabe
00000090: f243 8cbf 0b32 a7be 3113 36bf 6dcc 053e
000000a0: b634 463f f1da 49be b1f6 17bf d3bb cbbe
000000b0: 0227 27be c3ba e13c a6a4 26bf 235c 193f
000000c0: 19dc f8be be01 49bf 8451 c03e 9f2c 2ebd
000000d0: 34f6 13bf 83f6 9fbe eb4d 08bf a444 6bbf
000000e0: b5ab babe 1108 61be dd89 243f 253f 44bf
000000f0: d41d 2dbf cc9e 5a3e e14c 6fbe 1f25 72bf

weight f4 [32, 64]
0.31568584 0.40779024 -0.19287498 0.048433702 0.25477695 -0.075192705 -0.0644586 0.36017972
-0.36987892 0.25980836 -0.34233046 0.16732869 0.45672134 -0.18277651 0.0396182 -0.39819008
0.5755184 0.09278887 -0.5812181 -0.28939164 0.756497 -0.09081 0.40112984 -0.030069664
-0.11150784 -0.220716 0.20162642 0.3041953 0.48543411 -0.033332292 -0.14230734 -0.027207322
-0.0075773373 0.016922062 0.2397425 0.42708 0.10958065 0.6212855 0.10043522 0.3819928
-0.41769055 -0.12664494 -0.057898425 -0.17859793 0.17613676 0.1050327 -0.28670663 0.13225597
-0.17661361 0.93673915 -0.12447991 0.37475437 0.77604485 -0.04427259 -0.09038333 0.00067674735
-0.36551216 -0.27984175 -0.34837008 -0.02586173 0.0042381263 0.3457666 0.49976152 -0.28728163
-0.23531428 0.043562833 -0.5137452 0.20618711 -0.09125868 -0.23880568 -0.44910774 0.39933524
-0.4599138 -0.35013935 0.015995072 0.13970438 0.07709158 -0.106689945 -0.8186659 -0.18717547
0.63654643 0.21108545 -0.28913248 0.081939064 1.0362877 0.15101221 0.5658037 0.73549694
0.21496542 -0.0015544095 0.19537571 -0.5430929 0.32778606 -0.12908213 -0.48375538 0.11342475
-0.44011834 -0.31272635 -0.16725333 -0.37341714 -0.04701251 0.24828397 0.07403134 -0.12537606
0.08387 -0.4402491 0.17942297 -0.13870807 -0.3894256 -0.45811406 0.009681732 0.17084898
0.013760451 0.524507 0.74425304 -0.1819695 0.51125526 0.5673305 -0.21431959 -0.071357764
-0.12581205 -0.34192455 0.45791703 -0.3251291 -0.20545667 0.024350408 0.16329563 0.07069533
0.3582123 0.2426087 -0.15766011 -0.4559952 0.21237051 0.2513554 0.079044685 0.0556546
-0.11431065 -0.27385184 -0.45086214 -0.13875702 -0.49642292 -0.4330634 0.07696486 0.123410895
-0.26811966 0.63333416 -0.18131456 0.3782932 -0.73625016 0.4595445 -0.020908523 -0.17331155
0.014256464 -0.11459045 -0.10080204 0.082635656 -0.03891429 0.26767832 0.1798117 0.3471086
-0.5559366 0.41614035 0.7597773 0.59466815 0.2595822 0.42771104 0.37043992 0.11685908
0.40601718 0.39630017 -0.0921701 0.06178231 0.81967914 0.3550058 -0.07365512 0.031023959
-0.41951907 0.074617065 -0.4109113 0.0944426 -0.3322485 0.07673627 0.26704842 0.3289895
-0.1599282 -0.52934384 -0.43117392 -0.5865249 0.40005955 -0.5363219 -0.35047877 0.30981758
-0.5859804 -0.12593667 -0.2060445 0.60858804 0.038608927 0.405425 -0.31054685 0.42596143
-0.42752692 -0.0022011094 0.07235306 -0.027307255 0.16904081 -0.08964889 0.17419931 -0.49190637
0.69757396 -0.03502116 -0.41463625 -0.31048864 -0.17078784 -0.067271285 0.122881204 -0.076985285
-0.33551544 -0.28858984 0.024191052 -0.2736949 0.46473375 0.011556219 -0.47367412 0.03788777
-0.06910917 -0.23263827 -0.0014938983 0.02138329 -0.38791695 -0.095859975 0.34891617 -0.35951307
-0.13181901 -0.028748058 -0.3954467 0.026451016 0.08586096 -0.1259245 0.64536387 0.5259181
0.3344889 -0.01866866 0.011587691 0.20492963 0.23846214 0.34406832 0.015549238 -0.55348545
0.15953536 -0.043702353 0.42623007 0.32849872 -0.2454955 -0.22369885 0.10240747 -0.082295455
00000000: 93a1 a13e e2c9 d03e 0581 45be 6b62 463d
00000010: 2072 823e a2fe 99bd df02 84bd 7a69 b83e
00000020: c560 bdbe 9a05 853e f045 afbe 3658 2b3e
00000030: 61d7 e93e c429 3bbe b246 223d 92df cbbe
00000040: 2d55 133f 1708 be3d b6ca 14bf 242b 94be
00000050: caa9 413f 98fa b9bd e460 cd3e a854 f6bc
00000060: 395e e4bd 6003 62be 2877 4e3e 7dbf 9b3e
00000070: d28a f83e 7187 08bd 04b9 11be e4e1 debc
00000080: 504b f8bb 23a0 8a3c 0f7f 753e 3baa da3e
00000090: d26b e03d 910c 1f3f fbb0 cd3d 8f94 c33e
000000a0: 89db d5be 36af 01be e626 6dbd 60e2 36be
000000b0: 325d 343e 621b d73d 36cb 92be 1c6e 073e
000000c0: 33da 34be 23ce 6f3f 53ef febd cedf bf3e
000000d0: e0aa 463f 2d57 35bd e51a b9bd bf67 313a
000000e0: 6924 bbbe 6b47 8fbe 905d b2be fbdb d3bc
000000f0: fbdf 8a3b 5208 b13e bee0 ff3e 9416 93be
00000100: 3af6 70be f16e 323d ce84 03bf b722 533e
00000110: d5e5 babd 7a89 74be 73f1 e5be ab75 cc3e
00000120: d279 ebbe 7745 b3be 1908 833c aa0e 0f3e
00000130: 31e2 9d3d 4280 dabd 1794 51bf edaa 3fbe
00000140: b5f4 223f c926 583e 2c09 94be abcf a73d
00000150: 13a5 843f f2a2 1a3e 83d8 103f 8749 3c3f
00000160: e51f 5c3e 54bd cbba 9210 483e 2308 0bbf
00000170: 93d3 a73e 1b2e 04be c9ae f7be 3c4b e83d
00000180: 3157 e1be ab1d a0be 7544 2bbe 8830 bfbe
00000190: 3190 40bd 273e 7e3e be9d 973d 9562 00be
000001a0: 09c4 ab3d 5468 e1be a8ba 373e 7d09 0ebe
000001b0: cb62 c7be ed8d eabe 21a0 1e3c 09f3 2e3e
000001c0: 8473 613c 1746 063f 5e87 3e3f 3656 3abe
000001d0: a0e1 023f 923c 113f 9876 5bbe 0524 92bd
000001e0: e0d4 00be bc10 afbe 1a74 ea3e 5277 a6be
000001f0: 3c63 52be 827a c73c f836 273e b7c8 903d
00000200: 9a67 b73e 6a6e 783e a771 21be 3478 e9be
00000210: a877 593e a8b1 803e 2ee2 a13d 14f6 633d
00000220: b41b eabd 4f36 8cbe 67d7 e6be 5216 0ebe
00000230: 252b febe 7cba ddbe c19f 9d3d dabe fc3d
00000240: fb46 89be 3022 223f 86aa 39be a5af c13e
00000250: e47a 3cbf 6b49 eb3e 5a48 abbc 9578 31be
00000260: f293 693c 66ae eabd 4d71 cebd e23c a93d
00000270: 9764 1fbd 220d 893e 8f20 383e 38b8 b13e
00000280: dc51 0ebf 5910 d53e c480 423f 2c3c 183f
00000290: f5e7 843e f1fc da3e 4daa bd3e d053 ef3d
000002a0: 7ce1 cf3e dbe7 ca3e adc3 bcbd 730f 7d3d
000002b0: 7ed6 513f 52c3 b53e 7fd8 96bd f525 fe3c
000002c0: 34cb d6be d5d0 983d f762 d2be 1f6b c13d
000002d0: 7a1c aabe e827 9d3d 92ba 883e 5071 a83e
000002e0: 38c4 23be 1483 07bf d4c2 dcbe 7f26 16bf
000002f0: 9bd4 cc3e 644c 09bf f471 b3be 69a0 9e3e
00000300: d002 16bf 8bf5 00be 54fd 52be 6dcc 1b3f
00000310: 6524 1e3d de93 cf3e ffff 9ebe 9e17 da3e
00000320: cfe4 dabe 7d40 10bb d72d 943d 77b3 dfbc
00000330: 0919 2d3e d699 b7bd 4e61 323e 27db fbbe
00000340: 3594 323f 5972 0fbd 344b d4be 5ef8 9ebe
00000350: 02e3 2ebe 87c5 89bd 24a9 fb3d 76aa 9dbd
00000360: aec8 abbe 0cc2 93be 502c c63c bd21 8cbe
00000370: 95f1 ed3e 4c56 3d3c 6a85 f2be 3530 1b3d
00000380: 1c89 8dbd ba38 6ebe e9ce c3ba 022c af3c
00000390: 0d9d c6be 3c52 c4bd 24a5 b23e 1912 b8be
000003a0: 90fb 06be 0c81 ebbc fd77 cabe cdaf d83c
000003b0: dfd7 af3d 5af2 00be 9136 253f 92a2 063f
000003c0: 2142 ab3e 05ef 98bc 4cda 3d3c 13d9 513e
000003d0: 6b2f 743e b929 b03e 3bc2 7e3c 39b1 0dbf
000003e0: 3d5d 233e 3d01 33bd d43a da3e fc30 a83e
000003f0: 2c63 7bbe 5011 65be 02bb d13d 858a a8bd

bias f4 [32]
-0.720274 -0.13176624 0.118403174 0.31558698 0.18564232 0.8354484 0.6194933 0.6207478
0.06696315 -0.050016537 0.35109738 0.54729635 -0.22490464 -0.7915852 0.13082498 0.2460435
0.025760537 0.4746003 1.2616796 0.24928461 0.059910182 0.30653882 0.03228705 -0.047526106
0.9963665 0.35688177 0.6409906 0.8026339 0.11723854 0.9587068 0.3477861 0.6199231
00000000: e063 38bf bbed 06be 5d7d f23d 9e94 a13e
00000010: 0519 3e3e f2df 553f 1d97 1e3f 54e9 1e3f
00000020: fa23 893d 24de 4cbd 09c3 b33e 9d1b 0c3f
00000030: 674d 66be 54a5 4abf fcf6 053e d4f2 7b3e
00000040: c307 d33c cffe f23e b87e a13f 7744 7f3e
00000050: 6164 753d a8f2 9c3e 6d3f 043d bcaa 42bd
00000060: e011 7f3f 35b9 b63e f617 243f 6a79 4d3f
00000070: c21a f03d cf6d 753f 0511 b23e 48b3 1e3f

weight f4 [1, 32]
0.021729743 0.13513595 -0.122528665 -0.13196014 -0.11886752 -0.101671204 0.1532576 -0.12053867
-0.0013102421 0.058151733 0.13960674 0.11088873 -0.048157103 0.023625556 -0.07081343 -0.1313944
0.07195217 -0.13386218 0.15080819 -0.14874643 -0.15892933 0.12219497 0.039442338 -0.12249415
0.1650116 0.16866253 0.104938895 0.14144015 0.12710351 0.13168436 -0.023135617 0.16123514
00000000: 9302 b23c 1461 0a3e 4ff0 fabd 8f20 07be
00000010: d070 f3bd fe38 d0bd 8fef 1c3e fadc f6bd
00000020: 6ebc abba 8330 6e3d 12f5 0e3e a119 e33d
00000030: 6240 45bd 628a c13c a206 91bd 418c 06be
00000040: a95b 933d 2b13 09be 766d 1a3e fc50 18be
00000050: 5fbe 22be 5b41 fa3d 4a8e 213d 37de fabd
00000060: cdf8 283e dfb5 2c3e 34ea d63d b0d5 103e
00000070: 6c27 023e 44d8 063e e886 bdbc d31a 253e

weight f4 [64]
1.2940084 1.395247 0.9813333 1.1825912 1.0038555 1.2858535 1.3010676 0.58614916
1.8783542 0.9312293 1.6653099 0.91435367 1.3071873 0.96777374 1.3613545 1.1376191
1.1351514 1.1525705 1.5817175 0.9044327 1.7114872 1.1643475 0.90014267 1.2360486
1.1109391 1.3876843 1.1240301 1.0607879 1.0817487 1.320411 1.4179454 0.9579625
1.4915454 1.3615105 1.3362838 1.3172139 0.90649104 0.90907925 1.0235592 1.5798194
1.1276938 1.2409583 1.3246477 1.0239476 1.4820528 1.2447743 1.1180267 0.9709764
1.2621493 1.1584426 1.2328433 0.82196647 1.4944615 1.1741718 1.2921197 0.7355535
1.1985899 1.3718187 1.3649575 1.6246841 1.3026031 1.3403735 1.0016497 1.0111192
00000000: 11a2 a53f 7497 b23f a938 7b3f 265f 973f
00000010: 567e 803f d996 a43f 6289 a63f df0d 163f
00000020: e96d f03f 0b65 6e3f e028 d53f 1513 6a3f
00000030: ea51 a73f 05c0 773f dd40 ae3f 819d 913f
00000040: a44c 913f 6e87 933f b875 ca3f e788 673f
00000050: 0312 db3f 5709 953f c06f 663f d736 9e3f
00000060: 4133 8e3f a49f b13f 38e0 8f3f e6c7 873f
00000070: be76 8a3f 3a03 a93f 3c7f b53f 083d 753f
00000080: f6ea be3f fa45 ae3f 590b ab3f 779a a83f
00000090: cc0f 683f 6bb9 683f fd03 833f 8637 ca3f
000000a0: 4558 903f b9d7 9e3f 0e8e a93f b710 833f
000000b0: e8b3 bd3f c454 9f3f 801b 8f3f e991 783f
000000c0: 1c8e a13f d947 943f cfcd 9d3f 656c 523f
000000d0: 844a bf3f 434b 963f 2e64 a53f 3c4d 3c3f
000000e0: 656b 993f c197 af3f edb6 ae3f a6f5 cf3f
000000f0: b3bb a63f 5c91 ab3f 0f36 803f 5b6c 813f

bias f4 [64]
-0.3178892 0.006699729 0.063308604 -0.052352864 -0.18690096 -0.26126492 0.18752852 -0.108681105
-0.10809892 -0.46465418 -0.33267656 0.034923915 -0.5047758 -0.1802901 -0.31377968 -0.30915356
-0.3718148 0.17380998 0.0763918 0.33214787 -0.82181764 -0.057605922 0.4167071 0.22592849
-0.070901394 -0.3911178 -0.15162905 -0.6704714 -0.093977906 0.021378037 -0.043503404 -0.04206028
-0.25405118 0.14867893 -0.49668175 -0.26296434 0.2521684 -0.23959452 -0.29177004 0.32179376
-0.077906765 0.24555065 0.0019081254 -0.23632774 -0.25299573 -0.31719682 -0.23666152 0.3373973
0.18843715 -0.0766316 -0.26825646 -0.26056683 -0.33589867 0.4033686 0.07065302 0.061619833
0.17537998 0.0694846 0.104757085 0.08238602 0.2620866 -0.0152774835 -0.25177488 -0.002862805
00000000: 60c2 a2be 6689 db3b f1a7 813d f56f 56bd
00000010: f762 3fbe 84c4 85be 7a07 403e 3394 debd
00000020: f762 ddbd 27e7 edbe 9554 aabe 610c 0f3d
00000030: fd38 01bf f89d 38be bba7 a0be 6049 9ebe
00000040: 825e bebe 3efb 313e 4e73 9c3d 490f aa3e
00000050: a462 52bf 30f4 6bbd a25a d53e cc59 673e
00000060: c034 91bd 9840 c8be a544 1bbe 03a4 2bbf
00000070: 7d77 c0bd fe20 af3c a030 32bd 6647 2cbd
00000080: ff12 82be 4a3f 183e 124d febe 43a3 86be
00000090: 371c 813e 4458 75be e262 95be 27c2 a43e
000000a0: 958d 9fbd a171 7b3e 101a fa3a e6ff 71be
000000b0: a888 81be 9f67 a2be 6657 72be 57bf ac3e
000000c0: abf5 403e 07f1 9cbd e958 89be 0469 85be
000000d0: e9fa abbe 5486 ce3e 88b2 903d 1465 7c3d
000000e0: cf96 333e f14d 8e3d e28a d63d 00ba a83d
000000f0: 3730 863e 694e 7abc a3e8 80be e69d 3bbb

running_mean f4 [64]
0.673041 0.4906452 1.8642431 1.2776711 0.45343673 0.35423902 0.35840052 0.53640276
1.3570349 0.13525648 1.4469495 1.5401059 0.2740718 0.31255937 0.23417306 0.6512997
0.39441705 0.27861202 1.8319787 0.96306366 0.45404005 0.16124164 0.8291745 0.27174965
0.56873757 0.2599216 1.140089 0.62251586 0.78304374 0.8715091 1.4391389 1.6235434
2.0430799 0.3481139 0.79850096 0.5118669 0.3426363 0.63547814 1.0132408 1.7055491
1.9932036 1.6534451 1.1164018 0.33590087 0.4377804 0.3932111 1.5178392 0.75777555
1.0186915 0.35355917 1.0037123 0.15516773 0.22123146 0.47583053 1.0450294 1.1315882
0.81549495 1.2334002 1.9080329 1.8419567 0.2157123 1.0794322 0.5339675 0.11977919
00000000: 6a4c 2c3f d935 fb3e 859f ee3f ba8a a33f
00000010: dc28 e83e d15e b53e 4680 b73e b151 093f
00000020: 52b3 ad3f ad80 0a3e a435 b93f 3122 c53f
00000030: 2453 8c3e c807 a03e 10cb 6f3e 94bb 263f
00000040: 08f1 c93e 3ca6 8e3e 477e ea3f 578b 763f
00000050: f077 e83e 871c 253e c844 543f c522 8b3e
00000060: c998 113f 7214 853e 70ee 913f 335d 1f3f
00000070: 8e75 483f 381b 5f3f b435 b83f 45d0 cf3f
00000080: d2c1 0240 fc3b b23e 8f6a 4c3f b609 033f
00000090: 066e af3e b2ae 223f e0b1 813f 6f4f da3f
000000a0: 4c21 ff3f 17a4 d33f 41e6 8e3f 33fb ab3e
000000b0: c124 e03e f752 c93e 8e48 c23f 94fd 413f
000000c0: 7c64 823f b505 b53e a579 803f 4ae4 1e3e
000000d0: 808a 623e 0fa0 f33e 86c3 853f e2d7 903f
000000e0: 47c4 503f 0fe0 9d3f 6c3a f43f 3dc5 eb3f
000000f0: afe3 5c3e d62a 8a3f 18b2 083f cb4e f53d

running_var f4 [64]
0.9094622 1.1794617 2.2672322 1.7883229 0.5494269 0.7968244 0.74147815 0.6662302
2.2830572 0.12385427 2.284714 1.9665426 0.8321729 0.46044007 0.43478826 1.257847
0.7127093 0.39213184 2.8915572 1.3485299 0.92449033 0.2240115 0.9683552 0.44125763
0.8108025 0.37842882 1.6907619 1.2155098 1.2842848 2.077016 2.503252 2.8408213
2.4672132 0.7495992 1.3587856 0.7654657 0.6411968 0.88007903 1.2588347 2.8406599
2.8499496 2.4281952 1.5321432 0.75083166 0.5085201 0.5063094 1.6316973 1.596668
1.7437476 0.6973894 1.6068488 0.13265015 0.6681722 1.0404692 1.4728291 2.3243585
1.1566731 2.173184 2.4894152 2.2242544 0.37832415 1.8909851 1.0738472 0.27582425
00000000: 84d2 683f 9af8 963f 551a 1140 c4e7 e43f
00000010: 3ea7 0c3f affc 4b3f 83d1 3d3f 108e 2a3f
00000020: 9c1d 1240 4fa7 fd3d c138 1240 abb7 fb3f
00000030: 4809 553f cdbe eb3e 919c de3e 2101 a13f
00000040: 1e74 363f 81c5 c83e 460f 3940 a19c ac3f
00000050: 66ab 6c3f 4563 653e 20e6 773f 85ec e13e
00000060: c190 4f3f 6cc1 c13e e36a d83f d395 9b3f
00000070: 7263 a43f d5ed 0440 4835 2040 04d0 3540
00000080: d2e6 1d40 bce5 3f3f b0ec ad3f 8ff5 433f
00000090: 7925 243f dc4c 613f 7f21 a13f 5fcd 3540
000000a0: 9365 3640 8d67 1b40 451d c43f 8136 403f
000000b0: 602e 023f 7e9d 013f 75db d03f 9e5f cc3f
000000c0: 1f33 df3f 1d88 323f 39ad cd3f 71d5 073e
000000d0: 550d 2b3f 182e 853f aa85 bc3f 4ac2 1440
000000e0: dd0d 943f 7215 0b40 9452 1f40 2f5a 0e40
000000f0: b4b3 c13e cd0b f23f d373 893f d638 8d3e

weight f4 [32]
0.06514257 0.2926316 0.33089077 -0.28730258 0.24595234 0.2639681 0.33724615 0.2875661
-0.0044511775 0.10442678 0.27040398 0.26678136 0.08364056 -0.043087438 0.16815203 0.22284141
0.1271848 0.30909166 0.32358348 0.25907153 0.31498885 0.23513296 0.03307398 0.20566621
0.32463658 -0.26165393 0.22717696 0.31535274 0.27609146 0.29532912 0.016745247 0.3406627
00000000: 7869 853d cfd3 953e 846a a93e 5319 93be
00000010: eeda 7b3e d426 873e 87ab ac3e dd3b 933e
00000020: 2fdb 91bb b5dd d53d 6472 8a3e 9197 883e
00000030: be4b ab3d 747c 30bd 0c30 2c3e 8a30 643e
00000040: bb3c 023e 4341 9e3e bcac a53e 06a5 843e
00000050: 3846 a13e b2c6 703e 9578 073d 2a9a 523e
00000060: c436 a63e 81f7 85be 14a1 683e ea75 a13e
00000070: dc5b 8d3e 6135 973e 542d 893c 576b ae3e

bias f4 [32]
-0.2346864 0.018003963 0.090916015 -0.029954258 0.025472565 0.035153534 0.038056657 -0.043763086
-0.0024046877 -0.0058167926 0.04378014 0.02776964 0.037762564 -0.09378769 0.047806926 0.012919753
0.0607692 0.014925526 -0.007605252 0.03786385 -0.040566448 0.045608673 0.07702036 0.03815538
0.018669777 0.122107804 0.05194535 -0.013841164 -0.02020548 0.025903588 -0.061939217 0.034502354
00000000: a251 70be 0c7d 933c 2d32 ba3d a262 f5bc
00000010: d7ab d03c 27fd 0f3d 4ce1 1b3d ec40 33bd
00000020: f797 1dbb cb9a bebb ce52 333d 287d e33c
00000030: ebac 1a3d c313 c0bd 32d1 433d 5fad 533c
00000040: 20e9 783d 328a 743c 7a35 f9bb 2017 1b3d
00000050: 0129 26bd 29d0 3a3d dabc 9d3d d148 1c3d
00000060: 5cf1 983c a813 fa3d a6c4 543d 0dc6 62bc
00000070: f685 a5bc c333 d43c fab3 7dbd 5752 0d3d

running_mean f4 [32]
1.6652571 3.3807676 4.1511765 2.062554 2.6873326 4.1513395 4.0855055 4.274428
1.3377463 1.3061777 3.2608318 3.8553452 2.5135405 1.5878859 1.3621625 2.700414
1.9466556 3.5084739 5.631751 3.494172 4.6336803 2.8590543 1.6659067 2.8738701
5.33614 4.3735237 4.3912897 4.224456 2.8533099 4.9646425 2.8438132 3.7015789
00000000: 2527 d53f 7f5e 5840 70d6 8440 e200 0440
00000010: 42fd 2b40 c6d7 8440 76bc 8240 1dc8 8840
00000020: 453b ab3f d530 a73f 78b1 5040 fabd 7640
00000030: d9dd 2040 d83f cb3f 575b ae3f 95d3 2c40
00000040: 032c f93f d68a 6040 4e37 b440 84a0 5f40
00000050: 1c47 9440 bffa 3640 6e3c d53f 7ded 3740
00000060: a9c1 aa40 e8f3 8b40 7285 8c40 be2e 8740
00000070: a19c 3640 5ade 9e40 0901 3640 abe6 6c40

running_var f4 [32]
18.806047 37.363285 38.066364 10.461544 17.33764 29.590237 24.296795 35.603786
3.1262925 5.5463448 15.77572 29.630749 19.904856 10.483114 8.307286 13.864173
13.282398 27.698881 35.470856 33.940422 39.25656 20.19064 5.872611 19.293095
36.07249 35.961964 43.535297 20.425661 31.802 31.368177 17.406374 25.474192
00000000: c972 9641 0174 1542 f543 1842 7c62 2741
00000010: 7db3 8a41 ceb8 ec41 d65f c241 476a 0e42
00000020: 2d15 4840 a87b b140 5969 7c41 c60b ed41
00000030: 253d 9f41 d6ba 2741 a5ea 0441 a7d3 5d41
00000040: b484 5441 4f97 dd41 28e2 0d42 fec2 0742
00000050: b806 1d42 6e86 a141 6eec bb40 4258 9a41
00000060: 3b4a 1042 0dd9 0f42 2524 2e42 c167 a341
00000070: 7f6a fe41 07f2 fa41 4140 8b41 25cb cb41
