Models/TrainedModels/FCNNs/FCNN4.pt (torch, 84783 bytes, 9 tensors)

weight f4 [64, 22]
000000 fe 01 63 3d a7 0d 90 3e 4d 96 36 be 21 96 9a bd
       0.05542182 0.28135416 -0.17830773 -0.07548166
000010 1f 22 05 bf 59 bd d5 bd a1 b8 31 bc f8 6f 31 3f
       -0.5200519 -0.10436506 -0.010847242 0.69311476
000020 78 8f 31 be 03 85 7f 3e 9d 28 23 be eb d3 10 bd
       -0.17339885 0.24953084 -0.15933461 -0.03535835
000030 13 70 fc be 10 6d d9 be 2d b6 47 3f ad 50 a7 3e
       -0.49304256 -0.4246602 0.78012353 0.32678738
000040 67 b2 25 bf e0 ea bd 3d 9b 69 46 bf 55 10 a2 be
       -0.64725345 0.092733145 -0.7750489 -0.31653085
000050 2c 26 05 bf 03 0a 4d 3a 61 ec df bd 3f 8a 16 bf
       -0.5201137 0.0007821621 -0.109337576 -0.58804697
000060 8e 06 1d bf 76 c5 04 bf 01 52 b4 be 73 f1 d0 3e
       -0.61338127 -0.518638 -0.35218814 0.4080921
000070 fc 44 c3 be e0 2d a0 3e 16 01 1a bf a5 96 f1 3e
       -0.38138568 0.31285 -0.60157907 0.47185245
000080 5c a2 c4 bd ce 37 6e be 29 de 4d be a3 ad f3 3e
       -0.0960128 -0.23263475 -0.20104279 0.47593412
000090 4c 76 6b 3e 35 47 a0 3c 1d 21 4d bf 70 4b 95 be
       0.22994345 0.019565204 -0.8012865 -0.29159117
0000a0 0b 88 49 3f e9 2b ea bd 06 cc 14 bf 95 4b 8e 3e
       0.7872321 -0.114341564 -0.58123815 0.2779204
0000b0 c3 c7 2c 3e 78 21 e8 be 7b 50 03 bf 3f 55 a3 be
       0.16873078 -0.45338035 -0.5129468 -0.31900975
0000c0 df 02 9d 3c 7b ae 94 3e 33 74 0b bd 66 54 e5 bb
       0.019166408 0.29039368 -0.034046363 -0.0069985865
0000d0 04 1b a7 be 3f ca 0b bf 71 de 0f be 2c 82 4f be
       -0.326378 -0.5460548 -0.14049698 -0.202645
0000e0 94 7f d2 3e 14 1d a0 3e b3 13 df 3e 14 52 fc be
       0.4111296 0.31272185 0.43569717 -0.4928137
0000f0 93 54 e1 be 88 82 80 be c6 82 f0 bd b7 f4 99 bb
       -0.44009838 -0.25099587 -0.11743693 -0.0046983617
000100 6c e0 9f be 6e e2 9d be 97 66 28 3f 58 c0 37 3e
       -0.31225908 -0.30836815 0.6578154 0.17944467
000110 74 43 0c 3e 12 59 59 bf 6e d8 c5 3d d0 12 da be
       0.13697606 -0.84901536 0.09660421 -0.42592478
000120 13 98 03 3e 29 9b b1 3e 68 0f 13 3e 72 bb 40 be
       0.1285098 0.3468869 0.14361346 -0.18821505
000130 9f 89 84 3d 00 7f 5e 3e 3f fd 13 be db a8 7a be
       0.06471562 0.21728134 -0.14452074 -0.24478476
000140 2b b6 6d 3e b4 e6 7a 3e 1d cf fb bc cd e1 d8 bd
       0.23214023 0.24502069 -0.030738408 -0.10589943
000150 93 06 21 be 8d 41 cd bc 68 c4 07 be 93 13 be bd
       -0.15725164 -0.025055671 -0.13258517 -0.09281077
000160 f7 e1 a9 be 74 48 2e bf 56 6f a5 be 4a 87 2f 3e
       -0.3318021 -0.68079305 -0.32311505 0.17141452
000170 1b 1b 32 bf 18 e7 10 bc cd 35 1d 3c 6b fa fd be
       -0.6957261 -0.00884416 0.009595347 -0.49605116
000180 bb f6 58 be 75 02 ef bd 3f 84 2e bf 46 b3 e0 3c
       -0.2118787 -0.116703905 -0.6817054 0.027429234
000190 d4 9a 91 be e2 64 6e be e0 c6 33 bd 66 4b 46 be
       -0.28438437 -0.23280671 -0.043890834 -0.193647
0001a0 b8 9c 20 bf e5 e6 11 3f eb f4 94 3e 4e 40 a4 be
       -0.62739134 0.5699294 0.29093108 -0.3208031
0001b0 0a fa 59 be 42 1d 42 3f 62 60 92 3e 40 94 bb 3e
       -0.21286789 0.75825894 0.2858916 0.36636543
0001c0 d7 04 b6 be f4 aa 3b 3e 5f 76 3b bf 38 33 ce be
       -0.35550568 0.18326932 -0.73227495 -0.40273452
0001d0 e7 89 e7 3e 71 22 f2 be ed 2f 17 bf 67 40 88 3e
       0.452224 -0.47291902 -0.59057504 0.26611635
0001e0 6c f0 7a be 07 aa 35 bf 3a a5 05 3e d6 93 21 3f
       -0.24505776 -0.70962566 0.1305131 0.63116205
0001f0 69 85 fd bb 47 24 d4 be 3d 0f 88 bd 0e 4d 1e be
       -0.007736851 -0.41433927 -0.066435315 -0.15459082
000200 67 0d 9e be 7f d3 3d be 0e ea a9 bd 5b 01 1f 3e
       -0.308696 -0.1853771 -0.082965955 0.15527861
000210 c2 07 d0 be a1 ea b2 be 37 a8 66 be bd 45 cb 3e
       -0.4063092 -0.34944633 -0.22525106 0.39701644
000220 07 f3 83 3c 8d a9 04 3f a9 2e 08 be c0 95 37 bf
       0.016107095 0.51821214 -0.1329905 -0.71712875
000230 22 22 78 bd 6c cb 2b be 13 4d 50 be 54 89 c3 bd
       -0.060579427 -0.16776818 -0.20341901 -0.09547678
000240 19 7c 8a be 99 c2 60 3f a5 1f 3e 3d f7 16 3f 3e
       -0.27047804 0.8779693 0.046416897 0.18661104
000250 73 65 f8 be 77 4e a9 3e c2 f7 32 3e c7 d4 72 be
       -0.485149 0.33067676 0.17477325 -0.2371398
000260 9e 22 23 bd 56 10 73 bd 3b 34 34 3f 65 19 2f bf
       -0.039827935 -0.05934175 0.703922 -0.68398124
000270 52 56 38 bf b2 a2 5e 3e a7 1d 0b bf 4b df 64 3f
       -0.72006714 0.21741751 -0.5434212 0.8940322
000280 32 35 82 3e 57 ec 83 be 45 a1 44 bf d4 03 8b be
       0.2543121 -0.2576625 -0.7680858 -0.27151358
000290 22 89 88 be 70 d0 15 3f e4 df 47 bf c2 8a 0c be
       -0.26667124 0.58521175 -0.78076005 -0.13724807
0002a0 70 9c 87 3c f5 34 d0 3e 7d aa 2e bf 68 2f 21 be
       0.016554087 0.40665403 -0.68228894 -0.1574074
0002b0 ad d8 1b be 56 70 4e bf 6c 38 19 bf d1 32 7a be
       -0.15219374 -0.8064016 -0.5985172 -0.24433447
0002c0 d0 a8 02 3f f6 75 4a bf 58 19 04 3e d0 44 44 3e
       0.5103884 -0.79086244 0.12900293 0.19166875
0002d0 19 55 f7 3c 56 cb a9 3e f6 54 ff bd 36 5d c9 be
       0.030191945 0.33162946 -0.12467377 -0.39328927
0002e0 f4 7e 45 be 37 84 bf 3e af c4 c4 3c 3d b4 54 3f
       -0.1928671 0.3740556 0.024019567 0.8308752
0002f0 99 98 09 bd 51 d4 51 3f ef 40 b7 be 69 11 2f 3f
       -0.033592794 0.81964594 -0.35791728 0.6838594
000300 83 f5 dd bc 2a 42 64 be 92 4b 8b bd 1d 78 0f 3f
       -0.027094608 -0.22290865 -0.06801523 0.56042653
000310 19 5f ca be ed 4a 40 be da 37 29 3e b6 51 22 bf
       -0.3952568 -0.18778582 0.16525212 -0.6340593
000320 53 f1 1b 3d 9f 0b 1c bf 25 1f cd 3d 91 aa a1 3e
       0.03807194 -0.6095523 0.10015706 0.31575444
000330 cd ad 24 3e 08 fc ba 3e 63 41 3c bd 6b 26 84 3d
       0.16081925 0.3652041 -0.045960795 0.0645264
000340 86 44 ea 3d fe ea 9e 3c f6 a9 4d 3f 39 15 1d 3e
       0.11438851 0.019399162 0.80337465 0.15340127
000350 2f dd 0f 3f ad 14 f4 be 9e ec 97 3e 55 45 02 3e
       0.56196874 -0.47672024 0.29672712 0.1272176
000360 96 17 ab be 01 09 80 3e e8 48 22 3e 74 6c 50 bf
       -0.33416432 0.2500687 0.15848124 -0.81415486
000370 bc 2d 83 3e 92 ac f9 be 16 41 fb be df b8 23 be
       0.2562083 -0.48764473 -0.49073094 -0.15988491
000380 36 ec c8 3d bd 28 c6 3c 97 bf 24 be b3 c5 86 3e
       0.09810679 0.024189347 -0.1608871 0.26322708
000390 5b 7b e6 be 85 84 ac 3e 6a 37 1d bd 8b 12 97 3e
       -0.45015988 0.33694854 -0.038382925 0.29506335
0003a0 10 95 bd be 34 56 59 3d 79 42 32 be f4 46 c1 3e
       -0.37027788 0.053060725 -0.1740817 0.37749445
0003b0 c7 7a a4 be 88 91 0a bf 04 c5 9d be d9 ca 65 bd
       -0.32124922 -0.54128313 -0.30814373 -0.056101654
0003c0 5f e7 5c 3d f9 c0 62 3e 96 75 dc bd c1 7d 58 3e
       0.05393159 0.22143926 -0.10764615 0.21141721
0003d0 0d 41 ac 3d 9b f3 35 3f 1a ca 2c bf 24 96 69 3d
       0.08410845 0.7107484 -0.6749588 0.05702795
0003e0 ba 09 01 3f c9 8f 04 3d 04 6a 07 be f2 82 1b 3f
       0.50405467 0.032363687 -0.13224036 0.6074668
0003f0 3f a4 c9 be 1b 6f 7e 3e 2b cb b3 3b ec 0f 06 3d
       -0.39383122 0.24847071 0.005486866 0.032730028

bias f4 [64]
000000 54 14 60 bf 87 05 67 bf 90 fe a2 bf 82 c5 fa bf
       -0.8753102 -0.9024281 -1.2733936 -1.9591525
000010 bb a4 17 bf af 99 35 bf db a8 b4 bf 9d f3 7f be
       -0.59235734 -0.7093763 -1.4114031 -0.24995275
000020 45 5f f3 be 2b f3 b2 bf 02 4a 17 bf 7d 3f 5d bf
       -0.47533622 -1.3980459 -0.590973 -0.86425
000030 6a 39 72 bf 36 a8 0f bf 7a dd b0 be ce 63 3e be
       -0.94618857 -0.56116045 -0.34543973 -0.1859276
000040 ec ba 46 bf 5b 3a bc 3e 7c 69 b8 bf 28 99 a2 bf
       -0.7762897 0.36763272 -1.4407191 -1.270299
000050 0f 0e 8e be 34 eb 43 bf e6 5c 00 c0 d9 31 a9 bf
       -0.277451 -0.76530766 -2.00567 -1.3218337
000060 87 0d 3f bf 25 67 99 bf dc b2 13 be 45 68 80 3e
       -0.74630016 -1.1984602 -0.14423698 0.2507955
000070 66 fb 06 bf e1 d7 a4 bf d2 f9 9a bf db b8 cc bd
       -0.52727354 -1.2878381 -1.2107489 -0.09996196
000080 e5 c9 b5 be 3c 0c ee 3d ba 2b 69 bf ed 39 3f bf
       -0.35505596 0.11623427 -0.91082346 -0.7469776
000090 9b 81 25 bf ea a2 e8 3d 79 55 ab bf e5 0b 41 bf
       -0.6465089 0.113591984 -1.3385459 -0.75408775
0000a0 73 4d 3c bf 59 d8 b1 be 0e bb 67 bf e1 8c 50 bf
       -0.7355568 -0.34735373 -0.905198 -0.81464964
0000b0 84 e9 a6 bf 32 5a 61 bf 83 d7 dc bf 5a 7c 43 bf
       -1.3040013 -0.8802825 -1.7253269 -0.7636162
0000c0 52 db d4 be 7f 47 88 bf 92 24 e6 bf 78 1c 6e bf
       -0.41573578 -1.0646819 -1.797991 -0.9301219
0000d0 6d c0 6c 3d 90 93 ce bf cb f8 87 bf f6 9b 30 bf
       0.0578007 -1.6138783 -1.06228 -0.6898798
0000e0 87 e5 c7 be d7 cf 18 bf ce 69 8e bf 6e a7 90 be
       -0.39042303 -0.5969214 -1.1126039 -0.2825274
0000f0 4f 9d ad bf e3 e2 17 bf f7 a7 f8 3e f5 c1 81 bf
       -1.3563632 -0.59330577 0.48565647 -1.0137316

weight f4 [128, 64]
000000 69 0b 47 be 84 38 05 bc 6b 2d 1e bf 8d 36 a6 3e
       -0.19437946 -0.00813115 -0.6178805 0.32463494
000010 6e d0 28 be e5 09 9e 3b 93 a3 dd be d9 8f 0c bd
       -0.1648576 0.004822957 -0.4328886 -0.03431687
000020 6c 74 49 bf 75 6f dd 3e e3 c8 a7 bd b7 55 bb 3e
       -0.7869327 0.43249097 -0.08192613 0.36588833
000030 d5 d4 85 be c2 e0 cd be 4b e8 91 3e 73 0f 95 be
       -0.2613894 -0.4021054 0.28497538 -0.2911335
000040 84 03 cc bd 22 8f 98 be f8 2a 27 3f 87 3e 36 bf
       -0.09961608 -0.29796702 0.6529994 -0.7118916
000050 94 f4 e6 bd 34 ee 87 be 26 36 19 be 4f 5f ae 3e
       -0.11277118 -0.26548922 -0.14962062 0.3405709
000060 0c 24 8d be b3 31 11 3d b7 00 cd 3e 6d e9 24 bf
       -0.27566564 0.035447787 0.40039608 -0.6441868
000070 36 e9 2a be 7a 56 4e be a1 bc 97 be 8a 93 33 be
       -0.16690525 -0.20150176 -0.296361 -0.1753675
000080 6c 79 e3 be e3 30 99 be b2 04 f2 be 68 2f 75 bf
       -0.44428575 -0.2992011 -0.47269207 -0.9577546
000090 b6 95 60 bf b5 51 2d 3d 45 02 12 3e 77 50 98 be
       -0.8772844 0.04231425 0.14258678 -0.2974889
0000a0 19 40 49 bf 19 aa 29 bf c8 ba f4 be d8 3f 83 3e
       -0.7861343 -0.66275173 -0.47798753 0.25634646
0000b0 24 ef 17 bf 74 ba 0f bd 5b 8d c4 be 6c 1a f1 be
       -0.59349275 -0.035089925 -0.38389096 -0.4709047
0000c0 8d 95 6f 3c 70 65 2b bf 34 cc 5b be a6 53 95 3d
       0.014623058 -0.66951656 -0.21464616 0.07291345
0000d0 d4 12 a5 3d 15 26 26 bf 7d 6b 22 bf 64 69 c0 be
       0.08060232 -0.6490186 -0.63445264 -0.37580407
0000e0 9b a9 5a bf 76 64 16 3f 41 61 5f 3e 33 61 aa 3e
       -0.8541505 0.5874704 0.21814443 0.33277282
0000f0 79 bc 2a bf 69 8f 1c bd 59 4d 5d bf ed bc 85 3d
       -0.66693836 -0.038222704 -0.8644615 0.06530175
000100 f0 5d 5f bf 58 43 5e 3e 34 9d a6 3c dd f9 bd bd
       -0.8725271 0.21705377 0.020338632 -0.09276173
000110 2c 6d b8 3e 2b d2 19 bd 83 92 35 3e df 33 84 be
       0.36020792 -0.037553947 0.17731671 -0.25820825
000120 20 ac 7c bf d5 80 b6 bd c5 75 49 bf da fd 9c 3c
       -0.9870014 -0.089112915 -0.7869533 0.019164015
000130 78 25 5f be d2 a2 3a 3e fd 87 a8 be 71 88 38 be
       -0.21791637 0.18226174 -0.3291625 -0.18020798
000140 bf ae 60 bf 39 80 c6 3e 3b 11 92 be 10 b8 0a be
       -0.8776664 0.387697 -0.2852877 -0.13546777
000150 7c 45 18 be c2 78 71 be 89 97 cc 3e 68 d4 28 bf
       -0.14870256 -0.23581222 0.39959362 -0.65949106
000160 ea 8e 02 bd 48 d1 24 3f 44 8f bc bd c5 8f 6e bf
       -0.031874575 0.6438184 -0.09207013 -0.93188125
000170 65 32 b6 be 7a 89 34 bf f8 6e 58 3d f4 e2 9a be
       -0.35585323 -0.7052227 0.052840203 -0.30251276
000180 57 53 01 3f 68 30 e0 be 25 63 1b 3f fa 38 c2 be
       0.5051779 -0.4378693 0.6069816 -0.37934095
000190 39 4c 49 bf 69 7f 8f bf e7 10 3e be af 08 17 be
       -0.7863193 -1.1210757 -0.18561135 -0.14749406
0001a0 62 f2 85 3c 06 cb fc be 66 59 aa bd f1 8e 28 bf
       0.016350929 -0.49373645 -0.08317833 -0.6584311
0001b0 99 67 61 bc 85 86 42 3e 2b 0b ee 3e 43 da 0e be
       -0.01375761 0.18996628 0.46492895 -0.13950448
0001c0 f6 ee 46 bf b6 d2 07 be 61 fb e0 be 25 9d 2f bf
       -0.77708375 -0.13263974 -0.43941787 -0.6859916
0001d0 d0 0a 46 bf d3 e1 2d 3d a5 c6 ae be 62 73 89 be
       -0.7736025 0.04245169 -0.3413593 -0.26845843
0001e0 89 0f 64 bf 03 69 02 bf 49 d2 8d be 9f e2 f0 bd
       -0.89086205 -0.50941485 -0.27699497 -0.117619745
0001f0 c7 34 89 bf 92 37 72 be 82 99 ca 3d f4 3c 61 be
       -1.0719231 -0.23654011 0.098925605 -0.21995908
000200 ab c2 8f 3e 00 cf 89 be ac ad 6d be e7 01 aa be
       0.28078207 -0.2691574 -0.23210782 -0.33204576
000210 b0 18 0d bf c2 98 ed 3e 40 85 b2 3e b1 4c 7e 3d
       -0.55115795 0.46405607 0.34867287 0.062084857
000220 ef 67 b2 be 6a 90 a0 be 41 bd ae 3e 84 cf f3 bc
       -0.3484492 -0.3136018 0.34128764 -0.029762037
000230 8b 57 ed 3e 66 4f 93 3e 83 1d ab 3e f5 ac 5d be
       0.46355852 0.28771514 0.33420953 -0.21648009
000240 99 e7 e2 3e 6c 59 5d bd 93 60 35 3e 49 91 e0 be
       0.4431732 -0.054040357 0.17712621 -0.43860844
000250 2d 6a 2d bf 7a a1 46 3e f0 c2 0b 3d b8 6b 37 bf
       -0.67740136 0.19397536 0.034121454 -0.7164874
000260 08 82 f2 3d 99 f5 87 3d 25 30 8f 3e a2 1c 15 bf
       0.11841208 0.06638641 0.2796642 -0.58246815
000270 80 b2 95 3e 55 0f ad be 54 15 08 3f 20 fb 52 3d
       0.29237747 -0.3380076 0.53157544 0.051509023
000280 28 fc 0d be 63 aa 37 bf 91 0c cd 3e a7 25 c4 bd
       -0.13865721 -0.71744365 0.4004865 -0.09577494
000290 49 48 73 be 4d 3b 3d bf c1 19 b6 be f0 3a 2f bb
       -0.23758043 -0.7391861 -0.35566524 -0.002673801
0002a0 1e c9 0b 3f d3 7f 9f be e1 6d a3 be 6e 24 21 bf
       0.54603755 -0.3115221 -0.31919768 -0.6294621
0002b0 e9 38 fa 3d 96 84 e9 be 5b 31 6f 3d 6d b4 13 bf
       0.12217886 -0.45608968 0.05839668 -0.5769718
0002c0 5f cb 0b bf 53 17 26 bf 71 f1 42 be 0d da 17 bf
       -0.54607195 -0.6487934 -0.19037415 -0.59317094
0002d0 e8 99 1d bf 93 e4 ba 3d 1a 1f c5 bc fd c5 94 bd
       -0.6156297 0.09125628 -0.024062682 -0.07264326
0002e0 99 3f 98 3e c4 be 04 3e fc ce 8a be 09 61 35 bf
       0.2973602 0.12963396 -0.27111042 -0.7085119
0002f0 d8 ca 82 3d a6 67 83 3d 3d b7 22 bf 4d e6 96 3e
       0.063863456 0.06416254 -0.6356085 0.2947258
000300 58 a3 39 bf 24 9b ae bd 4d 2d 98 be ee fd c2 3e
       -0.7251487 -0.085256845 -0.29722062 0.38084358
000310 2a e1 44 bf ff e3 5c be 0b 39 3e 3e 89 e0 32 bf
       -0.76906073 -0.21571349 0.18576448 -0.69873863
000320 53 47 00 bf 53 9e e0 bd cd 83 36 bf 44 ca f6 3c
       -0.5010883 -0.10967698 -0.7129486 0.030125745
000330 ec 38 e1 bd fa 40 6e bf 8a b9 1e 3f 16 99 bf 3e
       -0.10997185 -0.93067896 0.6200186 0.37421483
000340 84 29 57 3f d8 10 f8 bd 8e 19 ba 3e 66 f2 c8 be
       0.8404772 -0.12112588 0.36347622 -0.39247435
000350 4d d7 4f 3e bd e9 4b be ce a1 57 3d 73 89 82 3e
       0.20296974 -0.19913383 0.052644543 0.2549549
000360 2d 29 87 be 92 a1 34 be 1d 0d ce 3d d1 45 64 bf
       -0.26398602 -0.17639759 0.10061095 -0.8916903
000370 38 7c 0e bf ad 4e eb be 1a e4 0b be 91 97 9c be
       -0.5565829 -0.45958462 -0.13661233 -0.30584386
000380 03 11 38 be 49 e1 1c be 96 0e da be 3a 4b 4c bf
       -0.1797524 -0.15320314 -0.42589253 -0.79802287
000390 58 56 95 bf d6 3c 9c be 75 5c 13 3f 9a 72 44 3e
       -1.1666975 -0.30515164 0.57562953 0.19184342
0003a0 0b 9a 6e 3e 43 44 3e be f6 a8 11 3e 7b 0b 5f bf
       0.2330095 -0.18580727 0.1422461 -0.8712689
0003b0 d8 2f be be e1 45 9d bd 92 1b b2 be dd bf 62 be
       -0.37145877 -0.07679344 -0.3478666 -0.22143503
0003c0 1a aa 53 be 69 1a 85 3e 29 37 8c 3c c3 9a 0e bf
       -0.20670357 0.25996712 0.017116146 -0.557049
0003d0 1d a3 e6 3e 3e 57 46 3b 75 b9 16 bf 8f bd f5 be
       0.4504632 0.0030264403 -0.58876735 -0.47996184
0003e0 04 03 96 be df e4 8b 3e 0e 57 b9 3c a8 b8 33 3d
       -0.29299176 0.27323052 0.022624519 0.043877274
0003f0 78 a5 45 3f fd 8a e4 be 49 79 4f bf 57 5d e5 be
       0.7720561 -0.4463729 -0.8104444 -0.44797775

bias f4 [128]
000000 d1 e4 7a bf 6b 6d 8a bf be a2 a4 3d 24 42 35 bf
       -0.98005396 -1.0814642 0.08038853 -0.7080405
000010 cc f3 37 bf 79 ef 83 bf c7 ad 4f bf 1f 60 2d bf
       -0.7185638 -1.0307456 -0.8112454 -0.67724794
000020 60 8c 98 3e 46 93 08 bf cb b7 82 bf c8 56 19 bf
       0.29794598 -0.5334972 -1.0212339 -0.5989804
000030 4f a2 c2 3d 76 12 f7 be 41 7f b8 3e 8b dd 3a bf
       0.09503614 -0.48256272 0.36034587 -0.729943
000040 92 a1 9f be 03 54 78 bf 0d 53 09 bf 2d 2e 29 be
       -0.31177956 -0.9700319 -0.5364235 -0.16521521
000050 b3 01 25 bf d2 2b 31 bf dc 5a 0b bf bf 2f 07 bf
       -0.6445572 -0.6920749 -0.54435515 -0.5280723
000060 80 62 73 bf 36 28 6f be 8c d8 94 bc 79 ce 6e bf
       -0.95072174 -0.23355183 -0.018169664 -0.932838
000070 5b f5 bf bf 06 62 39 bf f1 d2 2a bf 51 69 82 3d
       -1.4996752 -0.72415197 -0.6672812 0.06367744
000080 5e 8f 17 bf f0 ab 80 be 02 75 4b be 99 7b fc be
       -0.59203136 -0.25131178 -0.19868854 -0.49313048
000090 38 b5 c9 be 8a 03 0b bd 78 fa 0a bf 94 3a 5d bf
       -0.3939607 -0.033938922 -0.54288435 -0.8641751
0000a0 04 04 0c bf ac 57 5b bf 4a 58 1f bf 49 93 c7 be
       -0.5469363 -0.8568065 -0.62244093 -0.38979557
0000b0 26 9c c4 be 4c ce a7 be 72 de cc be a7 26 11 bf
       -0.38400382 -0.3277458 -0.40013462 -0.56699604
0000c0 d4 29 ab bf fe 1f 96 3d 4c 55 16 3f fc 78 99 bf
       -1.337214 0.07330321 0.587239 -1.1990047
0000d0 94 f1 80 bf 06 e1 1d 3f 85 52 74 bf 61 8f 00 bf
       -1.0073724 0.61671484 -0.95438415 -0.5021878
0000e0 87 44 36 be 5e 29 4d bf d9 a1 3b bf 36 48 4e bf
       -0.17799579 -0.80141246 -0.73293835 -0.80578935
0000f0 07 15 89 bf e4 a0 dc 3e 5c 92 ab bf 39 8c 0a bf
       -1.0709542 0.430915 -1.340404 -0.5412021
000100 e6 77 3d 3e 84 8d 02 bd b3 41 12 bf 22 c8 4b be
       0.18502769 -0.03187324 -0.571315 -0.19900563
000110 21 2f 5c bf 53 ef e5 be 93 98 69 bf c0 0a 25 bf
       -0.86009413 -0.44909152 -0.91248435 -0.6446953
000120 75 31 13 bf d4 45 0c bf be 7d 0d bf 4d 9f 2b bf
       -0.5749734 -0.5479405 -0.5526999 -0.6703995
000130 1b de 8e bf 53 e9 ac 3c ae 9a 5b 3d ca f2 c7 bd
       -1.1161531 0.021107351 0.05361431 -0.09763105
000140 8d 73 3d bf dd 12 4a bf bd 48 19 bf de d7 0a bf
       -0.7400444 -0.78935033 -0.59876615 -0.5423564
000150 f1 71 b4 be 22 e8 8e bf fd d5 32 bf ae c5 7d bf
       -0.3524318 -1.1164591 -0.6985777 -0.9912976
000160 1a a8 fa bd 8c 41 8b be 69 eb 36 bf d7 fc 83 bf
       -0.12239094 -0.27198446 -0.7145296 -1.0311536
000170 4e 7c 36 bf 8c b3 55 bf 00 92 ce be 9e a9 57 bf
       -0.71283424 -0.8347709 -0.40345764 -0.8424319
000180 34 91 86 bf 00 1c 2e bf d7 bf 35 3e 84 18 38 bf
       -1.0513062 -0.68011475 0.17748962 -0.7191241
000190 46 5d 20 bf 4f 8b 9a bf 96 d3 fa be e4 9c e5 be
       -0.62642324 -1.2073764 -0.48989552 -0.4484626
0001a0 af 05 76 bf 76 06 3d bf 0b 44 c7 be 94 80 0f bf
       -0.9610242 -0.73837984 -0.389191 -0.5605557
0001b0 0d 02 ae be 51 a2 b9 3c 63 db d1 bd e8 51 66 3e
       -0.3398594 0.022660406 -0.10246923 0.22492182
0001c0 cf 77 b4 bf 4f 45 f3 be 73 0e da be 40 91 33 bf
       -1.4099063 -0.47513816 -0.4258915 -0.7014351
0001d0 27 fd 30 bf 88 f5 38 bc 50 d6 68 bf 1d 0b 1c bf
       -0.6913628 -0.011289008 -0.90952015 -0.6095446
0001e0 73 ec d9 be 15 c6 03 3f 58 14 0c bf b5 82 3c bf
       -0.4256321 0.51474124 -0.5471854 -0.73636943
0001f0 6b a3 b2 bf db 8c c1 be d1 0a 6e bf 80 9c c8 bd
       -1.3956121 -0.37802777 -0.92985255 -0.09795475

weight f4 [64, 128]
000000 23 7e 24 3e a3 54 50 3e 6a fa 2c bf 0d 28 4f bc
       0.16063742 0.20344786 -0.675696 -0.012643826
000010 08 66 07 be f0 db 3b 3e d0 e6 18 bf ec 1f be 3e
       -0.13222516 0.18345618 -0.5972719 0.3713373
000020 0e 00 b1 3c c5 62 43 bf 8d 3c 46 be b1 e0 15 bf
       0.021606471 -0.76322585 -0.19359036 -0.58545977
000030 96 f9 e3 be 25 6f 3e 3f d1 57 bd 3d 64 29 b5 3e
       -0.44526356 0.74388343 0.09245265 0.3538314
000040 f8 9c 8d bf b9 3c 9d 3c 0d 55 7c 3c 86 eb 5d be
       -1.1063528 0.019193994 0.015401137 -0.21671876
000050 0d 75 31 be 3b 2a 48 be fa a2 99 be da 95 0e bf
       -0.17329808 -0.1954736 -0.30007154 -0.55697405
000060 09 16 9a 3e 4b 61 0c be 53 8d 3b bf bc 43 86 be
       0.30094936 -0.1370899 -0.7326252 -0.26223552
000070 db df 50 bd 59 db 23 bd 01 e6 78 3d 0e 78 4b 3f
       -0.050994735 -0.040004108 0.060766224 0.79480064
000080 62 0c 64 3f 29 76 30 3e 12 26 4c bf 29 66 ac 3b
       0.89081395 0.17232575 -0.7974559 0.005261202
000090 96 e8 18 bf 4f f8 0e bf 2c a5 c0 bc d6 11 b2 bd
       -0.597299 -0.5584764 -0.02351626 -0.08694808
0000a0 a1 0c da bd 93 02 00 3f bf b5 ea 3d 01 a4 25 be
       -0.1064694 0.5000393 0.114604466 -0.16175844
0000b0 1d f5 0d 3e 2d ab c5 3e cc df 29 3f 11 f8 c8 bd
       0.13863035 0.3860716 0.6635711 -0.0981294
0000c0 7d af 2c be 63 91 94 3c 12 0a 92 be 68 17 08 3f
       -0.16863818 0.018135732 -0.28523308 0.53160715
0000d0 b7 da 4d bd 6f d5 23 3c 67 27 c0 be 08 43 0d bf
       -0.05025741 0.009999617 -0.37530062 -0.55180407
0000e0 03 a0 82 bc 28 c2 4d bf 15 67 f7 be 95 e5 9b bd
       -0.01594544 -0.80374384 -0.48320833 -0.07612149
0000f0 bf b5 02 3f 0b bb 59 bf 66 36 da 3d 86 be 2a be
       0.5105857 -0.8505103 0.10654907 -0.16674241
000100 73 ee 80 be ca 35 65 3e dc cb e9 3e de 90 a5 be
       -0.25181922 0.223838 0.45663345 -0.32337087
000110 2f 8e 85 3d 5a d4 c8 3d a6 4a 8f be ad a1 1f 3f
       0.0652126 0.09806128 -0.2798664 0.6235607
000120 1d 77 ca bd 8b 81 a6 3e 2c cb 9a be 71 b1 18 3d
       -0.09886 0.32520708 -0.30233133 0.037278596
000130 ee ca 91 3e 30 e1 16 bf a2 72 9b bd 00 1e 43 3e
       0.28475136 -0.5893736 -0.07590224 0.19054413
000140 fb 0f 70 be ce a8 02 bf 01 3d 88 bd c3 2e a4 3e
       -0.23443596 -0.51038826 -0.066522606 0.32066926
000150 77 32 63 be cc 19 62 3d 02 ac 9f 3e 2b 4f 60 3d
       -0.2218722 0.055200383 0.3118592 0.054763
000160 01 8e ea bd 9f 23 8e 3d 08 02 b7 be 59 3e d8 3e
       -0.11452866 0.06940388 -0.35743737 0.42235067
000170 71 1d 3e be 74 37 01 3d 3e 80 98 be 99 d4 c4 bd
       -0.18565919 0.031547025 -0.2978534 -0.09610862
000180 aa 20 60 be 14 8b a1 bc 9d 4a 91 bd ce b7 8f 3e
       -0.2188746 -0.019719638 -0.070943095 0.2806992
000190 ab 71 a8 b9 7a 96 62 be 12 0c c3 be b9 16 35 be
       -0.00032128146 -0.22127715 -0.38095146 -0.1768445
0001a0 9b a3 28 3e ce 60 12 3f 91 ce 1e 3e 7e ee 04 bf
       0.1646866 0.5717896 0.15508486 -0.5192641
0001b0 37 1b 2b 3e 82 11 46 be c8 b1 69 be 68 d4 c6 be
       0.167096 -0.19342616 -0.22821724 -0.38833928
0001c0 95 25 07 3f 54 7d d6 3e 02 8d 86 3a 31 f0 70 3e
       0.5279172 0.41892493 0.0010265412 0.23529126
0001d0 49 fc 70 be 46 a7 8e bd 3f b4 23 3e a9 ef 02 bf
       -0.23533739 -0.069654986 0.15986727 -0.5114694
0001e0 4b 98 d5 be 3a 4d 0a bf 8a fb 04 3e 16 f5 92 be
       -0.41717753 -0.5402409 0.1298658 -0.2870261
0001f0 4c 13 b0 be 52 d9 15 bf 17 14 11 3e 5b 72 2d bf
       -0.34389722 -0.5853473 0.1416782 -0.6775262
000200 d2 20 d2 3e 0c fe 39 3f d6 2d 3c bf 5d 25 58 3e
       0.41040665 0.7265327 -0.7350744 0.21108003
000210 f3 df fb 3d f9 6a 12 bd 02 87 a2 bd df db 92 3e
       0.12298574 -0.03574655 -0.07935907 0.28683373
000220 78 92 70 bf ee 6e 9e bd 31 85 ae 3e 64 45 89 3f
       -0.93973494 -0.07736002 0.34085992 1.0724301
000230 9a 21 2c bf 27 27 3d 3d 7f b6 e2 be 57 4f f5 3e
       -0.6723877 0.046179917 -0.44279858 0.47912094
000240 8d 98 0c bf cf 47 c0 3e b1 2b b4 3e 76 b9 21 be
       -0.54920274 0.37554786 0.35189584 -0.15793404
000250 67 7a 16 be 17 0a 63 3d 31 8f a5 3e b6 16 91 be
       -0.1469513 0.055429544 0.3233581 -0.2833764
000260 1e 17 5c 3f 07 82 8a 3e f9 24 db be 90 30 ef 3e
       0.85972774 0.27052328 -0.42801645 0.46716738
000270 6e 0e 3d be e4 f8 99 be 4d 23 11 3f ed 46 b1 bd
       -0.18462536 -0.300727 0.5669449 -0.08656106
000280 ee 86 c1 be 97 fa 96 be cc 7b 33 be 3a 2b 80 3e
       -0.37798256 -0.2948806 -0.17527694 0.2503298
000290 21 33 40 3f 49 99 e8 be 4a 1a 0c 3f 75 b2 a9 bd
       0.75078017 -0.45429447 0.54727614 -0.08285991
0002a0 dc fb ac 3e 5a b3 6c 3e 22 6e 35 3e d1 44 e1 be
       0.33785903 0.23115292 0.17717794 -0.43997815
0002b0 0f b3 09 3e f6 17 96 be fa be b6 3e f0 d9 23 3e
       0.13447212 -0.29315156 0.3569258 0.16001105
0002c0 f9 cb 46 3e d3 62 bc be 9e 2f 06 bf 77 0a 49 3f
       0.19413747 -0.36794147 -0.5241641 0.78531593
0002d0 6b ab 80 3d f3 af 20 be 83 95 fa be 5b 7d 8f 3e
       0.062826954 -0.1569212 -0.48942193 0.28025326
0002e0 dd 68 58 3f 82 07 60 3e 4b 44 67 3e fa 59 18 be
       0.8453501 0.21877864 0.22584645 -0.14878073
0002f0 2a e3 6f be df 24 8a be 17 d4 3b 3f 52 ff ee 3e
       -0.234265 -0.26981255 0.733705 0.4667917
000300 eb 94 dd bd 57 5c 0c bf 50 82 39 3e 62 2f 58 bf
       -0.108194195 -0.548284 0.18116117 -0.844473
000310 94 e7 99 3e 86 94 0c bf 51 c2 36 3f 84 2b e3 be
       0.30059493 -0.5491413 0.71390253 -0.44369137
000320 31 85 a5 3e ca 6d 1b be d1 45 b6 3e 7a 0d cd bd
       0.3232818 -0.151786 0.3560014 -0.10012336
000330 f0 a5 b0 3e c3 db 4b bf 88 f2 f8 3d 52 9f 52 bc
       0.345016 -0.79632205 0.12155634 -0.012855368
000340 2b 23 26 3d 7c 83 54 be 49 3a e6 3d 83 3e d5 3e
       0.040560883 -0.20753282 0.11241586 0.41649255
000350 a1 de 4e 3d ba 8a a3 bd be c8 2c 3e 67 d7 f7 3e
       0.050505284 -0.07985444 0.16873452 0.48406526
000360 e2 7a 84 be 6c 8b a9 be 9b 0d 00 3f 2f 0f 26 3f
       -0.25875002 -0.33114183 0.5002076 0.6486692
000370 10 51 6d 3d ea d0 59 be 4d ba 62 bd 8f 92 4c 3e
       0.057938635 -0.212711 -0.05535345 0.19977783
000380 c7 60 88 3e 8e e1 a2 bc d2 b6 f7 be 02 3f a3 3d
       0.26636335 -0.019882943 -0.48381668 0.07971002
000390 e3 2c 1e be 59 67 19 be 51 e9 fe 3e 48 61 0a 3f
       -0.1544681 -0.1498083 0.4978738 0.5405469
0003a0 0f 8b 3e 3f dc d0 2f 3f ca 35 49 be 8d 6f 6a 3c
       0.74430937 0.6867807 -0.19649425 0.014308822
0003b0 41 19 39 3e 59 bd 20 bd d4 79 12 bf 55 ee eb be
       0.1807604 -0.039243076 -0.57217145 -0.4608027
0003c0 10 42 7f 3f d0 fe e5 bd a4 cf e1 3d 68 52 e9 3d
       0.9971018 -0.11230242 0.110259324 0.11392671
0003d0 6f e7 9f 3e 38 69 9c be 11 78 29 3e 05 3a 52 bc
       0.31231257 -0.30549026 0.16549708 -0.012831216
0003e0 b4 13 37 3e fa 0e 2f bf 66 3c 0a 3f c4 12 0e be
       0.1787861 -0.6838223 0.5399841 -0.13874346
0003f0 e8 31 3f be b7 c1 ea 3d 3b 6e a1 be 12 e5 43 be
       -0.18671381 0.114627294 -0.31529412 -0.19130352

bias f4 [64]
000000 2d 73 b6 be 2a 38 86 bf 92 4d 06 bf 0c 3a 36 bf
       -0.35634747 -1.048589 -0.5246211 -0.7118232
000010 c3 46 7e be 00 5f 8a bf 08 be 8c 3f 1e 1a ee bf
       -0.24831681 -1.0810242 1.0995493 -1.860172
000020 d8 b4 9e 3e a8 97 07 3f c3 d3 ab 3e e6 95 92 bf
       0.30997348 0.52965784 0.3356 -1.1451995
000030 73 58 97 be d4 50 09 c0 0a b4 82 bf f9 9c a0 be
       -0.2955967 -2.1455584 -1.0211194 -0.3136976
000040 2b a8 b5 3e 81 e3 97 bf 4d 44 02 bf 32 53 fa bf
       0.35479864 -1.1866304 -0.5088547 -1.9556639
000050 be db 26 bd d6 b5 35 3e e3 9e 57 3f d6 d2 79 3e
       -0.040736906 0.17745146 0.84226817 0.24396834
000060 15 d5 d1 bf c0 d4 39 bf 80 fb 5f 3e e7 22 a0 be
       -1.6393152 -0.72590256 0.21873283 -0.31276628
000070 e1 37 99 3e ca f1 38 3d 65 8a 26 bf fa 3f 9d 3e
       0.29925445 0.045152463 -0.65054923 0.30712873
000080 64 2d 65 3e 08 21 05 be d7 dd 56 be 9b 04 c2 be
       0.22380596 -0.13000882 -0.20983063 -0.3789414
000090 91 0e 1e bf 0b e4 81 bf 5d 09 d3 3e 53 a0 85 bf
       -0.61740977 -1.0147718 0.4121808 -1.0439552
0000a0 b2 3b a3 bf 6f 8e 5b bf be d5 0f 3e 05 b6 6a bf
       -1.2752593 -0.8576421 0.1404638 -0.9168399
0000b0 8f 8d b3 bf 1b 9f ad 3d 43 b0 8c be f6 14 af be
       -1.4027575 0.084776126 -0.27478227 -0.3419568
0000c0 ff 0b c3 bf eb 19 7e bf bc 55 e0 bd 9c e2 26 3f
       -1.5238036 -0.992583 -0.109538525 0.6518953
0000d0 f9 41 db bf c8 aa 8b 3d 71 42 a0 bf be 19 e6 be
       -1.7129508 0.06819683 -1.2520276 -0.44941515
0000e0 1e 8d 35 bf 04 ac 98 3e 37 e8 b0 bf 29 6e aa be
       -0.7091845 0.29818738 -1.3820866 -0.3328717
0000f0 10 fd cc be 49 55 a4 be d3 e6 10 c0 0e 83 ad be
       -0.4003682 -0.32096317 -2.2640884 -0.3388905

weight f4 [32, 64]
000000 80 ac 95 be ec 6f e3 bd 45 0a fc be 2a 92 0e 3f
       -0.2923317 -0.11105332 -0.49226585 0.5569178
000010 2c 1f d3 be 3b 64 98 3e ee bc a8 be fc b1 80 3e
       -0.4123472 0.2976397 -0.32956642 0.2513579
000020 bf 48 7d be 10 05 08 bf f9 b9 5c be 10 2f 29 be
       -0.24734782 -0.53132725 -0.21555318 -0.16521859
000030 5a 9c 50 3e 60 9a 50 3f e8 ae 5c bf 58 b5 0a 3f
       0.20372143 0.8148556 -0.86204386 0.5418296
000040 90 54 50 bd 2a b6 3f 3e f6 65 eb be d8 ae 01 3f
       -0.050861895 0.18721834 -0.45976228 0.50657415
000050 09 82 89 bd b5 ae a4 be 40 5c 06 bf 91 af f2 be
       -0.06714255 -0.3216454 -0.5248451 -0.47399572
000060 ee c6 10 3f 45 44 fb 3e a0 41 13 bf 41 93 e5 be
       0.5655354 0.49075523 -0.5752201 -0.44838908
000070 7a 7d a2 be a8 73 e5 be c1 e2 d5 3e 72 97 1c bf
       -0.31736356 -0.448148 0.41774562 -0.6116859
000080 cf 82 21 be e5 49 40 3d 09 56 b4 be e4 2c 0a be
       -0.15772556 0.04694547 -0.3522189 -0.13493687
000090 51 bc 33 bf 73 f7 6e 3e f7 10 1b be 0a f7 94 be
       -0.70209223 0.23336582 -0.1514319 -0.29094726
0000a0 e7 88 2a 3d 3a e5 2b be de 01 f0 be ff 42 f3 bd
       0.041634466 -0.16786662 -0.46876425 -0.11878013
0000b0 96 86 21 be b2 a3 b6 be f6 61 2b be 0a 61 8e be
       -0.15773997 -0.35671765 -0.16736588 -0.2780841
0000c0 3c 42 b8 3f cf c0 c8 3c a2 a1 c7 be 5e 73 88 be
       1.4395213 0.024506 -0.38990504 -0.26650518
0000d0 2c c8 e5 3e 36 0d a8 be f3 fb 72 be 03 61 88 3e
       0.44879282 -0.3282258 -0.23728923 0.26636514
0000e0 84 08 97 3d ff 40 2f bd 65 91 d5 3e f8 f5 82 bc
       0.07374671 -0.042786594 0.4171249 -0.015986428
0000f0 09 ac 70 3e 8f f2 57 3e 41 bb cd 3e 19 70 78 be
       0.23503126 0.21088623 0.40181926 -0.24261512
000100 46 a7 3c bf 37 76 2b 3e 4d 70 e6 3e 2d 0a 97 be
       -0.7369274 0.16744314 0.45007554 -0.2949995
000110 8e d4 c6 3d cd 52 e8 be cd 72 f9 bd c4 c9 82 be
       0.0970851 -0.45375672 -0.121801 -0.2554456
000120 b8 47 d0 be a8 cc b4 be fb 32 13 be 0d a9 74 be
       -0.40679717 -0.3531239 -0.14374916 -0.23892613
000130 ef cc 79 bc 19 cf 7d 3e 46 c8 82 3d da 55 0b 3e
       -0.015246614 0.24786033 0.063858554 0.13606969
000140 d3 82 a2 3c 1a d5 e6 3e fe 1e d5 be df 1f 41 3f
       0.019837772 0.4508446 -0.41625208 0.75439256
000150 67 5c fd be 56 aa 94 bd 3d 95 e2 be 3b a6 31 3d
       -0.4948456 -0.072590515 -0.44254485 0.04337142
000160 a4 98 49 3e 83 30 49 3f 7e 3a b7 be 50 41 ff be
       0.19687134 0.7858965 -0.35786813 -0.49854517
000170 74 a9 8a be d0 e6 7b be 41 25 22 be 7c 45 d7 bd
       -0.27082407 -0.24599767 -0.15834524 -0.105113
000180 ed cc 94 be e6 54 be be 84 d2 1a be e3 b8 1a be
       -0.29062596 -0.37174147 -0.15119368 -0.15109591
000190 ac 96 ec be 78 8c d9 3c 52 68 e9 be eb ee 7c 3c
       -0.46208704 0.026556239 -0.45587403 0.015437822
0001a0 d8 15 02 3e dd de c3 be 63 ce 22 3c 42 32 93 3e
       0.12703645 -0.3825597 0.009936902 0.2874928
0001b0 05 76 2c be 66 b5 0a bf 19 77 97 be b7 99 67 be
       -0.16841896 -0.5418304 -0.29583052 -0.22617231
0001c0 2e 7b bc 3f c8 0b 3b bf db 71 ca be bd 04 5e be
       1.4725091 -0.7306485 -0.3953999 -0.21681495
0001d0 fd a0 3a be c8 f6 09 be 90 71 d1 3e c4 33 35 3e
       -0.18225475 -0.13473046 0.40906954 0.17695528
0001e0 c0 4b 5f 3e ce f8 ac be 1f 06 4d 3f df cf f4 be
       0.2180624 -0.33783573 0.80087465 -0.47814843
0001f0 d6 7a fa bc 69 8f e7 be 47 29 55 3f df ff a5 3d
       -0.03057615 -0.452266 0.8326611 0.08105444
000200 0a e3 6d be cc 34 c8 be 3b 38 42 be 12 be ea bd
       -0.2323114 -0.3910278 -0.18966763 -0.11462034
000210 45 eb 1f be 5d 6f c6 3b 55 49 e8 bd 59 8c 37 be
       -0.15617092 0.006055756 -0.11342112 -0.17924632
000220 35 a0 84 be e6 4f af be 74 9d c1 be 87 63 ad be
       -0.25903478 -0.34240645 -0.3781544 -0.33864996
000230 f5 27 9f be 7b c5 ab 3d d4 22 67 be 26 a7 cf be
       -0.31085172 0.08387276 -0.2257188 -0.40557212
000240 44 b2 40 be ab 60 1d 3f 34 9a 10 3e 3d 56 e6 3d
       -0.18818003 0.6147563 0.14121324 0.112469174
000250 f9 b0 7e be 3b c0 5b be c2 3b 0e be f2 4c 4e be
       -0.24872197 -0.21460049 -0.13889983 -0.2014654
000260 f0 21 85 3e 70 4f 3c be 1e 06 8d be 30 8b 95 be
       0.26002455 -0.18389678 -0.2754373 -0.29207754
000270 8b 31 a6 bd ba c4 2d be 30 3f 57 ba 95 b0 a8 bb
       -0.08114918 -0.16969576 -0.0008211015 -0.0051480033
000280 37 94 63 be b4 2c c8 bd d3 f2 17 bf a2 5e e6 bc
       -0.22224508 -0.097741514 -0.59354895 -0.028121296
000290 5f 66 20 bd f0 c1 00 bf 99 9c a7 be c4 53 69 bc
       -0.03916013 -0.50295925 -0.32736662 -0.014241163
0002a0 8b 08 06 3f 00 84 6c bd 18 53 47 be 46 b7 54 bd
       0.52356786 -0.057743073 -0.19465292 -0.051932596
0002b0 98 80 e6 3d b6 e9 86 be e0 dc 91 3e 70 01 9e be
       0.11254996 -0.26350182 0.28488827 -0.30860472
0002c0 a2 9f 8a 3f ad 83 0f be 39 b9 29 be dd 4f 81 be
       1.0829966 -0.14015074 -0.16574563 -0.25256243
0002d0 70 1e 17 3e 2d 1c 08 be f3 3c ff be 72 f2 e3 3d
       0.14757705 -0.13291998 -0.49851188 0.11130227
0002e0 10 2f 0f 3e e5 74 f1 be dc 3c 9e 3c 2b ca d7 bc
       0.13982797 -0.47159496 0.01931613 -0.026341518
0002f0 b3 9c 37 be de c3 a9 be 99 a1 0b 3f 0b c8 94 be
       -0.1793087 -0.33157247 0.54543453 -0.2905887
000300 a1 80 1b 3f 06 34 e3 bd 6a 06 09 be a0 18 83 bc
       0.6074315 -0.11093907 -0.13381353 -0.016002953
000310 b6 01 06 3f 0e 81 7b 3d d3 60 11 bf 89 e5 7e 3e
       0.5234636 0.061402373 -0.5678837 0.24892248
000320 f3 82 fe bd f0 8d eb be 79 e9 ef be e0 28 c8 3e
       -0.1242732 -0.46006727 -0.46857813 0.39093685
000330 a6 91 19 bc 3f 19 99 3e 54 80 a5 be 14 13 13 bf
       -0.009373104 0.29902074 -0.3232447 -0.57450986
000340 ba b3 aa be c8 a0 25 3e 0a 1e d5 be 16 d5 c6 3e
       -0.33340245 0.16174614 -0.4162448 0.38834447
000350 a2 33 b1 be ce 31 28 be b3 6f 85 bd da 0a 18 bf
       -0.34609705 -0.16425249 -0.065154456 -0.5939156
000360 a4 4f 1e 3f 89 66 75 be a2 77 1c bf 46 75 84 be
       0.6184027 -0.23964895 -0.61120045 -0.25870723
000370 99 a3 c9 bd d8 01 f2 be ce 42 3c be 82 cc 41 be
       -0.09845657 -0.47267032 -0.18384859 -0.1892567
000380 f8 07 81 be eb d2 6c be 10 50 44 3d b6 9e 72 be
       -0.25201392 -0.23127334 0.047927916 -0.23693356
000390 24 13 b8 be 99 a1 9b be 38 09 4f be e1 98 46 bd
       -0.35952103 -0.30396727 -0.2021836 -0.04848564
0003a0 f3 92 dc 3d 6d 67 ca bd 9a d2 1b bf 5f 8c c1 be
       0.10770216 -0.09883008 -0.6086823 -0.37802407
0003b0 e9 d4 85 bc 68 cf bf be c7 44 bd 3d 87 57 ac be
       -0.016336875 -0.37462926 0.09241634 -0.33660528
0003c0 d2 ab a6 3f 61 fa 11 bf e7 53 57 be 28 f4 ae be
       1.3021185 -0.5702267 -0.210281 -0.3417065
0003d0 e9 21 cc be 17 f1 c9 be 34 9a ad be c3 e2 03 3f
       -0.3986962 -0.3944175 -0.3390671 0.51517886
0003e0 23 73 2c 3e 36 8d 8f bf f6 e2 0a 3f 93 d4 bc be
       0.16840796 -1.1214969 0.54252565 -0.3688093
0003f0 92 ac 1e bf 1c 91 2c bf 41 61 bf 3e c7 1c 03 bf
       -0.6198207 -0.6740892 0.37378886 -0.51215786

bias f4 [32]
000000 af 5d c5 bf 77 7e 82 bf 4c 16 3a bf 78 79 96 bf
       -1.5419215 -1.0194844 -0.7269027 -1.1755819
000010 ac 5e 70 bf 31 3d a8 bf 59 5a 21 bf 0f 8a 8a bf
       -0.9389446 -1.3143674 -0.63028485 -1.0823382
000020 d7 b6 3e bf 55 c1 b0 bf 6f 8d 82 bf 72 ca 25 bf
       -0.7449774 -1.3809 -1.0199412 -0.6476203
000030 45 cf 9c be c0 6e 82 bf 8c 90 3a bf e6 80 93 bf
       -0.30626884 -1.0190048 -0.7287681 -1.1523712
000040 9b 83 89 bf 5e b9 f0 bf bc 67 6b bf 97 28 58 bf
       -1.0743288 -1.880657 -0.9195516 -0.84436935
000050 ac 10 84 bf ff 47 a7 bf 7e 7b 17 bf 8b 10 3c bf
       -1.0317588 -1.3068846 -0.5917281 -0.7346274
000060 da 18 89 bf 9b 61 a6 bf ee 6e 66 bf fa 77 0a bf
       -1.0710709 -1.2998537 -0.90013015 -0.5408932
000070 e5 59 11 c0 72 7d 82 bf d3 63 42 bf 65 ed 12 bf
       -2.2711117 -1.0194533 -0.7593357 -0.57393485

weight f4 [1, 32]
000000 0b 0f db 3c 93 af f6 3c 9b 1f 08 3d 4f 96 fc 3c
       0.026740571 0.030113017 0.033233266 0.030833391
000010 73 6c 39 3c a0 0f 07 3d 6d bb 36 3d a5 a7 86 3c
       0.01131736 0.032973886 0.044612337 0.016437361
000020 e3 d0 bb 3c 7b 78 cd 3c 69 7d 44 3c 08 db dd 3c
       0.022926753 0.025081864 0.011992791 0.027081981
000030 89 8f 18 3d 66 67 e8 3c 20 92 b0 3c 0b 8c 50 3c
       0.03724626 0.028369617 0.021554053 0.012728701
000040 48 b9 b9 3a 34 b1 ef 3c 41 ab 72 3c 1d 66 ea 3c
       0.0014169598 0.029259302 0.014811338 0.028613145
000050 db 15 e8 3c a4 1e cf 3b b2 75 9b 3b ac d8 98 3c
       0.028330734 0.0063207913 0.004744255 0.018658005
000060 eb e8 35 3c 19 74 15 3c 4f d8 4c 3c b5 2d 5d 3c
       0.011102895 0.009121918 0.012502744 0.013499667
000070 5e 37 d5 3c c7 6a 29 3d ad d5 cb 3b c0 08 05 3c
       0.026027378 0.041361596 0.0062205405 0.008119762
