Models/TrainedModels/FCNNs/FCNN3.pt (torch, 17479 bytes, 5 tensors)

weight f4 [64, 22]
00000000: 05a5 5e3c d579 e93d f672 7b3e 4952 46bf
00000010: a3b1 0d3f 4af6 7ebf aa36 1fbe 9994 c1bc
00000020: b8bf 573f a37b 393f e0f6 9a3e 6506 21bf
00000030: 4feb 083f 8602 aebd 1171 eebc a203 d4be
00000040: d941 ba3e dccd 283e cde4 c4be 2fa9 82bd
00000050: 113e 87be fcab 4b3e 0783 353e 749d e4bd
00000060: 6b6b ee3e 19af a9be 02af bc3e c45e 5ebd
00000070: 648c a23e d8ab 073f cbbb 173f 8380 59be
00000080: aabc 0c3f 9281 bebd 4438 4e3e d2d9 9b3d
00000090: 68c1 083f 4e1b 42be cd11 113f 9015 1cbf
000000a0: 94f3 f1be 789e 31be 3e13 f7be 133c d43e
000000b0: c7b8 b2bf 4521 9f3d 34f3 2c3f ee0c 1e3f
000000c0: 5540 093e 0e21 973e 6137 04bd 0a6c 4f3e
000000d0: 8c96 d73d 31b5 0b3f 5547 d53e 4b9a 623e
000000e0: a06f 163f 0c74 07be c4af df3e bc89 19be
000000f0: 3c7c d4be 57a8 1dbe 9b7a a73e dc59 74bf
00000100: 12ce 3c3e 5619 8d3f a40a d43e ab66 673e
00000110: 2541 e2bd 8bf0 123f 1b72 c7be b95e 2d3e
00000120: 7638 483e dd08 a3be 8311 e2be e285 263d
00000130: 0a21 5d3e f1f5 4c3f 1cbb 8fbe 95a1 7b3f
00000140: 808f 40bb a20a 813f 58dc 34bf 09e9 8fbe
00000150: 6c68 a7be 3cff 1dbf 8ebd 09bf 1d1a 46be
00000160: b51f 5cbf 623a 57be 4fa3 c03e eace 9a3e
00000170: a082 d23e ebe5 98be dfa5 d5be 7cff b3bd
00000180: 04ba a73e f18c f63e 2bbd 393e f718 a03d
00000190: 0036 89bd 02ad 463c ed6e b43d ee8c 313e
000001a0: 44bc 08bf 5ef2 3f3d 144f 9abe b450 d83e
000001b0: e4a3 513f fd4f 7d3e ea43 9abe f8de 08bf
000001c0: 7dce f73e 3b99 943f bdb2 5cbe bc88 a4bd
000001d0: 0e01 bc3d 8189 103f 9a93 ee3d f67f 76be
000001e0: 6945 c93e b94a 7ebe 4455 fc3e 6378 df3e
000001f0: b5c9 113f 173b 293d de42 f93e 41d4 1dbe
00000200: b0d3 803c c321 bd3c e1b0 253f aa39 2abe
00000210: 00d9 2f3f 8cf4 d23e 1af5 fc3e ffff 42be
00000220: cb0f 643f 754d 9cbe bd8a 053f f327 dcbd
00000230: ab6f 0c3f 1ca8 fd3d d2ec 0e3e 9dbe 63be
00000240: e473 e63e 139d 3cbe cd06 70bd 7d31 fdbe
00000250: 0900 ff3e 0129 01bf e27d edbe 1d3f 0fbe
00000260: f968 cb3e eaca b63e 2a63 543e 76c8 56bc
00000270: b405 973e 5c08 893e e3b9 7b3d e55e 0ebd
00000280: 038c 683e 2614 e3be 1bbc 2f3e 900e 043f
00000290: bcb9 873d fa06 123e e75f 943e 90ae 8e3e
000002a0: fe55 9b3e 36bf c9bd 9757 903d faed 8fbe
000002b0: 677e 1e3e aca8 313f 04bf 793e 690c 063c
000002c0: c578 703d 726e 8ebe 89a8 adbd b14c ce3e
000002d0: 738b 203e f326 cd3e 9435 373e de12 103e
000002e0: 61f9 b53d 8e2a a43e 4a7b 163d 4d0c 8c3e
000002f0: 4a80 42be 8aba 923e c4ee 5a3f 3e9d f13e
00000300: d3c9 8abf 4f5f 043e 6a87 ecbe 141f fabe
00000310: 7565 ce3e ee76 163e 2cbf 04be c320 3fbf
00000320: a492 a23e 4173 533e fdd9 14be cf33 cdbe
00000330: 809e a7be 2493 b73e e176 163a a0cd 15be
00000340: faea 34bf 66f0 bc3e 9624 5f3e 8e2e abbd
00000350: 7009 7b3e 79d8 1b3e b70e 433d 951f 0abe
00000360: 5a53 0e3f f212 ba3e fab0 ad3e 3cc3 ae3d
00000370: d781 b4be d96c 243e 13e4 543e 2c44 e9bd
00000380: 3d72 d43e 43f1 0fbf cd12 42bf 0ab4 8a3e
00000390: 654b 853e 86a0 7b3f 92c8 3d3f a019 e9bd
000003a0: 8e8e 29bf f1ea 3bbe 57df fb3d 4a99 dc3e
000003b0: f0b8 313e e96e 873e c912 92be 15e2 a8be
000003c0: 4d7a 1abe 147d 223e b3b8 87be e53a a6be
000003d0: 8fe4 c5bd 42d4 983e d4da 55be 4508 bf3e
000003e0: 519f e53e 5180 c7bb 506c a03d 4111 03bf
000003f0: fdc0 19bf bfbc c13e b60b ac3c 0fe7 50bf
0.013589148 0.11400191 0.24555573 -0.7746931 0.5534918 -0.9959456 -0.15548196 -0.023630427
0.84276915 0.7245428 0.30266476 -0.6290038 0.5348405 -0.08496575 -0.029106649 -0.41409022
0.36378363 0.16484779 -0.3845581 -0.063799255 -0.2641454 0.19889826 0.17725764 -0.11162844
0.46566328 -0.331414 0.3685227 -0.054289594 0.31747735 0.5299659 0.59270924 -0.2124043
0.5497538 -0.09302057 0.20138651 0.07609905 0.53420115 -0.18955728 0.56667787 -0.609704
-0.47256148 -0.17345607 -0.48256868 0.41452083 -1.396264 0.077700175 0.675586 0.6173848
0.13403447 0.29517406 -0.032279376 0.20256057 0.105267614 0.5457335 0.41655985 0.2212917
0.58764076 -0.13227862 0.43688786 -0.14993948 -0.41501033 -0.15396248 0.32710728 -0.95449615
0.18437985 1.1023357 0.41414368 0.22597758 -0.110475816 0.5739829 -0.38954243 0.16930665
0.19552788 -0.318427 -0.44153985 0.040655024 0.21594635 0.80062777 -0.2807244 0.9829343
-0.0029382408 1.008137 -0.7064872 -0.2810748 -0.32696855 -0.6171758 -0.5380486 -0.19345899
-0.8598588 -0.21018365 0.37624595 0.30235988 0.41115284 -0.29862913 -0.41728112 -0.08788964
0.32759106 0.48154405 0.18138568 0.07817262 -0.06699753 0.012126209 0.0881022 0.17338917
-0.5341227 0.046862 -0.30138457 0.42249072 0.818907 0.24737544 -0.3012994 -0.53465223
0.48399726 1.1609262 -0.21552558 -0.080338925 0.09179889 0.56459814 0.116492465 -0.2407225
0.39310768 -0.24833192 0.49283803 0.43646535 0.56948406 0.041316118 0.48683828 -0.15413
0.01572594 0.023087388 0.6472302 -0.1662356 0.6869049 0.412022 0.49405748 -0.19042967
0.890866 -0.30527845 0.5216482 -0.10749807 0.5485789 0.1238558 0.13957527 -0.22240682
0.45010293 -0.18419294 -0.058600236 -0.4945182 0.49804714 -0.5045319 -0.46385103 -0.1398892
0.39728525 0.35701686 0.20740953 -0.013109317 0.2949654 0.2676419 0.061456572 -0.034758467
0.2270966 -0.4435131 0.171616 0.5158472 0.06627223 0.14260474 0.28979418 0.27867556
0.30339044 -0.09850924 0.070479564 -0.2811125 0.15477906 0.69398 0.24389273 0.00818167
0.058708925 -0.27818638 -0.08479411 0.40292886 0.15678196 0.40068778 0.17891532 0.14069697
0.08885456 0.32063717 0.03673867 0.27353135 -0.18994251 0.28657943 0.8552058 0.4719028
-1.0842842 0.12926982 -0.46197063 -0.48851836 0.4031178 0.14693806 -0.12963551 -0.74659365
0.31752503 0.20649435 -0.14536281 -0.4007859 -0.32738113 0.35854447 0.000573976 -0.14629221
-0.70671046 0.3690216 0.217913 -0.08358489 0.24515319 0.15219297 0.047621455 -0.1348861
0.55595934 0.3634258 0.33924085 0.08533332 -0.3525531 0.16057147 0.20790128 -0.11389956
0.41493407 -0.5622751 -0.7580994 0.27090484 0.26034084 0.98291814 0.7413417 -0.11381841
-0.66233146 -0.18351342 0.12298458 0.430857 0.17355704 0.26451805 -0.28529957 -0.32984987
-0.15085717 0.15868026 -0.26508102 -0.32466808 -0.09662735 0.2984944 -0.20884258 0.37310997
0.4484811 -0.0060882946 0.07833159 -0.511982 -0.600601 0.37839314 0.021001678 -0.8160257

bias f4 [64]
00000000: 6aa9 c33d df2c 01bf 1dd1 72bf 912f 1a3f
00000010: 2dd1 20bf a24e d8be 805a 6fbe 1a4c aebf
00000020: f7ed 02bf 5268 3bbf 394e 1dbf 5b68 2ebe
00000030: 27bb 66bf 5e42 93bf 5490 10bf 6820 cc3d
00000040: 8fbf 72bf aeec 41bf 0da8 433f 4007 5abf
00000050: 0302 34bf 9dec eabe 94db 85bf be08 12bf
00000060: a889 dcbd 6c9a 87bf 1136 37bf 5da8 c5be
00000070: 7f01 02bf 2433 8dbf 2bce e5be 5ddd 36bf
00000080: 4571 8cbf 125b 9ebf ad29 9dbf 2069 6dbe
00000090: b55b 14bf afff aabf 7c86 8dbf 9037 4cbe
000000a0: c0e4 b3be 76c0 32bf e1fa 9ebd 46a7 12be
000000b0: 242a 68bf 2b74 39bf 44ab 97bf 78c3 7bbf
000000c0: f88b 64bf 6ac1 04bd 6db9 10bf fb4d 38bf
000000d0: 07a0 adbf 4990 63bf ccab a5bf abb7 1cbf
000000e0: 15dc 8abe 0fd5 f13e 6104 70bf 9ef5 39be
000000f0: 1c21 85bf 96d2 6dbf e86c 1c3f 22dd e8be
0.095537975 -0.5045909 -0.9485033 0.6022883 -0.62819177 -0.42247492 -0.23374367 -1.3616974
-0.51144356 -0.73206055 -0.61447483 -0.17031996 -0.9012932 -1.1504629 -0.5647023 0.099671185
-0.94823545 -0.7575177 0.764283 -0.8516731 -0.7031557 -0.45883647 -1.0457635 -0.5704459
-0.10768443 -1.0594001 -0.71566874 -0.38605013 -0.5078353 -1.1031232 -0.44883856 -0.71431524
-1.0972067 -1.2371542 -1.2278343 -0.23184633 -0.57952434 -1.3359278 -1.1056666 -0.1994307
-0.3513546 -0.6982492 -0.07762695 -0.14321622 -0.906893 -0.72442883 -1.1849141 -0.98345137
-0.89276075 -0.032411017 -0.5653294 -0.7199399 -1.3564461 -0.88892037 -1.2943053 -0.61217755
-0.27121034 0.47232863 -0.9375668 -0.18160102 -1.0400729 -0.92899454 0.6110368 -0.4548121

weight f4 [32, 64]
00000000: b387 2ebf bb6f 55bf 9c69 eabd b4c5 e93d
00000010: 5ac0 26be 8303 3ebe f247 37bf 21ed 813e
00000020: 8b0d 12bd 71f0 b43c e572 3abe 8136 283d
00000030: e3a9 b4be 6197 1bbe 9249 06be 58ae 06be
00000040: fa07 2c3d c2f4 45bd b016 ecbf c61f 50be
00000050: ffbe 80be 82f8 0bbd 5b80 8a3d 7306 49bf
00000060: eb02 f939 0c67 a1be 880c 383d 76d8 e7be
00000070: 626d dbbd df31 a6be 0a8e 883e 8ef7 9fbe
00000080: 1fbf 9cbd 6238 8bbe a842 69be 8e00 87be
00000090: 41df 3e3e ab6c 91be 578d 68bf e52d 87bf
000000a0: e063 7bbd 2888 b4be 6c27 123e e0df 34be
000000b0: 5d72 17bf 8dda 69bf 76fa 0f3e e3d6 9dbe
000000c0: 1d0d 0a3e 6e93 b1bf a591 3dbf 76e9 9abe
000000d0: 23ba 51be 1b81 e33c 879f d1bb 5e30 d0be
000000e0: 7263 51be 1ea9 1bbe 7feb 89bf 223f 28bd
000000f0: 73bb b8be 0bd4 17bd 0d10 27be 98fb 1dbf
00000100: 3dc6 91bf f044 fdbe 801d d03d 26a9 6c3d
00000110: 05b4 8ebd 7c68 22bf a35b 29bf f085 ea3e
00000120: 7f08 3f3d b0b8 d23e 90df aebe 2e0c 23be
00000130: 2f60 ec3e e9dc 083e a381 a6be 36d4 e6be
00000140: 5c32 2dbd e918 88bd e8c3 43bf 3564 89bd
00000150: 1062 c13c e6ba dfbe 95b5 f8be 507b 933d
00000160: a202 cd3d 9904 c8be 429a afbe eb0e a33d
00000170: 3097 0e3f f393 15bf 820e 4bbd ec66 10bf
00000180: cba2 3cbe 18b0 0fbf e881 16be eca0 acbe
00000190: 2c9d 06bf 598b fabe 2be3 62bf 9683 80bf
000001a0: 71d2 233d 5322 1ebf c01a 51be f446 e63e
000001b0: 7267 ad3d ffc8 69bd d4be e0be 31be 643e
000001c0: 2129 acbd 032a e0be bb7f e8bd 4cdb 48be
000001d0: 4d45 34bf 2c34 e8be ed07 aabe 9651 ffbe
000001e0: e8ca ab3e 9da9 71be 6654 35be 73b5 ecbb
000001f0: 705a 4dbf 110c a4be 0b4b 02bf 6593 8dbf
00000200: b487 353d a2a4 d73e e3da 37bf 6110 95be
00000210: b7d8 503d 1d8d d03e 9cd6 143e 4eb0 b83e
00000220: f267 f4be 0ff1 643d 7895 8abd 0f52 83bf
00000230: ac65 cebe 4b8f 1bbf f239 2fbf a705 3ebf
00000240: f524 823c 8c59 d13d da4c 9c3e 4818 ce3e
00000250: bdde 88be f813 193f 12ea 64be 7995 79bf
00000260: ae2b 84bf 27de 0fbf 7a19 bcbe 60cd 37be
00000270: 70e6 7ebf c958 49be 6b63 06bf 35c1 4b3e
00000280: e4f8 0bbf 4eb9 ad3e fabf 5fbe 15ec 95bf
00000290: 3472 adbf 2366 e8be 5df6 273f f56d 25bf
000002a0: ba5a a4be 15a6 c03e e9e0 adbe 35a7 0ebf
000002b0: 1218 89bc 6349 be3b b73c 9dbd 2209 15bf
000002c0: f0d1 a1be 7ea7 c9be 4ba9 00bd 0c5f e6be
000002d0: e851 693e 7357 05bf 27ce 16bf 5cb1 25bf
000002e0: d8df 64bf be7b ddbe a82f dfbe 26a7 78be
000002f0: 5dc7 673e 3276 7cbe e60b ee3d d26b f0bc
00000300: 0db3 6abf c6ea a5be 2f95 103f 0ef4 42bf
00000310: ddcc de3e bb74 b5be e47b 62bf 911a 763d
00000320: 5dc6 89bc 4b12 98be db61 e8be 7b19 933d
00000330: ea2d d3bd 62c2 f9bd 6c7a a1be 72e8 ad3e
00000340: a799 8dbf 7be8 a4be 7208 8dbf 7225 e4be
00000350: 569d 97be 2484 c3bd 415e f0be 18c6 04bf
00000360: 6b8c 0abf 39d9 d9be f93d c7bc 1909 06bf
00000370: 4dee 51be f8e9 c33e d9fd b73e ab87 0e3e
00000380: 75aa 103f a46a 5dbf e2f4 923d e785 07bd
00000390: ac26 97be 0430 f1be 182a a83d 260d 41be
000003a0: e515 d3be be17 19bf 18b2 38bd e4f0 c7be
000003b0: 208c f2be 1444 a5bf 80b2 563d e4e3 fdbe
000003c0: 5c46 e8be be24 56bf e53c 31bf 5b7e 04bf
000003d0: bef5 503e 89b5 42be 59cf 5a3e 2302 25bf
000003e0: 56be c03c 91fb e9bc 7563 c6be 3c55 f33d
000003f0: cb1f e9be e6f8 3cbf 9de7 133e 8493 6fbe
-0.6817581 -0.8337361 -0.11445925 0.11414662 -0.16284314 -0.18556027 -0.71594155 0.25376227
-0.035657447 0.022087308 -0.18207891 0.041067604 -0.35285863 -0.15194465 -0.13114002 -0.13152444
0.041999795 -0.048329122 -1.8444424 -0.2032462 -0.25145718 -0.034172542 0.06762763 -0.78525466
0.00047495155 -0.3152393 0.044933826 -0.45282334 -0.107142225 -0.32459924 0.26670867 -0.31243557
-0.07653641 -0.27191454 -0.22779334 -0.2636761 0.18639852 -0.2840322 -0.9084067 -1.0560881
-0.061374545 -0.3526013 0.14272851 -0.17663527 -0.5915888 -0.9134911 0.14060387 -0.30828008
0.13481565 -1.3873117 -0.7405036 -0.30256242 -0.20481162 0.027771523 -0.006397191 -0.406619
-0.20448092 -0.15201232 -1.0774993 -0.041075833 -0.36080512 -0.037067454 -0.16314717 -0.61712027
-1.1388623 -0.49466658 0.10161877 0.0577785 -0.0696793 -0.6344068 -0.6615545 0.4580531
0.046638962 0.4115653 -0.3415494 -0.15922615 0.46167132 0.1336552 -0.3252078 -0.4508378
-0.042284355 -0.06645376 -0.76470804 -0.06708566 0.02360633 -0.4369728 -0.48576036 0.07201254
0.10010268 -0.39066008 -0.34297377 0.0796183 0.55699444 -0.5842888 -0.049574383 -0.56407046
-0.18421476 -0.5612807 -0.14697993 -0.33716524 -0.52583575 -0.4893444 -0.8862788 -1.0040157
0.039995614 -0.61771125 -0.2042036 0.44976008 0.08466996 -0.05707645 -0.4389559 0.22338177
-0.08406282 -0.43782052 -0.11352488 -0.19614905 -0.70418245 -0.45352304 -0.33209172 -0.49866933
0.33553243 -0.23599859 -0.17707977 -0.007223779 -0.8021612 -0.32040456 -0.50895756 -1.1060606
0.04431887 0.42117792 -0.7181837 -0.2911406 0.050987925 0.4073266 0.14534992 0.3607201
-0.47735554 0.055893954 -0.0676679 -1.0259417 -0.40311944 -0.6076552 -0.6844779 -0.74227375
0.015886763 0.10222158 0.30527383 0.402529 -0.26732436 0.59796095 -0.22354916 -0.974937
-1.032583 -0.5619835 -0.36738187 -0.17949438 -0.9957037 -0.19662775 -0.5249545 0.19897921
-0.5467665 0.3393044 -0.21850577 -1.1712672 -1.3550477 -0.45390424 0.65610296 -0.64620906
-0.3210047 0.3762671 -0.33960655 -0.5572389 -0.01673511 0.005807088 -0.07677596 -0.5821706
-0.31605482 -0.393856 -0.03141145 -0.4499439 0.22785151 -0.5208656 -0.58908314 -0.64723754
-0.8940406 -0.4325847 -0.43591046 -0.24282512 0.22634645 -0.24654463 0.11623363 -0.029348288
-0.9167946 -0.3240568 0.56477636 -0.7615365 0.43515673 -0.3544062 -0.8847029 0.06008393
-0.01681822 -0.29701456 -0.45387158 0.071825944 -0.10311492 -0.12195279 -0.31538713 0.33966404
-1.1062516 -0.3220862 -1.1018202 -0.44559819 -0.29612225 -0.09546688 -0.4694691 -0.5186477
-0.5412051 -0.4254854 -0.024321543 -0.5235763 -0.20501061 0.38264441 0.35935858 0.1391894
0.56510097 -0.86490846 0.07175614 -0.033086684 -0.29521692 -0.47106946 0.08211154 -0.18852672
-0.41227642 -0.5980185 -0.04509172 -0.39050972 -0.47372532 -1.2911401 0.052416325 -0.4958793
-0.4536618 -0.83649814 -0.6923354 -0.51755303 0.20406243 -0.19014563 0.2136816 -0.64456385
0.02352826 -0.028562339 -0.38747755 0.118814915 -0.4553207 -0.7381729 0.14443822 -0.23396116

bias f4 [32]
00000000: db0a c2be 6e7d 1abf 8fc1 debb 1e5a 19bf
00000010: e006 503f e436 73bf d4eb 05bf 8ea8 32bd
00000020: 9792 1ebf f383 59be 8541 7dbf c5fc 9ebf
00000030: 80bd 8bbf 1047 b1bf 790a aabe 9dc0 b7bf
00000040: b677 68bf 8b24 07bf c22f 353e 5fb0 64bf
00000050: 8ff0 aa3e c8f4 283f aaa9 82bf 7235 34bf
00000060: 227e b3bf 6bee a53e a4c8 0f3f 3f83 f93e
00000070: 4e19 5c3f 2b37 503d c881 c9be 089f 22bf
-0.37898907 -0.6034764 -0.0067979763 -0.5990313 0.8126049 -0.9500563 -0.5231297 -0.043617778
-0.6194243 -0.21241741 -0.989281 -1.2420889 -1.0917206 -1.3849812 -0.33211115 -1.4355656
-0.90807664 -0.52790135 0.17694 -0.8933162 0.33386657 0.65998507 -1.0208027 -0.7039405
-1.4022868 0.3240846 0.5616553 0.48732945 0.8597611 0.050833862 -0.39356828 -0.6352391

weight f4 [1, 32]
00000000: 8ef1 4cbe d25d c6bd 56c2 433d 6ee3 ebbd
00000010: 46fa 3cbd ff4a ccbd 0ec6 e73d 76bd fdbc
00000020: 38a4 cf3d f609 bc3d 72f7 2d3e 170a 883d
00000030: d4b2 0c3e 7bdc 9e3d c4c4 8a3d 9b2e c73d
00000040: f78f 0f3d 786f bc3d 637d 02be 65ba c1bd
00000050: 8da6 69bd dfc4 84bd 7bfa a9bd 8212 223e
00000060: a712 12be 4520 c03d 9ca4 cb3d c1ca 123d
00000070: 8e34 80bd 1c51 72bd f913 07be a8d3 8d3d
-0.20014021 -0.096858636 0.047792755 -0.11517988 -0.046137117 -0.09975242 0.11317073 -0.030974131
0.10138744 0.091815874 0.16988924 0.066425495 0.13740093 0.07756897 0.06775811 0.09725686
0.035049405 0.092009485 -0.12743144 -0.0945938 -0.0570436 -0.06482863 -0.082997285 0.15827373
-0.14264928 0.09381155 0.09943506 0.035837892 -0.06260024 -0.059159383 -0.13191213 0.06925136
