Models/TrainedModels/FCNNs/FCNN4.pt (torch, 83311 bytes, 9 tensors)

fc1.weight f4 [64, 22]
000000 54 85 70 3e 03 91 f9 3e 7b 56 c2 be 73 8d 90 be
       0.2348836 0.48743448 -0.37956604 -0.28232917
000010 aa c4 e9 bd c1 dc fe 3e 5b 31 96 3e de 5e 49 3e
       -0.11414464 0.49777797 0.2933453 0.19665095
000020 6a 68 04 bf a9 56 f0 3c f1 c8 0e 3d 6b 7d 7a 3f
       -0.51721823 0.029338198 0.0348596 0.9784762
000030 2b 3e c0 3e 4b a6 c1 be 49 79 b9 be 54 b8 52 3f
       0.3754743 -0.37822184 -0.36225346 0.8231251
000040 a4 56 83 be 2e ab ff be 55 0a 80 be 1c 19 10 3e
       -0.2565204 -0.49935287 -0.25007883 0.14072078
000050 c2 a7 cd be 7f fb 2d 3d bb d8 d9 be 75 86 3d bc
       -0.40167052 0.042476173 -0.42548165 -0.011567702
000060 d3 97 30 be b4 b1 67 3e f2 f7 11 be bd 43 47 3e
       -0.17245416 0.22626382 -0.1425474 0.19459434
000070 cf d6 0e bf a8 65 da 3e 45 e9 31 bd f4 f2 86 3e
       -0.5579652 0.42655683 -0.043435354 0.26357234
000080 6c 0c c8 be bb 48 bc 3d dd fc 9f 3d 75 97 8f 3e
       -0.39071977 0.0919356 0.07811902 0.2804524
000090 6d e8 7f 3d 6c a8 21 be 31 b6 05 bd 94 d5 f1 3e
       0.062477518 -0.15786904 -0.032644454 0.4723326
0000a0 49 75 22 3e f9 13 a8 bd d3 97 81 3f ff d1 0a bf
       0.15865053 -0.082069345 1.0124458 -0.5422668
0000b0 a5 7b 5a 3f eb 49 9b be 82 be e2 be 49 f1 88 be
       0.85344917 -0.30329832 -0.4428597 -0.26746586
0000c0 86 43 b1 be 0f 3f a9 3d 9d 85 15 be 8e 3d 2e 3e
       -0.3462183 0.082639806 -0.1460175 0.17015669
0000d0 8b a4 01 be c2 17 e4 3e b1 24 8c be c0 58 08 bf
       -0.12660424 0.44549376 -0.27371743 -0.5326042
0000e0 e4 ca 34 bf 9c f9 cc 3e 02 84 84 bd 92 37 98 bd
       -0.70622087 0.40034187 -0.06470491 -0.07432474
0000f0 bb 32 99 3e 30 fc 28 be a7 c0 aa bd 65 47 dd 3e
       0.29921517 -0.16502452 -0.08337527 0.43218532
000100 12 c8 3e be 31 dd 4c 3f df ab 8b 3d 19 9f 84 bc
       -0.18631008 0.8002501 0.06819891 -0.016189145
000110 ee 2f 4c 3e 52 08 c1 3e d3 c9 a9 bd f5 a1 99 bd
       0.19940159 0.3770166 -0.08290448 -0.07501594
000120 16 26 d9 be eb b8 a7 bd 77 0b 64 be 32 44 56 3f
       -0.4241187 -0.08189567 -0.22269998 0.8369781
000130 7c 4f 01 be d4 09 ef 3e 91 2e 2c be 1e 30 98 3e
       -0.12627977 0.46687186 -0.16814639 0.2972421
000140 48 ec fb bd 74 d5 08 3f 17 8a 7e 3e 2d 98 00 bf
       -0.123009264 0.53450704 0.24857365 -0.502322
000150 ab 75 fc be 23 24 ea bd d3 43 d7 3e 01 b5 05 3f
       -0.49308524 -0.11432674 0.42043933 0.52229315
000160 ef d4 46 3e 5a 0f 0f bf 32 a7 1b 3e a8 aa be be
       0.19417165 -0.558828 0.15200499 -0.37239575
000170 0f af a7 3e 6f e0 23 3f 7a cd 65 3e 55 8e 8d 3e
       0.32750747 0.64014333 0.22441664 0.27647653
000180 c4 d6 c1 3e ae 09 27 3d 9b df 58 3d 3a fa fc 3e
       0.37859166 0.040780716 0.05294762 0.49409658
000190 dc 1a 29 3e 35 c2 7c 3e 18 41 4a bd 80 7e a6 3e
       0.16514152 0.24683459 -0.049378484 0.32518387
0001a0 65 33 00 3f 94 75 33 be 72 6d f9 be 29 9c c1 3d
       0.5007842 -0.17525321 -0.48716313 0.09453613
0001b0 02 9c 7f 3e c8 45 89 be ed 13 8a 3e 14 a7 db 3e
       0.24961856 -0.2681105 0.26968327 0.42900908
0001c0 c6 3c 29 be 79 d4 00 3e 83 f2 06 3c 2a f6 da 3e
       -0.1652709 0.12581052 0.00823653 0.42765933
0001d0 5d 38 70 3e 37 e2 a1 3d 4f 0f 45 be 53 1a da 3e
       0.23459001 0.07904475 -0.19244121 0.4259821
0001e0 f2 e3 be be fe f0 2f be bf 75 10 bf 6a 98 ba 3e
       -0.37283283 -0.17181775 -0.56429666 0.36444408
0001f0 6c 83 bd 3d 61 b5 91 3e ae 10 45 bf b4 be 56 3e
       0.09253582 0.28458694 -0.76978576 0.20971185
000200 03 2c 6c be dc 01 f7 3c 4b 59 43 3d de 08 cd 3d
       -0.23063664 0.030152254 0.04769258 0.10011457
000210 ee bd ec 3e 98 1a c7 be ff 04 ba be ee ed 25 3e
       0.46238655 -0.38887477 -0.36331937 0.16204044
000220 2d fa a6 3c 0b b7 ab 3e b6 bd 78 be a2 ee 91 3d
       0.020382965 0.33538088 -0.24291119 0.07125594
000230 0b d8 e0 be 01 34 ea 3e 33 52 c9 be 6b 89 3b 3f
       -0.43914828 0.457428 -0.39320526 0.7325656
000240 9d 6d 1f be 2d 8d 33 3e 01 26 b0 3e 89 1e 32 3f
       -0.15569158 0.17534323 0.34403995 0.6957784
000250 7c 78 87 bf 1c 2c 8d be ee fa 37 bf 3e 65 bb be
       -1.0583644 -0.27572715 -0.71867263 -0.3660068
000260 74 27 b1 3e 31 e3 83 3d d3 a2 4a be 7a e8 e4 3e
       0.34600413 0.06439818 -0.19788675 0.44708616
000270 cd 6d 68 be ef 30 6b be 03 65 5d be 03 ee f4 be
       -0.22698136 -0.22967885 -0.21620564 -0.4783784
000280 a5 1d 33 be 33 11 6a 3c 78 b7 8c 3d 02 b4 38 be
       -0.17491777 0.014286327 0.068709314 -0.18037418
000290 34 fa 69 be d3 81 17 bf be 6d 33 3f 27 73 46 3f
       -0.22849351 -0.5918247 0.7008933 0.7751946
0002a0 d2 78 b6 3e 17 ab 30 bf 55 2e 9c 3d f9 d1 e3 3c
       0.35639054 -0.6901106 0.07626025 0.027810084
0002b0 f0 b1 b7 be ed 36 09 3f bc ea e7 be f4 53 cf 3e
       -0.35877943 0.53599435 -0.45296276 0.4049374
0002c0 43 d9 91 3e 91 44 5e 3e 97 4b d2 bb 14 37 86 be
       0.2848607 0.21705844 -0.0064177024 -0.26213896
0002d0 71 bb 2c 3e c1 b9 d4 bd d2 b6 88 be a7 12 ec 3e
       0.16868378 -0.10386992 -0.2670198 0.4610798
0002e0 82 5d d1 b8 dd 1c 8c be 0c e3 dd 3e b7 b2 af be
       -9.983314e-05 -0.2736577 0.43337286 -0.34316036
0002f0 6c 42 7a 3e 1f cb b4 3e 98 f9 ff 3d ed b3 55 3e
       0.244394 0.3531122 0.12498778 0.20869417
000300 f4 50 3d be e1 00 89 bd 52 57 1c bf ca 9b 37 3e
       -0.18487912 -0.06689621 -0.6107074 0.17930523
000310 ec a9 eb 3c 38 5c 3a bf f8 50 b7 be 96 e2 30 bf
       0.028767549 -0.72796965 -0.35803962 -0.6909574
000320 1b a4 ec be 4f e6 09 3d 64 a3 b0 be c2 4e b2 3e
       -0.46218953 0.033666905 -0.34499657 0.34825712
000330 07 b8 84 bd e3 17 a9 be a0 a6 8f be dc eb 8e be
       -0.06480413 -0.33026037 -0.28056812 -0.2791432
000340 2c 6e 82 3f 94 bb 15 3e 06 6a 57 be 94 67 ab bc
       1.0189872 0.14622337 -0.21036538 -0.020923413
000350 fc 53 b9 be 6e 4e 86 3d 1f 2b 06 bf 94 34 7c 3f
       -0.36196887 0.06557928 -0.5240955 0.9851773
000360 eb 94 44 3e f8 18 e1 bd 81 b8 a3 3e 64 71 20 3d
       0.19197433 -0.109910905 0.31976703 0.039170638
000370 d8 1f 11 bf cc 2b 8c be 31 ce e0 3e 39 ef 8d 3e
       -0.56689215 -0.27377164 0.43907312 0.27721575
000380 1e 76 84 3e c5 67 b9 be 93 06 ec bd a2 de 08 bf
       0.25871366 -0.36211982 -0.115246914 -0.5346471
000390 9b b2 f4 3c e8 5b ed 3e 9d 6c f2 bd 6d 9b b0 be
       0.029870322 0.4635918 -0.118371226 -0.3449358
0003a0 8f 2f 48 bf 08 34 ab 3d c5 c5 1b 3f ec 5c 74 3e
       -0.7819757 0.083595335 0.6084865 0.23863572
0003b0 1a cc 87 be 5c c2 b5 be c8 3d 64 3e dd 2b d0 3e
       -0.26522905 -0.35499847 0.22289193 0.40658465
0003c0 81 27 f7 3d dd ce 70 bc ff 03 00 3e 6a 2c 1f 3f
       0.12068082 -0.014697758 0.12501524 0.62177145
0003d0 a4 1a c6 be f5 c3 58 be ff 0a 49 bf c7 b2 c2 bd
       -0.386922 -0.21168502 -0.78532404 -0.09506755
0003e0 7e 13 33 3e 5b a7 92 be 75 0d ca be 66 9c 4a be
       0.17487904 -0.28643307 -0.39463392 -0.19786224
0003f0 c2 5b ff be fa e4 88 be 6f 3c 61 be 50 f5 8e 3e
       -0.49874693 -0.26737195 -0.2199571 0.27921534

fc1.bias f4 [64]
000000 c9 83 5e bf 84 9c 19 bf 1f 86 22 bf c9 be 55 bf
       -0.8691984 -0.6000445 -0.634859 -0.8349424
000010 6c 25 b7 bf 53 17 c4 bf 11 0a 44 bf 1f c5 dd be
       -1.4308295 -1.5319618 -0.7657786 -0.43314454
000020 d2 c0 88 bf 84 d6 8f bf 13 9c bf bf 32 d1 88 bf
       -1.0683844 -1.123734 -1.4969505 -1.0688841
000030 31 05 41 bf 84 43 0c bf a2 87 d2 bf 11 b8 41 bf
       -0.75398546 -0.5479052 -1.6447642 -0.7567149
000040 88 55 4d bf 7b 7d 5c bf 9e 71 64 bf 3a 43 bf be
       -0.80208635 -0.8612897 -0.89235866 -0.37355977
000050 84 b9 44 bf c1 9d 8f bd b2 6b 2c bf 20 cd 02 c0
       -0.76845574 -0.07012511 -0.6735183 -2.0437698
000060 79 5b 7f bf 1a 7b a2 bf 1a b8 97 bf e7 b8 b4 bf
       -0.9974895 -1.2693818 -1.1853058 -1.4118928
000070 44 d5 60 bf 00 ac 42 bf 51 2e 1f bf f8 22 94 bf
       -0.8782542 -0.760437 -0.6218005 -1.1573172
000080 e9 30 b5 3e c3 ec 3e bf 06 d6 64 bf 75 ab f9 bf
       0.35388878 -0.7458002 -0.89389074 -1.950545
000090 3a 70 a9 bf 43 06 a7 bf 17 88 69 bf fb 91 f6 bf
       -1.3237374 -1.3048786 -0.9122328 -1.92633
0000a0 0a a4 af be 9f a1 84 bf 06 61 9d bf ff e6 62 bf
       -0.3430484 -1.0361823 -1.2295234 -0.8863372
0000b0 e1 a8 3e bf c1 7b 77 bf 70 64 d8 be 1d 8e 48 3e
       -0.7447644 -0.9667321 -0.42264128 0.19585462
0000c0 86 be 29 bf f2 3f 5c bf 74 5b f3 be 5d 67 15 bf
       -0.6630634 -0.8603507 -0.4753071 -0.58360845
0000d0 aa 87 8b bf ba d6 b0 bf 80 e9 ba bf 38 dc d2 be
       -1.0900776 -1.3815529 -1.4602509 -0.4118364
0000e0 e2 c8 61 bf d5 c6 1a be 33 10 e7 be d7 63 64 bf
       -0.8819715 -0.15114911 -0.45129547 -0.89214844
0000f0 7a 5b 56 bf 0d b2 ba bf c0 8f 96 bf 3a 79 e1 bf
       -0.8373333 -1.4585587 -1.1762619 -1.761512

fc2.weight f4 [128, 64]
000000 7e 80 ee be 04 00 27 bf 3c 4a 25 bf f8 33 8d be
       -0.46582407 -0.652344 -0.645664 -0.27578712
000010 13 55 f4 be 7d c2 03 bf e9 61 22 bf 24 0a 6d be
       -0.47721156 -0.5146864 -0.6343065 -0.231484
000020 d7 97 a4 3d e7 ef 44 be 94 9c 0c bf 04 4d e8 be
       0.08036774 -0.1923214 -0.5492642 -0.45371258
000030 d6 61 07 bf 21 87 a8 be b2 ab 20 3d 14 7f 32 bf
       -0.5288366 -0.32915595 0.03922624 -0.69725156
000040 16 4b 96 bf cd 39 d9 be d0 92 b3 be f1 d1 41 bf
       -1.1741664 -0.4242691 -0.35072947 -0.7571097
000050 0e 16 00 bf 54 22 d6 be 7a fe 0e be 8b 3b 53 bb
       -0.5003365 -0.41823065 -0.13964263 -0.0032231535
000060 08 4f 71 be 88 18 ba be ea ba 83 3e 26 fd 05 be
       -0.23565304 -0.3634684 0.25728542 -0.1308485
000070 e4 8f 8b bf be 73 a4 be 36 85 4d bf 8d a7 18 bf
       -1.0903287 -0.32119554 -0.8028139 -0.5963066
000080 24 18 01 bf 5b 59 9f be 26 ed 02 be 09 67 56 bf
       -0.5042746 -0.3112286 -0.12785777 -0.8375097
000090 f3 a6 36 bf 8a c5 4e 3d db 9e 8d be 8a 13 95 be
       -0.71348494 0.050481357 -0.2766026 -0.2911647
0000a0 83 58 d1 bf 7b 91 07 bf ba 81 ea be 68 28 39 bf
       -1.6355137 -0.5295636 -0.458021 -0.7232728
0000b0 d9 d6 15 bf 37 4a 91 bf 68 a0 86 be 3f 79 7a bf
       -0.58530957 -1.1350774 -0.26294255 -0.97841257
0000c0 6b f6 5a be 3d 9b 52 bf 62 12 4a bf f4 da 1a bf
       -0.21383063 -0.82268125 -0.789343 -0.60490346
0000d0 c4 26 0d bf 35 9f 30 3e a2 7e 28 be f0 cb 6b bf
       -0.55137277 0.17248233 -0.16454557 -0.9210806
0000e0 d8 04 63 3d 6f 40 b3 be 3d f7 7f bf 03 71 30 3e
       0.05542454 -0.35010096 -0.9998663 0.1723061
0000f0 b9 33 c5 be c5 82 30 bf 1f be 91 bd 22 bd cd be
       -0.38516024 -0.6894954 -0.07116341 -0.4018336
000100 0c f7 2b bf 59 1e 8b be 83 3a 33 bf 17 6b 52 3e
       -0.6717384 -0.2717159 -0.70011157 0.20548664
000110 ee da 82 be 2c 67 8a be 62 74 f1 bd c9 d8 f3 be
       -0.25557655 -0.2703184 -0.117897764 -0.4762633
000120 0c 15 63 3d 2b d8 4a 3e ec b3 ae bc e0 9c 16 be
       0.055439994 0.19809024 -0.021326028 -0.1470828
000130 5e 70 00 bf 01 70 49 bf 9d 2d ae be 03 ea 62 be
       -0.5017146 -0.7868653 -0.34019175 -0.22159581
000140 ea 45 c8 3f cd 8e 6a bd 75 8f c4 be ab 98 5e 3e
       1.5646336 -0.05726509 -0.383907 0.21737926
000150 9b 1b 20 bd b9 c1 5d bf 79 37 89 bd 32 1a 5c 3e
       -0.039088827 -0.8662372 -0.06700034 0.21494368
000160 ed b1 20 be 71 5f be 3e cc 18 ca 3e b0 b2 19 3e
       -0.15692873 0.3718219 0.39472044 0.1500957
000170 c3 9f 34 3f 69 c0 e8 be 71 5e 35 bd 0b a3 19 3f
       0.7055628 -0.45459297 -0.04427952 0.6001441
000180 09 64 c2 3d dd db bb be 62 bd 1a 3f 09 3c 20 bf
       0.094917364 -0.3669118 0.60445225 -0.62591606
000190 33 ec 2c 3e dd 9b 8e bf 4f 9d 55 3e 43 38 1c bf
       0.16886978 -1.1141316 0.2086079 -0.6102335
0001a0 50 93 0e bf 90 57 9f 3e 20 45 e1 bc 01 f5 a5 be
       -0.5569353 0.31121492 -0.027498782 -0.32413486
0001b0 d7 81 1e 3f b4 45 09 bf 85 3b c2 be 5e 8e 63 3e
       0.6191687 -0.53621984 -0.37936035 0.22222278
0001c0 dd a7 0a 3f 04 7b c5 bf cd 2f d8 bd 20 1e 86 3e
       0.5416239 -1.5428166 -0.10555992 0.2619486
0001d0 8f fc 5c bf a2 45 e5 be aa 74 b8 bf cf 82 a8 be
       -0.86322874 -0.44779688 -1.4410603 -0.329123
0001e0 e5 c2 35 3f f2 43 76 3f af 1b 14 bf 02 f0 23 bf
       0.7100051 0.96197426 -0.5785474 -0.640381
0001f0 52 1c 19 bf b4 b3 c6 be 71 92 89 be 5c 78 09 3e
       -0.5980884 -0.38808978 -0.26869538 0.1342482
000200 52 fb d9 3e 33 6e 7e be d3 34 72 be bc 97 dd bd
       0.42574555 -0.24846725 -0.23652963 -0.10819957
000210 b0 14 0d bf 13 00 e1 3d f1 35 1c 3f 8a 7b 61 bd
       -0.5510969 0.10986342 0.6101981 -0.055049457
000220 f2 e3 f5 be ed 89 24 bf 7c ae 52 3a 82 09 5b bc
       -0.4802547 -0.6427296 0.00080368645 -0.013368966
000230 c0 1c 92 be f6 19 bf 3e 5a 54 09 be 31 7e 80 3f
       -0.2853756 0.37324494 -0.13411084 1.003851
000240 88 96 ff be e6 32 ba be b9 00 ad 3e 1c af e5 3d
       -0.49919534 -0.36366957 0.33789614 0.1121504
000250 6b 8d bb 3e db e3 08 3e 0e b1 73 3d bf 7f 6e bf
       0.3663133 0.1336817 0.059495024 -0.93163675
000260 68 09 e8 3e dd 9d f5 be df 1b f4 3d ed 41 3c bf
       0.45319676 -0.47972003 0.119193785 -0.73538095
000270 bc c2 41 bf dc 62 13 bf 9c ff 45 bf b6 ab 32 be
       -0.75687766 -0.5757272 -0.77343154 -0.17448315
000280 09 86 32 be d7 34 02 be 33 ba 0d 3f 6a b8 3f 3f
       -0.17433943 -0.1271547 0.5536224 0.7489077
000290 8e b3 d9 3e 23 c6 26 bf f5 56 dd 3d ff c3 2c bf
       0.42519802 -0.6514608 0.10807601 -0.67486566
0002a0 0c e8 40 3e 12 70 80 bf 4a 57 f6 bd 1f 2d 1f 3e
       0.18838519 -1.0034201 -0.12028368 0.15544556
0002b0 68 50 19 be 4c 65 27 ba 2f bb d8 3e d5 18 2d 3f
       -0.14972079 -0.0006385639 0.4233031 0.67616016
0002c0 4b c0 50 bf 76 9c 32 bf 61 67 07 3f 6c e9 c3 be
       -0.81543416 -0.6976999 0.5289212 -0.38264024
0002d0 fd 6a a3 be eb 66 b0 3b b0 5e 62 be c2 94 98 be
       -0.31917563 0.0053833625 -0.22106433 -0.29800993
0002e0 52 29 2f bf b7 0b 33 bf e0 fd 8f be ce 07 30 be
       -0.68422425 -0.6993975 -0.2812338 -0.17190477
0002f0 a8 fd 15 bf ba 81 15 bf 77 b2 04 bf d0 1f 97 3e
       -0.58590174 -0.5840107 -0.51834816 0.2951646
000300 e0 07 6a bf ab c5 7d be d1 9d 90 bd ca 3b 36 bf
       -0.91418266 -0.24782436 -0.07061351 -0.7118498
000310 f2 30 f8 be 31 77 e6 be 08 07 e8 be d0 f2 b4 be
       -0.48474842 -0.4501281 -0.45317864 -0.353415
000320 b7 ae a8 be e5 18 83 bc 3c 5f 51 bf 55 95 2f 3e
       -0.32945797 -0.016003082 -0.8178594 0.1714681
000330 1a 52 8c 3e 07 01 da bd 47 1f 5b 3f b4 0a 15 3f
       0.2740639 -0.10644727 0.855946 0.58219457
000340 a3 d0 10 3f a9 91 12 3f d6 25 b7 be 55 9b ca 3b
       0.56568354 0.5725351 -0.35771054 0.006183068
000350 fb 8d d8 be 5d 13 94 be 85 9b 96 3e c9 22 5d bf
       -0.42295823 -0.28921023 0.29415527 -0.863812
000360 a5 99 26 bf 66 c4 46 be 60 af 62 bd 32 2e 7f 3e
       -0.6507819 -0.19410858 -0.055343032 0.24919966
000370 d2 d1 aa 3e 66 99 15 3e 08 e5 be be bb e7 b9 bf
       0.33363205 0.14609298 -0.37284112 -1.4523844
000380 61 e1 c4 be 0c 74 53 be ca 38 be 3e 4e 11 30 3e
       -0.384532 -0.20649737 0.37152702 0.17194101
000390 be 2a d1 be eb fa 81 bd dd 7a dc be 1f 66 a6 be
       -0.40852922 -0.06346687 -0.43062487 -0.32499787
0003a0 b8 85 2d bf 9b b7 bb 3e 29 45 be bd e8 6f 01 3f
       -0.67782164 0.36663517 -0.09290535 0.5056138
0003b0 a1 07 56 bc fa 75 d9 3d 8b 69 c4 be c4 ee 85 3d
       -0.013063342 0.10618205 -0.38361773 0.065396816
0003c0 90 d8 7d be c8 b2 cd 3e ab e5 8d bf 3a 57 55 3f
       -0.24789643 0.40175462 -1.1085714 0.8333622
0003d0 77 f0 2f bf 51 3b 26 be d5 61 9c be 8d e2 c8 3e
       -0.68726295 -0.16233565 -0.3054339 0.39235345
0003e0 c9 11 20 3e b2 c3 b3 bc a8 22 4d bf 57 ca 50 bf
       0.15631784 -0.0219439 -0.80131006 -0.81558746
0003f0 57 49 11 bf 05 8c b8 bd 7c 2b 08 3e fc 16 31 bf
       -0.5675253 -0.090110816 0.13297838 -0.69175696

fc2.bias f4 [128]
000000 67 ac a0 bf 27 b5 5d bf f0 e9 91 be 89 27 f0 be
       -1.2552613 -0.8660454 -0.28498793 -0.46905163
000010 77 3c f9 be 59 2e 36 3f 84 78 e2 be 9f 32 bc 3b
       -0.48678944 0.7116447 -0.4423257 0.005743339
000020 53 3b 99 bf 7f 17 93 bf ec 54 20 bf eb 79 8a bf
       -1.1971229 -1.1491545 -0.6262958 -1.0818456
000030 05 dd 5b bf 4f b0 97 bd 0c fc 99 3d f8 f8 1e bf
       -0.85884124 -0.07406675 0.07518777 -0.62098646
000040 ec 76 1b bf 4b 3f 29 bf fc d9 13 bf d2 3f bf bf
       -0.60728335 -0.661122 -0.5775449 -1.4941351
000050 26 ac 82 bf 53 fb 11 bf 89 14 69 bf cf 2f f6 be
       -1.0208786 -0.57024115 -0.9104696 -0.4808335
000060 c2 68 b5 bf c4 fc 8c bf 38 1e 95 bf c0 a9 0b 3f
       -1.4172595 -1.1014638 -1.1649847 0.5455589
000070 c7 b5 b0 bf ea cc f6 be 94 cd 7e bf b0 71 30 be
       -1.3805474 -0.48203212 -0.9953244 -0.17230868
000080 4a 0a ee 3c ff 77 03 bf fd dc d1 be 67 29 c0 3e
       0.02905764 -0.51354975 -0.40988913 0.37531587
000090 46 1d 88 bf 94 4e 08 bf 21 1c 54 bf c4 da 5f bf
       -1.0633934 -0.532449 -0.8285542 -0.87443185
0000a0 e3 11 92 3d 0e 4b 4f bf 48 a7 37 bf d5 4e 27 3f
       0.07132318 -0.809739 -0.71739626 0.65354663
0000b0 0b b5 81 bf 3c ad 5c bf c3 04 14 bf 70 8d 34 bf
       -1.0133375 -0.86201835 -0.57819766 -0.70528316
0000c0 0a 38 b3 be 10 b7 9c be fa 35 af bf c8 d5 0b bf
       -0.35003692 -0.30608416 -1.3688347 -0.5462308
0000d0 4b de 40 bf 20 74 32 be 33 c7 18 bf a1 fb 07 bf
       -0.7533919 -0.1742711 -0.59678954 -0.5311833
0000e0 9e 48 09 bf 6b 7a 0f bf 35 b9 57 bf b8 a6 de be
       -0.5362643 -0.5604617 -0.8426698 -0.4348657
0000f0 3a 88 a5 be e6 8d 81 bf 22 03 b2 be 4e 2f 36 bf
       -0.32330495 -1.0121429 -0.34768015 -0.7116593
000100 ce ba 40 bf 55 ca 90 bf d9 b7 29 bf 11 64 47 bf
       -0.7528504 -1.1311747 -0.66296154 -0.77887064
000110 95 a8 ae 3d 9e ec 90 bf 75 ba a4 bf d8 e2 33 bf
       0.08528248 -1.132221 -1.2869402 -0.7026801
000120 c4 e1 54 bf 8c f6 45 bf b6 21 87 be 1d d0 68 3e
       -0.8315699 -0.77329326 -0.26392907 0.22735639
000130 80 6d 05 bf eb d3 8b be fe c3 35 bf ca 3f 8a bf
       -0.5212021 -0.27310118 -0.71002185 -1.0800717
000140 72 02 a3 be 7a 11 24 bf 33 20 61 bf 12 3a ba be
       -0.31837803 -0.6408917 -0.8793976 -0.3637243
000150 45 0c 23 bf 75 7e 45 be ae 9c 4d bf bd 50 53 bf
       -0.63690597 -0.19286521 -0.803172 -0.8254507
000160 8b 01 29 3f ef b5 92 bf 3c 1f 2d bf 43 24 97 3e
       0.6601798 -1.1461772 -0.67625785 0.29519853
000170 56 1f 5a 3f 17 73 26 3f d6 8b ea be 6f 60 dc 3d
       0.85204065 0.65019363 -0.4580981 0.10760581
000180 0c db 8a bf ce bd f3 bd 17 2e 4d bf f0 6d 52 3f
       -1.0848098 -0.11901437 -0.8014845 0.82199
000190 5a 51 8c bd 03 dc 32 3e c2 69 a6 be 37 1a 5a bf
       -0.06851454 0.1746674 -0.32502562 -0.8519625
0001a0 be 80 10 bf 93 ee 12 bf 62 41 31 bf f7 b3 e5 be
       -0.56446445 -0.57395285 -0.6924039 -0.44863865
0001b0 97 7f d9 3e e3 9c 6f bf 1a 41 0b bc 65 26 75 bf
       0.42480156 -0.93598765 -0.008499408 -0.9576171
0001c0 d5 ab 3c bf 2e 0b c3 be ce 27 eb 3e ff 47 b9 be
       -0.73699695 -0.38094467 0.45928806 -0.3618774
0001d0 1c 32 06 3f 08 1a ac 3d 89 57 09 bf 68 a0 2f bf
       0.5242021 0.084034026 -0.53649193 -0.68604136
0001e0 9b 93 c5 be 6a 38 79 be 25 8b 92 be da 3a 1c be
       -0.38589177 -0.24337927 -0.28621784 -0.15256825
0001f0 6c 1c 3c bf 89 74 78 bf 7b 23 8b be 41 e9 2b bf
       -0.7348087 -0.9705282 -0.27175507 -0.6715279

fc3.weight f4 [64, 128]
000000 30 a7 33 3f fb c7 1d 3e 1c 6f bd 3d 9d 5d c6 3d
       0.7017698 0.15408318 0.09249708 0.09685824
000010 4a 22 82 bd 08 22 11 bf 0e 9f 85 3e 0a e4 03 bf
       -0.06354196 -0.5669255 0.26097912 -0.51519835
000020 75 b7 9f 3e a9 91 3d 3e ad 9f a7 be ba 1c 47 3e
       0.31194654 0.18512596 -0.3273901 0.19444552
000030 07 cb 25 3f 82 2d 7a bd 5a cb 3e bd 29 fa 06 3f
       0.6476292 -0.061078556 -0.04658065 0.52725464
000040 94 e1 16 bf ce b5 ac 3e 0b 35 bf 3d 83 3d 53 3f
       -0.58937955 0.33732456 0.09336289 0.82515734
000050 f5 2b 08 3f dd 9e 0d be a7 e4 46 be a2 1a 8c 3b
       0.53192073 -0.13830133 -0.19423161 0.004275636
000060 bd b8 35 3f a3 c7 70 be f6 43 e9 3c 1f 59 42 bf
       0.70985013 -0.23513655 0.02847479 -0.7591724
000070 48 e9 18 3f 5d 3c dd bd d8 dc 6a be 9e bc bc 3e
       0.5973096 -0.10802529 -0.22935808 0.36862653
000080 08 0e 06 bf 96 6d 0f 3d e8 35 a5 3c de 63 a8 bb
       -0.5236516 0.03501662 0.020167306 -0.005138858
000090 ef aa 2c 3f d0 15 07 be 0f 53 2b bd c5 e1 45 bc
       0.67448324 -0.13191915 -0.041827258 -0.012077753
0000a0 a1 f3 89 bf 1f 79 9e bd 14 07 1c bd 36 af e3 be
       -1.0777475 -0.07737946 -0.038092688 -0.44469613
0000b0 7f 0d 02 3f 2b 1e f0 bd 35 8a ed 3e 18 d2 a6 3e
       0.50801843 -0.11724504 0.46394506 0.32582164
0000c0 47 14 dd 3e 5a 10 14 3d 1a dc 3e bd e0 d6 dd bd
       0.43179533 0.036148407 -0.046596624 -0.10832
0000d0 6f b6 f9 3e ae c1 ea be 3e e0 0f 3f 6f b1 e0 be
       0.48771998 -0.4585089 0.5620154 -0.4388537
0000e0 b6 dd 06 3f 34 8f ca bd c3 25 35 be 60 be ec 3e
       0.52682054 -0.09890595 -0.17690186 0.46238995
0000f0 e8 2c 15 3f af c1 6a be 20 89 a5 be 50 d1 3e 3d
       0.58271646 -0.22925447 -0.3233118 0.046586335
000100 0c ce d4 3e 7c e5 c2 3c 06 fa 1c 3f f9 cc 2e 3f
       0.4156345 0.023791067 0.61319005 0.68281513
000110 e4 16 91 bf b2 a2 f0 3d 95 96 6d 3f 7a e3 91 bd
       -1.1335111 0.11749782 0.92807895 -0.07123466
000120 4f 2b 31 3f 4c 8d 7b 3f d7 9d db be 3c f4 84 be
       0.6920671 0.98262477 -0.4289386 -0.25967586
000130 2f 08 ae 3e 84 d1 ae bc 73 e7 55 3e 76 bb 1a 3e
       0.3399062 -0.02134014 0.20889072 0.15110573
000140 be dd 54 bf b7 29 62 3f ee d1 1e be 39 aa 37 be
       -0.8315085 0.883449 -0.1550977 -0.17936029
000150 a2 75 a5 be 57 1c a8 3e 1f 51 ff be 99 d4 9d 3d
       -0.3231631 0.32834122 -0.49866578 0.077065654
000160 5e 30 ea be ba 1b da 3e 8b 23 75 3f 2d f0 df be
       -0.45740026 0.4259928 0.9575736 -0.43737927
000170 6e 58 56 bf ff b1 e3 bd d4 1f a7 3e bb aa a9 be
       -0.83728683 -0.111179344 0.3264147 -0.3313807
000180 f2 57 a6 3e 0e 34 06 bf 6a be 57 3e a9 7a 52 3e
       0.32488972 -0.5242318 0.21068731 0.20554604
000190 c1 77 ba be 1a 8d 04 bf 75 b5 f3 bb e4 27 99 3e
       -0.3641949 -0.51777804 -0.007437403 0.29913247
0001a0 c9 45 17 3f 3c a2 c0 3e f2 e2 88 be 89 5a 2a bf
       0.5909086 0.37623775 -0.26735646 -0.66544396
0001b0 11 89 bf be d5 7a 19 3f f7 85 22 bf b8 38 15 3f
       -0.3740926 0.5995305 -0.63485664 0.5828967
0001c0 a6 2a 09 3e 56 6e 91 be 4a bf 21 3e 2f 11 62 bf
       0.13395175 -0.28404492 0.15795627 -0.8830747
0001d0 9e 9c 2d be 4e 72 1f be bb 11 a0 3e e8 e3 24 3f
       -0.16954276 -0.15570948 0.31263527 0.6441026
0001e0 f4 10 dc 3d 67 75 10 be ab 18 02 3f d9 8d 2b be
       0.10745421 -0.14107285 0.5081889 -0.1675333
0001f0 78 c3 a9 3e 68 17 53 3f 54 c5 be 3e b1 29 c4 3d
       0.33156943 0.8245759 0.37259924 0.095782645
000200 c9 c8 fb 3d e1 46 99 3e bd 88 e0 be e5 88 53 bf
       0.12294156 0.2993689 -0.43854323 -0.8263076
000210 d1 4f 12 3e c1 05 ca bd 93 c6 ae 3c 99 88 0c bf
       0.1428826 -0.09864379 0.021334922 -0.5489593
000220 3b c0 ad 3e 70 1e 96 3e 7b 8b 9e 3d 88 b5 fb bd
       0.33935723 0.29320097 0.077414475 -0.12290484
000230 97 7a 6f 3d fb af d8 bd d0 7a 20 3b 34 de 34 3e
       0.05846652 -0.105804406 0.0024487264 0.17662889
000240 20 c4 06 3d 8c 18 bb bd af 76 c5 bd a7 5a db 3e
       0.032901883 -0.09135541 -0.09641778 0.428426
000250 77 f8 61 3d 91 2b 4b bd 99 e6 a7 be d1 d0 bf bd
       0.055168595 -0.049602095 -0.3279312 -0.093660004
000260 f4 4e 44 3e e7 27 20 bf 4f 10 7d bc 43 3a e0 be
       0.19170743 -0.62560886 -0.015445783 -0.4379445
000270 c2 93 21 bd f1 cc c7 be 68 fd c9 3d fc bc 09 be
       -0.039447553 -0.39023545 0.098627865 -0.13450998
000280 c9 6a 80 3d 06 4a 71 be 9e 70 07 3f eb 0e a7 be
       0.06270368 -0.23563394 0.52906215 -0.3262857
000290 c8 67 29 3e 02 2d 80 be 89 40 82 3d fc b4 13 3f
       0.16543496 -0.25034338 0.06359965 0.57698035
0002a0 16 f3 9c be 69 26 4d be 91 9b 21 3e eb 6c fd be
       -0.3065421 -0.20034184 0.15782 -0.4949716
0002b0 b0 c2 e3 bc 0c 5c 5c bd 6c 80 e5 bd dd bd 67 3e
       -0.027802795 -0.05379872 -0.11206135 0.22631021
0002c0 b5 f8 15 bd 0c 07 62 be cc c8 47 be af 7a 16 bd
       -0.03661414 -0.22073 -0.19510192 -0.036738094
0002d0 34 76 5c bd f6 60 27 bf 5d ac 80 3d 58 6d cb 3d
       -0.053823665 -0.65382326 0.06282876 0.09932965
0002e0 7f cf 25 3e 91 88 46 be 03 8d e1 be 11 db 13 bd
       0.16192435 -0.19388033 -0.44052896 -0.03609759
0002f0 bc d2 15 be 12 46 b2 be d8 c8 de bd 25 f7 88 3d
       -0.1463117 -0.34819084 -0.10878152 0.06687764
000300 d2 11 85 be d8 c8 1f 3f 97 22 02 be af 88 1f 3e
       -0.25990158 0.6241584 -0.12708507 0.15579484
000310 e0 62 87 be 6c 53 f0 3e b3 7a b3 3e 9d 4c 3c bd
       -0.26442623 0.46938646 0.3505455 -0.0459715
000320 de 5f 18 3e 84 b6 cd 3d 08 36 84 be 8f 9b 45 be
       0.1488032 0.10044578 -0.25822473 -0.19297622
000330 c4 1c 4f be a4 98 b6 be cb 2d 47 3e e5 fe 84 bc
       -0.20225817 -0.3566333 0.19451062 -0.016234824
000340 62 1b c5 bd 9b cf 4f bb 51 c8 31 be 1a b7 60 3e
       -0.096243635 -0.0031709436 -0.17361571 0.21944848
000350 36 36 cd bc 69 50 cd bd 25 80 38 bf ed 7e 20 3e
       -0.025050264 -0.10025103 -0.72070533 0.15673418
000360 da 5e d3 be 66 37 27 3e e1 36 fa 3d e5 63 65 be
       -0.41283303 0.16329727 0.122174986 -0.22401388
000370 77 65 0e bf f3 9b 8f 3e 52 73 a5 bd 52 41 bc 3c
       -0.55623573 0.28048667 -0.08078636 0.022980366
000380 81 1e b0 3e ba 26 84 3e e8 46 1c be 25 5a b9 bd
       0.34398273 0.25810796 -0.15261424 -0.09050397
000390 eb 29 0f bf 42 45 2a bf c8 88 8c 3e 9f 42 26 bd
       -0.55923337 -0.6651193 0.27448106 -0.04059088
0003a0 49 f2 c6 3d 56 0e 5c 3d d7 81 85 3e b8 1b 67 be
       0.09714181 0.05372461 0.26075622 -0.22569168
0003b0 c6 a3 99 bc 37 35 5d 3c d5 db 35 bf b1 c5 42 3d
       -0.018754851 0.013501457 -0.7103856 0.047551814
0003c0 6a 58 90 3d b1 01 99 3e 48 7e 26 bf 96 d8 95 bd
       0.07048114 0.29884103 -0.6503644 -0.07316701
0003d0 90 40 98 be ff 85 7a be 46 db 51 3e 82 e5 01 3e
       -0.29736757 -0.24465178 0.20493802 0.12685207
0003e0 07 58 1b 3e bd 9d 41 be b4 94 40 be 12 da ef bd
       0.15170299 -0.18907829 -0.18806726 -0.117115155
0003f0 6c 4d 79 3e 43 55 76 3e 1a f5 c4 3e 41 b4 25 be
       0.2434594 0.24055962 0.38468248 -0.16182043

fc3.bias f4 [64]
000000 61 03 9e bf c3 4c 93 be f2 19 b7 bf fe 92 49 3e
       -1.2344781 -0.28769502 -1.4304793 0.1968498
000010 56 17 db be ca 34 73 3f 0d e7 82 bf 31 88 03 c0
       -0.4279124 0.95002425 -1.0226761 -2.0551875
000020 b0 cd 9d bf a8 e3 8c 3d 8a 72 d7 bf 09 67 2a bf
       -1.2328396 0.068793595 -1.683183 -0.6656347
000030 c7 ea 95 be d6 7b 94 bf 8c c1 86 bf 38 de 02 be
       -0.29280683 -1.1600292 -1.0527816 -0.12780082
000040 28 be e7 3e 50 08 62 be fa 57 e3 be 9f b7 c5 3e
       0.45262265 -0.22073483 -0.44403058 0.38616654
000050 bc 63 90 bf bb 1a 85 bf ec a6 eb 3e 4b 2c 5a 3e
       -1.1280437 -1.0398782 0.4602579 0.21305959
000060 08 78 2e bf 66 23 a8 bf 2e 4e 14 3d d9 09 82 3c
       -0.68151903 -1.3135803 0.03620737 0.015873836
000070 6c c7 ea 3b 4d 97 c6 bf 99 ea 67 3d 88 a1 12 bf
       0.007164886 -1.5514923 0.056620214 -0.5727773
000080 4a cb 9d 3e 94 fa 8c bd ac cf ef bd 3a 71 d7 3b
       0.3081916 -0.068837315 -0.11709532 0.006574777
000090 39 6a a2 bf 27 f3 d5 bf 58 52 68 3f 43 87 56 bf
       -1.2688667 -1.6714829 0.90750647 -0.83800143
0000a0 ae b6 c8 bf 1d f3 2e bd da f2 3e 3f ec f5 f0 bf
       -1.568075 -0.04271232 0.7458931 -1.8825049
0000b0 5a d4 92 bf 52 7b 0a 3f 97 a6 03 c0 28 6b fd bf
       -1.1471055 0.5409442 -2.0570428 -1.9798326
0000c0 fc ff 5a bf 6f 09 1f bd c9 ce db be 13 ef f6 3e
       -0.8554685 -0.038827356 -0.42931202 0.48229274
0000d0 ac 63 ab bf 9d c1 ee bc ac 5e ee be c5 1b 10 bf
       -1.3389792 -0.029145056 -0.46556604 -0.5629237
0000e0 8e 8a 21 bf d3 8e 5c bf fb f4 81 bc 31 ef 77 bf
       -0.6310204 -0.8615543 -0.015863886 -0.9684935
0000f0 45 3f 7f bf e6 72 10 bf 0d 9b 84 bf 3f 91 c5 be
       -0.99705917 -0.5642532 -1.0359818 -0.38587376

fc4.weight f4 [32, 64]
000000 ff f4 71 3e 1a b5 a5 be 1d 87 23 3d aa 80 b1 bd
       0.23628615 -0.32364732 0.039923776 -0.08667119
000010 3b 8e ab be 2d 20 16 be a7 49 24 be bd fa 0a 3f
       -0.3350695 -0.14660712 -0.16043721 0.54288846
000020 76 8e 4e 3f dc 68 f3 be 5e b2 97 3d 90 34 da be
       0.8068613 -0.4754094 0.07407068 -0.42618227
000030 12 dd c3 3e 4d 6d 21 3f 45 88 89 3d 89 8a 2f 3d
       0.382546 0.63057405 0.067154445 0.042856727
000040 9b f2 b1 3c 88 ce ed be 39 5b bc 3d 9e 89 d7 be
       0.021722129 -0.46446633 0.09197087 -0.4209718
000050 3b 09 6d 3f 82 50 10 bf 15 ee 9f be 0f 65 ee be
       0.9259221 -0.56372845 -0.3123633 -0.46561477
000060 b2 0d 2d be 5e a5 85 3f 31 81 67 be 32 f3 b7 be
       -0.16899756 1.0441091 -0.22607876 -0.3592773
000070 75 f7 59 bd dd fa d8 3e da 7a 36 be a3 86 85 3e
       -0.05321451 0.42378893 -0.17820302 0.26079282
000080 c1 97 cb be 36 80 4f be ba 9d c8 be a6 f8 57 be
       -0.39764217 -0.20263752 -0.39182836 -0.21090946
000090 e1 5e 15 3e c3 1e 5a 3e 0f 49 5c be 97 7a eb 3e
       0.14586975 0.21300797 -0.21512245 0.45991966
0000a0 e5 5c 88 3f 4b d4 b6 be 42 30 03 bf 0f c5 8e 3d
       1.0653349 -0.35708842 -0.5124551 0.0697118
0000b0 ff 9d 89 3e fa 72 82 3e f4 c3 74 3f 50 bb d5 3e
       0.26878354 0.25478345 0.956115 0.4174447
0000c0 b5 8f 18 3f ef a8 91 be 51 8e a9 3e f9 70 95 be
       0.5959428 -0.284492 0.3311639 -0.29187754
0000d0 15 e8 85 3f a5 f5 81 be 0e cf cf 3e ca c9 0b be
       1.0461451 -0.25382724 0.40587658 -0.13651195
0000e0 d3 bc 21 3f 71 69 7e 3e e7 c3 cf bd 38 89 ff 3e
       0.6317875 0.2484491 -0.10144787 0.49909377
0000f0 87 dd e7 3e 79 36 6e bf 9b 0b 9e 3e 17 9c 64 be
       0.452862 -0.9305187 0.3086823 -0.22325169
000100 a8 e5 83 3e 70 3a 54 3e 42 bb 66 3e 63 ab d4 be
       0.2576115 0.20725417 0.2253237 -0.41537008
000110 28 c2 13 bd 5b e7 77 be 68 54 16 3e e5 dc d7 3d
       -0.036073834 -0.24209349 0.14680636 0.10540179
000120 5a aa cf 3f d0 60 38 bf 74 37 2f 3f 44 ec 8e be
       1.6223862 -0.72022724 0.6844399 -0.2791463
000130 02 1c 51 be b2 e0 98 3f 50 37 68 3d 17 55 71 3e
       -0.2042084 1.1943572 0.056693375 0.23567615
000140 cb 9d 40 be 07 38 70 3c b5 7c f8 bd f6 ab 84 be
       -0.18810193 0.014661795 -0.12133161 -0.25912446
000150 b4 d0 03 40 25 25 d7 3d ab 75 e5 be 62 14 8f be
       2.0596132 0.10505132 -0.44816336 -0.27945238
000160 f2 bd ff bc c4 14 ce 3e 25 30 28 be af 64 9e be
       -0.031218503 0.40250218 -0.16424616 -0.3093619
000170 21 a7 68 be fd f2 49 3c e8 4c 71 3e 2a f3 52 bd
       -0.22720005 0.012325999 0.23564494 -0.05150143
000180 b1 cd 43 be 84 89 c4 3d 64 bf b4 be c5 73 08 be
       -0.19121434 0.095965415 -0.3530227 -0.13325413
000190 8d ce 77 3f a5 a9 78 3e ac 70 bc be b2 5f 87 be
       0.96799546 0.24283464 -0.36804712 -0.26440197
0001a0 ff 53 c8 3f 86 0a a5 be 9f 12 aa be 1e 13 03 3f
       1.5650634 -0.3223459 -0.33217332 0.51201046
0001b0 77 b9 78 3e 40 8c 0b be 89 3b 7d 3e 77 36 07 3f
       0.24289499 -0.1362772 0.24729742 0.5281748
0001c0 d9 81 11 3f da 1c 2f bf ee db 20 3e 27 c9 f0 3c
       0.56838757 -0.684034 0.15708897 0.029392792
0001d0 89 1e 8c 3f bd 41 cb be 25 9f 99 3d 7a 1f d6 3d
       1.0946819 -0.39698592 0.075010575 0.104552224
0001e0 7d dc 0d 3e 59 31 66 3e 27 5f 3f 3e f0 88 c5 3e
       0.13853641 0.22479762 0.18688641 0.38581038
0001f0 22 73 08 3e 49 fe 3f be cb 14 b1 3e bc 77 30 3e
       0.1332517 -0.18749346 0.34586176 0.17233175
000200 10 7d 89 3e d8 b9 02 3e 6c 9f 97 be 57 1c 8d be
       0.26853228 0.12766206 -0.29613817 -0.27560684
000210 b6 ac c5 be 57 7a f1 be bf e2 18 be b7 0a 44 3f
       -0.3860833 -0.4716365 -0.14930247 0.7657885
000220 d9 1e ec 3e 27 31 5e be 57 bd c3 bd 2e 8e d5 3d
       0.46117285 -0.21698438 -0.09557598 0.10427509
000230 d6 4e 38 3e 56 a6 71 3e 9b c4 25 3f ca fe 28 bb
       0.17998824 0.23598608 0.6475312 -0.0025786632
000240 23 30 a4 be 13 c3 db be be ad 0a bf 0e 4c a2 be
       -0.32067975 -0.42922267 -0.5417136 -0.3169865
000250 98 0f 4e 3f 85 5a 98 3d b6 18 00 bd 72 d0 9d 3c
       0.80492544 0.0743914 -0.031273566 0.019264434
000260 44 86 9e 3e cb 59 f5 3c 56 54 6d bf c3 d4 3f b9
       0.30961812 0.029950043 -0.9270681 -0.0001829444
000270 c9 00 dc bc b4 06 b6 bc 84 5c 0b bf 17 99 02 3e
       -0.026855843 -0.022219993 -0.5443804 0.12753712
000280 db 9f 05 be a2 fd 8c be 2c d4 3b be 2a 9b 29 be
       -0.13049261 -0.27537256 -0.18342656 -0.16563097
000290 93 16 aa 3e b0 50 8f 3e 54 46 90 be 1c 16 7f 3d
       0.33220348 0.27991247 -0.28178656 0.062276945
0002a0 75 5f 6b 3e 21 10 e4 be 3f 9f 11 bf ca f6 05 3e
       0.22985633 -0.44543555 -0.56883615 0.13082424
0002b0 66 0e 6f 3e 58 73 89 be b7 06 df 3e fd 8d a7 3f
       0.23345336 -0.26845813 0.4355981 1.3090206
0002c0 01 92 12 3f 7c 5f b1 be 07 62 18 3e b4 ae cd be
       0.57254034 -0.3464316 0.14881144 -0.4017235
0002d0 96 37 d9 3d ec 99 e3 bd 9c a8 2c be 0c 9d 9b bd
       0.10606305 -0.11113343 -0.16861194 -0.07598314
0002e0 4d c9 9d be 0f 3c 76 be 68 b2 67 be c5 05 57 be
       -0.30817643 -0.24046348 -0.2262665 -0.20998295
0002f0 07 0c cf be d9 e4 03 be 60 2e 04 3f 36 84 e3 3d
       -0.40438864 -0.12880267 0.5163326 0.111092016
000300 eb 5e 7e be 3f 95 92 3d 75 9b 92 bd 53 70 e0 be
       -0.24840896 0.07157373 -0.07158557 -0.43835697
000310 35 66 d6 be 0b c4 1f be 14 36 14 be e3 fd ec 3e
       -0.41874853 -0.15602128 -0.14473754 0.4628745
000320 aa cd 99 3e b1 47 b6 be e7 9c 06 3f 37 84 6b be
       0.30039722 -0.3560157 0.52583164 -0.22999655
000330 22 a3 ea bd 1f 1e 17 be fd 40 1f bf 36 c8 99 be
       -0.11456896 -0.14757584 -0.6220854 -0.3003556
000340 5b 9f 03 be e8 e0 a9 be 07 7c 9a 3d 99 42 96 be
       -0.12853758 -0.33179402 0.075431876 -0.29347685
000350 9a 02 97 3f 63 3a 34 be 75 1b a6 3e 86 67 7e be
       1.1797669 -0.17600398 0.32442823 -0.24844179
000360 cd a1 62 3d 1a 24 5f 3f 8d fd 4f be 0c 90 ee be
       0.055330086 0.8716446 -0.20311566 -0.46594274
000370 6f 4e 31 be 02 92 f3 3d 49 6c d4 be f2 5c 8d be
       -0.17315076 0.11893083 -0.41488865 -0.27609974
000380 dd 66 5a be fc b4 83 bd 09 35 73 bd fa cf e9 bd
       -0.21328302 -0.064310044 -0.05937675 -0.114166215
000390 54 ae c5 bc 60 68 08 bd 8b f4 95 be 27 9f ea bd
       -0.024130978 -0.033302665 -0.29288134 -0.11456137
0003a0 6b 41 d4 3e 66 66 0b bf 34 3c 2c bf 25 13 ac 3e
       0.4145616 -0.5445312 -0.6727936 0.33608356
0003b0 bc 0f 08 be 08 f2 2e 3c de 42 e1 3e eb d0 ae be
       -0.13287252 0.010677822 0.43996328 -0.34143767
0003c0 d9 d7 0c 3f 50 03 d2 bd 5e 40 d2 3e 5c 16 6f be
       0.5501686 -0.10254538 0.41064733 -0.23348373
0003d0 8e 73 95 3d af 66 2e bf 70 b5 b3 3c 92 09 95 be
       0.07297431 -0.6812543 0.021937102 -0.29108864
0003e0 5a a9 d6 3d 69 0f c6 3c 33 66 f4 be 6a f7 d5 be
       0.1048152 0.02417727 -0.47734222 -0.41790324
0003f0 69 6d f3 3d a7 f1 6e be 3a 51 09 bf a3 43 89 bd
       0.11886103 -0.2333437 -0.53639567 -0.06702354

fc4.bias f4 [32]
000000 fd 48 1d bf f6 c1 5c bf c2 b7 2f bf 63 0b a6 be
       -0.61439496 -0.8623346 -0.6863977 -0.32430562
000010 dd b2 55 bf 6e b9 75 bf 41 da d8 be 5b 99 86 bf
       -0.8347605 -0.9598607 -0.42354015 -1.051555
000020 8b 61 8e bf 33 42 e3 be ba 4c 81 bf 26 8d 48 bf
       -1.1123518 -0.44386443 -1.010154 -0.78340375
000030 96 06 f7 bf 44 dc cf bf 8a bb b6 bf af 4d 5b bf
       -1.9298885 -1.6239095 -1.4275982 -0.8566541
000040 c7 ae 02 bf 45 c1 8d bf b5 4e 78 bf 44 9d 40 bf
       -0.5104794 -1.1074606 -0.969951 -0.7523997
000050 f6 82 b9 be f3 03 75 bf 94 d3 7e bf 56 ce 34 be
       -0.36232728 -0.9570915 -0.9954159 -0.17656836
000060 5a f5 08 bf cc a6 4a bf 4e 95 1f bf 06 8c 28 bf
       -0.53499377 -0.7916076 -0.62337196 -0.6583866
000070 a8 77 50 bf 69 01 81 bf b9 26 80 bf 0a 1f a5 bf
       -0.8143258 -1.0078555 -1.0011817 -1.2900097

fc5.weight f4 [1, 32]
000000 2c 08 6d 3c cf da cd 3c d6 f8 ff 3c 44 6c c3 3c
       0.01446728 0.02512875 0.031246584 0.023855336
000010 44 71 22 3d 5b 7a 1a 3d d7 06 30 3d 23 77 97 3c
       0.0396588 0.037714344 0.042975273 0.018489426
000020 57 eb eb 3c c3 56 01 3d b5 44 e3 3b 8a 60 6c 3d
       0.028798742 0.031576883 0.0069356808 0.057709254
000030 0b 12 b3 3c bc 81 01 3d f7 d0 9c 3c 64 9f e9 3c
       0.02185919 0.031617865 0.019142611 0.028518386
000040 92 8e 53 3c 52 cc 8c 3c 82 a0 8a bb e4 43 40 3d
       0.012912409 0.017187271 -0.00423056 0.046939746
000050 75 42 e2 3c 93 85 fe ba 28 f5 89 3c d8 76 a1 3d
       0.02761958 -0.001941847 0.016840532 0.07883996
000060 83 4b dd 3c 91 5d f4 3c c6 b5 83 3c 3a 63 73 3c
       0.027013546 0.029829772 0.016077887 0.0148552
000070 50 02 b7 3c 29 0a 0d 3d 75 85 25 3d 97 95 04 bc
       0.02233997 0.034433518 0.040410478 -0.008092306
