Models/TrainedModels/FCNNs/FCNN3.pt (torch, 17479 bytes, 5 tensors)

weight f4 [64, 22]
0	0xbf2b96a6	-0.67026746
1	0xbf9387fb	-1.1525873
2	0x3e332369	0.17493977
3	0x39c9c58d	0.00038484894
4	0xbdab2781	-0.08357144
5	0x3f171ffe	0.5903319
6	0x3e835782	0.256527
7	0xbd161d36	-0.03664895
8	0xbd4dd251	-0.0502494
9	0x3f1ca16e	0.6118382
10	0xbd07e81f	-0.033180352
11	0x3f3bbb42	0.7333261
12	0x3f3e4c27	0.7433495
13	0xbe796cf8	-0.24357975
14	0x3f26fa4a	0.6522566
15	0x3e8c504c	0.27405012
16	0xbfb2b60d	-1.3961807
17	0xbeae02ef	-0.33986613
18	0x3f3abdd7	0.7294592
19	0xbe2bcef7	-0.1677817
20	0xbb1ef7f6	-0.0024256683
21	0xbe0e6cb8	-0.1390866
22	0x3daec8a9	0.08534367
23	0x3d62f444	0.05540873
24	0xbf3454ae	-0.7044171
25	0x3e27cf57	0.16387688
26	0xbf091c10	-0.53558445
27	0xbf0efef5	-0.55857784
28	0xbeab8794	-0.33501875
29	0x3d137ee3	0.03600968
30	0xbe64ec1e	-0.22355697
31	0xbec4b638	-0.38420272
32	0x3e9b1225	0.3028728
33	0xbc25940c	-0.010106098
34	0x3ef26f8a	0.47350723
35	0x3f4507cb	0.76965016
36	0xbe0993d9	-0.13435306
37	0xbe586d16	-0.21135363
38	0xbefe9da1	-0.49729636
39	0x3e58b2a5	0.21161897
40	0xbe5a0194	-0.21289665
41	0xbeb0c3f4	-0.345245
42	0xbe2ed37f	-0.17072867
43	0xbf409c9d	-0.7523897
44	0xbea1a66a	-0.31572276
45	0xbe7ee2da	-0.24891225
46	0xbe2a7f3b	-0.16650097
47	0x3e2cba49	0.16867937
48	0xbd7b5895	-0.061363775
49	0x3ede2d8d	0.43394127
50	0xbc742a55	-0.014902671
51	0x3e851a95	0.25996843
52	0xbebf61e5	-0.37379375
53	0x3ed6ac4c	0.41928327
54	0x3ee81bcc	0.45333707
55	0x3eb2c427	0.34915277
56	0x3e265ad4	0.16245586
57	0x3eb0e5d8	0.34550357
58	0x3bc3c856	0.0059748096
59	0x3e666886	0.2250081
60	0x3eb0bb7e	0.34518045
61	0x3e9dc658	0.30815387
62	0x3f0a4294	0.5400784
63	0x3d554f0f	0.05207735
64	0xbe8e5589	-0.27799633
65	0x3f0beaa8	0.5465493
66	0x3f0ed996	0.5580076
67	0xbf82db9d	-1.0223271
68	0xbf3b98ce	-0.73280036
69	0x3e17a769	0.14809956
70	0xbf247f5a	-0.64256823
71	0x3f48c780	0.7842941
72	0x3eba6c7b	0.3641089
73	0xbeb47730	-0.35247183
74	0xbf1a75fb	-0.60336274
75	0xbe97c16f	-0.29639766
76	0xbf47dcdf	-0.780714
77	0x3e8f7ec5	0.28026405
78	0xbf215347	-0.63017696
79	0xbea871bf	-0.3289928
80	0xbe0a7152	-0.13519791
81	0x3ebc6bb9	0.36800936
82	0xbf1e9dac	-0.6195934
83	0xbe3ee4a3	-0.18641905
84	0xbe52a7cb	-0.2057182
85	0xbe278d09	-0.16362394
86	0x3f1c1f2e	0.60985076
87	0x3d2dae19	0.04240236
88	0x3cb35e45	0.021895537
89	0xbee3bf3a	-0.44481832
90	0xbe4b6c99	-0.19865645
91	0x3d9528f7	0.07283204
92	0x3bd5b125	0.0065213614
93	0x3dee7c3e	0.11644791
94	0xbe7dbd84	-0.24779326
95	0xbe1b1d1e	-0.15147826
96	0x3df71244	0.12064031
97	0xbea6e184	-0.3259393
98	0x3e298250	0.16553617
99	0xbe0b1016	-0.13580355
100	0x3e09ff09	0.13476194
101	0x3e9e309c	0.3089646
102	0xbdaf2059	-0.08551092
103	0x3e73d571	0.2381189
104	0x3f37d264	0.71805406
105	0x3dac2f91	0.0840751
106	0x3e9551bf	0.2916393
107	0xbea2dd98	-0.31809688
108	0xbe8f80e9	-0.28028038
109	0x3f432abb	0.76237077
110	0xbe61fa98	-0.2206825
111	0x3eba99ee	0.36445564
112	0x3c5ae596	0.013360402
113	0xbe790e82	-0.2432194
114	0xbd8e2328	-0.06940299
115	0xbea25acd	-0.317099
116	0xbe072cef	-0.13200735
117	0x3ebadd94	0.36497176
118	0xbe161481	-0.14656259
119	0x3e1c87e5	0.15286215
120	0x3f03e7f4	0.5152581
121	0x3f50650a	0.81404173
122	0x3e3574a7	0.1772028
123	0xbe1d8ea6	-0.15386447
124	0x3f6d1e5e	0.9262446
125	0x3f50dd1f	0.81587404
126	0xbf89e657	-1.0773419
127	0xbe274d5c	-0.16338104
128	0x3e454e77	0.19268213
129	0xbe588813	-0.21145658
130	0xbd7f462d	-0.062322784
131	0xbf5af5da	-0.8553139
132	0x3e745163	0.23859172
133	0x3d0de897	0.034645643
134	0xbf071b67	-0.5277619
135	0x3b5a580b	0.0033316638
136	0xbe2a1798	-0.16610563
137	0xbf12f141	-0.57399374
138	0xbf0b0c7a	-0.5431591
139	0x3d85b780	0.065291405
140	0xbe6432e2	-0.22285035
141	0xbeef7eaf	-0.4677634
142	0x3d5e4916	0.05426892
143	0x3ee4e9e5	0.44709697
144	0xbf4bc670	-0.79599667
145	0x3f69dfb5	0.91356975
146	0x3d9dc7a4	0.07704094
147	0x3f94fbde	1.1639364
148	0xbeb180b8	-0.34668517
149	0xbe88c6e4	-0.26714242
150	0xbdf07fa1	-0.11743093
151	0xbf1120a2	-0.5669042
152	0x3d3ebbd6	0.046565853
153	0x3e13ea6c	0.14444894
154	0xbe8e6705	-0.27812973
155	0xbed86526	-0.4226467
156	0xbf043cae	-0.5165509
157	0xbe275a40	-0.16343021
158	0x3d57b10b	0.052659076
159	0x3e90cf58	0.2828319
160	0x3f38a920	0.72133064
161	0x3d4d5df4	0.05013843
162	0xbed4f3df	-0.4159231
163	0x3e502ad9	0.20328845
164	0xbdd3f22a	-0.103489235
165	0x3f8dc2f4	1.107512
166	0x3e902cb4	0.28159106
167	0xbed4e884	-0.41583645
168	0x3e8ab18b	0.2708858
169	0x3f1f89a9	0.6231943
170	0xbf9bc3d1	-1.2169133
171	0xbec31d78	-0.3810842
172	0xbdc4b952	-0.096056595
173	0xbe8f2f3d	-0.27965727
174	0xbefa6c26	-0.48910636
175	0xbee3372e	-0.44378036
176	0xbe483432	-0.19551161
177	0x3e73b075	0.23797782
178	0xbf414aa0	-0.75504494
179	0xbea5d923	-0.32392225
180	0xbeb2cc13	-0.3492132
181	0xbeacc969	-0.33747414
182	0x3ddc4ffc	0.10757443
183	0xbe9a442b	-0.30130133
184	0xbf159d0a	-0.5844275
185	0x3e1f875f	0.15578984
186	0x3f1b5b8e	0.60686576
187	0x3ec3b37e	0.3822288
188	0xbec69217	-0.38783333
189	0xbf3c3ee3	-0.7353346
190	0x3f4044b0	0.7510481
191	0x3e317cdf	0.17332791
192	0x3e0aee17	0.13567387
193	0xbd673cfe	-0.05645465
194	0xbe7a7a57	-0.24460731
195	0x38de8a7e	0.00010611581
196	0xbd8054db	-0.06266185
197	0xbf4b46d9	-0.7940498
198	0xbd946fb7	-0.072478704
199	0xbf8a7206	-1.0816047
200	0xbe106b88	-0.1410352
201	0xbf1c2bf4	-0.6100457
202	0xbee52cfc	-0.44760883
203	0x3d52982e	0.05141466
204	0x3ec74575	0.3892018
205	0x3e13030a	0.14356628
206	0x3df1007f	0.11767673
207	0x3e106ade	0.14103267
208	0x3e2f4675	0.17116721
209	0xbe1b33c6	-0.15156469
210	0xbc210369	-0.009827473
211	0xbe10ea96	-0.14151987
212	0x3d4ca5e3	0.04996289
213	0xbeb784a1	-0.35843375
214	0xbeadddd6	-0.3395831
215	0xbf414526	-0.7549614
216	0x3e5896eb	0.2115132
217	0x3e7f17ca	0.24911419
218	0xbe97142e	-0.29507583
219	0xbf08fe9c	-0.53513503
220	0xbf2ddf7a	-0.67919123
221	0xbf89681a	-1.0734894
222	0x3e97f0d6	0.2967593
223	0x3ec80248	0.3906424
224	0xbefa8218	-0.4892738
225	0x3ebca877	0.36847278
226	0x3de63fd3	0.11242642
227	0xbe4c6d5e	-0.19963595
228	0xbe654e36	-0.22393116
229	0x3eddaf5d	0.43297854
230	0xbe75b274	-0.23993856
231	0x3e958e71	0.29210237
232	0xbf739533	-0.95149535
233	0xbf368000	-0.7128906
234	0xbee1c8ba	-0.44098455
235	0x3e9d5b35	0.30733648
236	0xbf976b94	-1.1829705
237	0x3f3b35d0	0.73128986
238	0xbf450a37	-0.7696871
239	0x3d941238	0.072300375
240	0x3f539bad	0.8265942
241	0xbd22062c	-0.039556667
242	0x3e1493b9	0.14509477
243	0xbf1839b5	-0.59463054
244	0xbdcbc5fe	-0.099498734
245	0x3edfc2fd	0.43703452
246	0xbed57223	-0.41688642
247	0xbe6ac4af	-0.22926591
248	0xbe54d6a1	-0.20785
249	0xbf34ed34	-0.70674443
250	0xbeec5d2f	-0.46164843
251	0xbe7f4d37	-0.24931799
252	0xbe5b8203	-0.21436314
253	0x3f1c02c6	0.6094173
254	0xbf12fd34	-0.5741761
255	0x3edcf74e	0.43157429

bias f4 [64]
0	0xbe8e6122	-0.2780848
1	0xbf483af6	-0.7821497
2	0xbf92a580	-1.1456757
3	0xbf5970d4	-0.8493779
4	0xbe71cb1b	-0.23612635
5	0xbf8e4898	-1.1115904
6	0xbe1e1a24	-0.1543966
7	0xbe8bcb21	-0.27303413
8	0xbee6f1e3	-0.4510642
9	0xbf56bc2a	-0.83880866
10	0xbeada6f7	-0.33916447
11	0xbdbf0282	-0.0932665
12	0xbf63d591	-0.8899775
13	0x3ea16729	0.31524017
14	0xbf1f7aa0	-0.62296486
15	0xbee7df3f	-0.4528751
16	0xbe03c3a6	-0.12867603
17	0xbf8518ef	-1.0398234
18	0xbeaeefec	-0.3416742
19	0xbeb32f8e	-0.3499722
20	0xbf90e747	-1.132058
21	0xbee50faa	-0.44738513
22	0xbfaec4aa	-1.3653767
23	0xbeeca5d5	-0.4622027
24	0xbef1a032	-0.47192532
25	0xbeda0e89	-0.42589214
26	0xbf7040c5	-0.9384883
27	0xbf26410c	-0.64943004
28	0xbf171eaa	-0.59031165
29	0xbe8ce47f	-0.2751808
30	0xbfcb7363	-1.5894588
31	0xbf5fc813	-0.87414664
32	0xbf9bdf4f	-1.2177523
33	0x3eec7041	0.46179393
34	0xbf9c1350	-1.2193394
35	0xbf230205	-0.63674957
36	0x3e8596be	0.2609157
37	0xbd969613	-0.07352843
38	0xbe91805f	-0.28418252
39	0xbe839385	-0.25698486
40	0xbfc1b99e	-1.5134771
41	0xbf1944e0	-0.5987072
42	0xbfa8accb	-1.3177732
43	0xbf3fcfcc	-0.7492645
44	0xbf678ab2	-0.9044601
45	0xbf020265	-0.50784904
46	0xbe8a60f8	-0.27027106
47	0xbcdd736d	-0.027032578
48	0xbee9f904	-0.45697796
49	0xbf5802b8	-0.8437915
50	0xbfaffaad	-1.3748375
51	0xbf1b1ef9	-0.60594136
52	0xbf789f22	-0.9711782
53	0xbd23363e	-0.03984665
54	0xbf2ff7a4	-0.68737245
55	0xbf977ce3	-1.1834987
56	0xbee5098e	-0.44733852
57	0x3ea51a92	0.32246834
58	0xbf58fef5	-0.84764034
59	0x3c44b634	0.012006331
60	0xbec0bf93	-0.3764616
61	0xbf0034f8	-0.50080824
62	0xbf3c12d2	-0.7346622
63	0xbf4a7977	-0.7909159

weight f4 [32, 64]
0	0xbef69d0b	-0.4816669
1	0xbf06cb39	-0.52653843
2	0xbe1af09d	-0.15130849
3	0xbf12780c	-0.57214427
4	0xbe8e4da1	-0.277936
5	0xbf359ef6	-0.7094568
6	0xbe49f4ea	-0.19722334
7	0xbf30186d	-0.6878727
8	0xbdf39055	-0.118927635
9	0xbd6f4b9a	-0.05842171
10	0xbef7bf4f	-0.48388144
11	0xbe2cfcb6	-0.16893277
12	0x3ea1e002	0.31616217
13	0xbf2daa26	-0.6783775
14	0xbee21b40	-0.44161415
15	0xbf472ea8	-0.77805567
16	0xbe44d12c	-0.19220418
17	0x3e242023	0.16027884
18	0xbec80b48	-0.39071107
19	0xbea966fc	-0.33086383
20	0x3eb0317b	0.3441275
21	0xbf84e385	-1.0381933
22	0xbeef4eaf	-0.46739718
23	0xbef89445	-0.4855062
24	0xbf23cff8	-0.6398921
25	0xbea6be58	-0.32567096
26	0xbdcb376a	-0.09922679
27	0xbf1736a5	-0.59067756
28	0xbe78f36a	-0.24311605
29	0xbe250f8b	-0.1611921
30	0xbedd4ad4	-0.43221152
31	0xbe3293a1	-0.17439128
32	0xbe3a4f38	-0.18194282
33	0xbf74cb9a	-0.9562317
34	0xbe83f544	-0.2577306
35	0xbe3502d6	-0.17676863
36	0xbe981e21	-0.29710487
37	0xbe2f176b	-0.17098777
38	0xbee2f015	-0.44323793
39	0xbfa9140c	-1.3209243
40	0xbeb6fc63	-0.3573943
41	0xbe917306	-0.28408068
42	0x3ddf7d75	0.10912601
43	0xbee3925d	-0.44447604
44	0xbeef7548	-0.46769166
45	0xbe9f4f8e	-0.31115383
46	0xbe95bbd9	-0.2924488
47	0xbeb68494	-0.35648024
48	0xbe4d908c	-0.20074672
49	0xbddfd5b3	-0.10929432
50	0xbf76bd8d	-0.9638298
51	0x3f019561	0.5061856
52	0xbe8b433f	-0.27199742
53	0xbf8e60c1	-1.1123277
54	0xbda3b5ea	-0.07993682
55	0x3e5a3198	0.21307981
56	0xbe005b88	-0.12534916
57	0xbf81d970	-1.0144482
58	0x3e16d604	0.14730078
59	0xbf1b122a	-0.6057459
60	0xbef386c2	-0.4756375
61	0x3c79e7c7	0.015253014
62	0xbdf25651	-0.1183287
63	0x3f0a34ac	0.5398662
64	0xbe501e53	-0.20324068
65	0xbe88e48c	-0.26736867
66	0xbe87e060	-0.26538372
67	0xbea4bc03	-0.32174692
68	0xbf30bb9d	-0.69036275
69	0xbf445d10	-0.767045
70	0xbdd09184	-0.10184005
71	0x3dd2fe59	0.10302419
72	0xbd87e1cf	-0.066348664
73	0xbeca9d1d	-0.39572993
74	0xbeec631e	-0.4616937
75	0xbcd0e52a	-0.025499899
76	0xbf183417	-0.5945448
77	0xbe22f07c	-0.1591205
78	0xbe176a0e	-0.1478655
79	0x3dbc6712	0.091993466
80	0xbf2c7471	-0.67365175
81	0xbe6617dc	-0.22470039
82	0xbe001ed9	-0.12511767
83	0xbf1f8ba5	-0.62322456
84	0xbeb94661	-0.36186507
85	0xbd06e2bb	-0.03293107
86	0x3ee70a57	0.45125076
87	0xbe77ad42	-0.24187186
88	0xbf289bdf	-0.6586284
89	0xbf08d4d1	-0.5344973
90	0xbe9fcdac	-0.31211603
91	0xbf231956	-0.63710535
92	0xbe836ce7	-0.25669023
93	0xbd97c07c	-0.0740976
94	0x3e84f47e	0.25967783
95	0xbe9b5235	-0.30336156
96	0xbdb83d3e	-0.08996056
97	0x3d76fb0c	0.06029801
98	0x3d824cd8	0.06362313
99	0x3e270e11	0.1631396
100	0x3e44bf1a	0.19213524
101	0xbeb5e9a7	-0.35529825
102	0xbe5b19df	-0.21396588
103	0xbe31f82b	-0.17379825
104	0xbdd39854	-0.10331789
105	0x3e285c99	0.16441573
106	0xbdaa2927	-0.083086304
107	0xbeee7cca	-0.46579581
108	0xbb773d4a	-0.003772574
109	0xbeaefa69	-0.34175423
110	0xbda099dc	-0.07841846
111	0xbef32bf2	-0.47494465
112	0xbe63f72f	-0.22262262
113	0xbefee5d7	-0.4978473
114	0xbe590aa9	-0.21195473
115	0xbf0af76f	-0.54283804
116	0xbf1e8cc4	-0.6193354
117	0xbe123b92	-0.14280537
118	0xbe0ee508	-0.13954556
119	0x3e4509cb	0.19242017
120	0xbe81db16	-0.25362462
121	0x3e7fb84b	0.24972646
122	0xbea03f49	-0.31298283
123	0xbf168a11	-0.5880442
124	0xbef52f82	-0.47887808
125	0xbddd1b54	-0.10796228
126	0xbed252c6	-0.41078776
127	0xbc8b2fbd	-0.016990537
128	0xbebdc519	-0.37064436
129	0xbf02d0b4	-0.51099706
130	0x3da5408b	0.08068951
131	0x3d287b16	0.04113301
132	0xbe193847	-0.14962874
133	0xbea15d30	-0.3151641
134	0xbedaa79d	-0.42706004
135	0x3cad7c5e	0.021177467
136	0xbf13e3d5	-0.5776952
137	0x3e2e9f2e	0.1705291
138	0xbeff7caa	-0.498998
139	0xbe8177ec	-0.25286806
140	0xbed94b7d	-0.42440405
141	0xbf80b159	-1.0054122
142	0xbd99895f	-0.074969046
143	0xbe00ec9a	-0.12590256
144	0xbef9b350	-0.48769617
145	0x3d139302	0.03602887
146	0xbec087bf	-0.37603566
147	0xbeea3961	-0.45746902
148	0xbde9565d	-0.113934256
149	0xbf2ac0e0	-0.66700554
150	0xbe39503b	-0.18097012
151	0xbf4a6dfc	-0.7907407
152	0xbea00d06	-0.31259936
153	0x3c332edb	0.010936464
154	0x3c0b12c4	0.008488361
155	0xbed852d3	-0.4225069
156	0x3db4c24a	0.0882612
157	0xbed5e144	-0.41773427
158	0xbf0dbcfa	-0.5536648
159	0xbf3e1b9f	-0.74260896
160	0xbf457493	-0.77131003
161	0x3ce8ace3	0.028402751
162	0x3d30310f	0.043015536
163	0xbee8526d	-0.45375386
164	0xbec27e0a	-0.37986785
165	0xbef48d06	-0.47763842
166	0xbdadd914	-0.0848867
167	0xbf5c1263	-0.85965556
168	0xbed8f545	-0.42374626
169	0xbea16212	-0.31520134
170	0x3e8ab92b	0.27094397
171	0xbdeab63b	-0.11460539
172	0x3ebc6da9	0.36802414
173	0xbf020d58	-0.5080161
174	0xbed389db	-0.41316113
175	0xbe112d46	-0.14177427
176	0x3ed8a4dd	0.4231328
177	0xbe7fa9c4	-0.24967104
178	0xbf2fbfcc	-0.68652034
179	0xbf06311e	-0.52418697
180	0xbe206565	-0.15663679
181	0x3ea89e95	0.32933488
182	0xbeb655b6	-0.35612267
183	0x3e4f2444	0.20228678
184	0xbdb18a1a	-0.08668919
185	0xbdc279a7	-0.094958596
186	0x3ebfdaad	0.37471524
187	0xbf4e6fe4	-0.8063948
188	0xbf1fbd97	-0.62398666
189	0xbdfdee01	-0.12398911
190	0xbf0b2c63	-0.54364604
191	0xbcbc5ace	-0.022992518
192	0xbdbe8cf2	-0.09304227
193	0xbe4f05e0	-0.20217085
194	0xbd3649c1	-0.04450393
195	0xbe9f7b1b	-0.3114861
196	0xbf2e941d	-0.6819475
197	0xbe9faa19	-0.31184462
198	0xbf323b8b	-0.69622105
199	0xbf3a44c4	-0.7276118
200	0xbdf0ecca	-0.11763914
201	0xbf620319	-0.88285977
202	0xbe9fa36c	-0.31179368
203	0xbed0ce84	-0.4078256
204	0xbea36540	-0.31913185
205	0xbeff3686	-0.49846286
206	0xbf39ff61	-0.726553
207	0xbea48594	-0.32133162
208	0xbf0653af	-0.5247144
209	0xbdc3e1f0	-0.095645785
210	0xbe959ad1	-0.29219678
211	0x3dce888e	0.100846395
212	0xbedda11b	-0.43286976
213	0xbf1ec0ad	-0.6201275
214	0xbe85c6a7	-0.26128122
215	0x3e2229a4	0.15836197
216	0x3e3bffd2	0.18359306
217	0xbf2fef59	-0.6872459
218	0xbe265044	-0.16241556
219	0xbd37b28e	-0.044848017
220	0xbec7c108	-0.3901446
221	0xbf157517	-0.5838179
222	0x3e402620	0.18764544
223	0xbe852e8f	-0.26012084
224	0x3e929f2e	0.2863707
225	0xbed3fd8e	-0.41404384
226	0xbde2171e	-0.110395655
227	0xbca5437a	-0.020173777
228	0xbf0820b4	-0.531749
229	0xbf196334	-0.59916997
230	0x3c0e3905	0.008680587
231	0xbec16965	-0.37775722
232	0xbd6dd187	-0.05806115
233	0x3b8a33fb	0.0042176223
234	0xbe5f4906	-0.218052
235	0xbee3d4b7	-0.44498226
236	0xbe86f226	-0.2635662
237	0xbf380b4e	-0.7189225
238	0xbe0c6e3f	-0.1371393
239	0xbf10b6f0	-0.5652914
240	0xbf0fc8f6	-0.5616602
241	0xbda6dea2	-0.081479326
242	0xbf0f0e23	-0.55880946
243	0x3ea22d25	0.31675068
244	0xbe9be205	-0.30445877
245	0xbdb2df99	-0.08734054
246	0xbe88eac1	-0.26741603
247	0xbe8164a3	-0.25272092
248	0xbed3648f	-0.41287658
249	0xbe5123dd	-0.20423837
250	0xbf1db72e	-0.61607635
251	0x3e4155ad	0.18880339
252	0x3e925a9f	0.28584763
253	0xbe05337d	-0.13007922
254	0xbf48a95f	-0.7838344
255	0xbe93a7a1	-0.28838828

bias f4 [32]
0	0xbf0e8b9c	-0.55681777
1	0xbf22605b	-0.63428277
2	0x3bbdbbaa	0.0057901936
3	0xbe0b0fea	-0.1358029
4	0xbfb5db45	-1.4207541
5	0x3f85a43d	1.0440747
6	0xbf400b4a	-0.75017226
7	0xbf71ecce	-0.9450196
8	0xbe521a98	-0.20517957
9	0x3f5b2a9d	0.856119
10	0xbf432c2e	-0.7623929
11	0xbd4c1f6c	-0.049834654
12	0xbf320ad8	-0.69547796
13	0x3ec58185	0.38575378
14	0xbe61a039	-0.22033776
15	0xbf1df52a	-0.61702216
16	0x3d9c185b	0.07621833
17	0xbf3f98d2	-0.7484256
18	0xbf2f63e7	-0.68511814
19	0xbf03520e	-0.5129708
20	0xbe603293	-0.21894293
21	0xbce6892b	-0.028141579
22	0x3e510958	0.2041372
23	0x3f3590e1	0.7092419
24	0x3e8842be	0.2661342
25	0xbdc3b3f9	-0.095558114
26	0xbf0ed22b	-0.5578944
27	0x3f0e6602	0.556244
28	0xbec4ca97	-0.38435814
29	0xbe037af8	-0.12839878
30	0xbfa70443	-1.3048176
31	0xbfa7be63	-1.3104976

weight f4 [1, 32]
0	0x3df8a06a	0.121399716
1	0x3d63bb9a	0.055598833
2	0x3d49ebc8	0.049297124
3	0x3e1754f7	0.14778505
4	0x3d7d430d	0.061831523
5	0x3da83965	0.08214072
6	0x3d215269	0.039385233
7	0x3ddd5d08	0.1080876
8	0x3dc32aa9	0.09529621
9	0x3d98be09	0.07458121
10	0x3e5aea40	0.21378422
11	0x3d9cd720	0.07658219
12	0x3de4b6bd	0.11167667
13	0x3da7acfe	0.081872925
14	0x3dde046e	0.10840689
15	0x3d5a81bb	0.053346377
16	0x3d4c287d	0.0498433
17	0x3e16173c	0.146573
18	0x3cd7baf3	0.026334262
19	0x3d8a06cc	0.06739578
20	0xbcc05c69	-0.023481565
21	0x3d21fc05	0.039546985
22	0x3e00a48a	0.12562767
23	0x3d98b5ad	0.07456527
24	0x3d36ea65	0.04465713
25	0x3dd63c84	0.10460761
26	0x3d9c25d6	0.07624404
27	0x3dc6a794	0.09699932
28	0x3dd81031	0.10549963
29	0x3db25e63	0.08709409
30	0x3d858c81	0.065209396
31	0x3d70ea1f	0.058817025
