Models/TrainedModels/FCNNs/FCNN3.pt (torch, 17479 bytes, 5 tensors)

weight f4 [64, 22]
0.22281872 -0.25443426 -0.38269556 -0.24494259 -0.15021917 0.38337725 0.19732815 0.13635677
0.048411805 0.3107406 -0.5997285 0.028816275 0.33369228 -0.12489651 0.22591399 -0.16643581
-0.42868772 -0.2673361 0.6208584 0.3379976 -0.35055268 -0.04243556 -0.5138651 0.5216249
0.13486387 -0.725065 0.17536065 -0.23613483 0.26840118 -0.5145281 0.33966604 -0.075320505
-0.049920797 -0.4198938 -0.27613238 0.8051871 0.1736849 0.10218929 0.29060543 -0.07988376
0.32600868 0.009695024 -0.042110644 0.68456817 -0.36475417 0.4041134 -0.37350932 0.09516085
-0.16747628 -0.29925323 -0.20660463 0.024397334 -0.47681993 0.23081541 -0.4400988 0.53357637
0.31454566 0.27532357 0.20423993 0.14344662 0.17336556 -0.947398 0.22614065 0.27375355
-0.15834248 -0.68407744 0.38816336 0.15753664 0.5034437 -0.05495939 0.10081969 -1.1737635
0.57293516 0.0027390446 0.84442 -0.54552585 -0.15984459 -0.5001903 0.6537962 -0.14333631
-0.27692434 -0.77210397 0.783942 -0.6806767 0.11897183 -0.26547244 -0.67828786 -0.1653156
-0.16854821 -0.046570614 0.7509826 0.08257333 0.3269253 -0.2778317 -0.72576964 -0.11988486
0.15859598 0.17879102 0.20280422 0.39189366 0.7850857 -0.087083116 0.40457782 -0.38145083
0.28868955 0.043994423 0.94381064 -0.6088851 0.34518182 -0.14784135 -0.22195357 0.03395505
0.93119437 0.53992426 0.26028425 -0.550784 -0.46921986 -0.22844268 0.40928805 -0.21863483
0.090114765 0.25480983 -0.20556515 0.033197723 0.4697781 0.47198036 0.14212714 -0.3040691
0.19568636 0.09275095 0.06900477 -0.19818406 0.39384276 0.18518975 -0.10326191 -0.13381478
-0.25158837 -0.76829714 0.11263845 -0.051780477 -0.04941067 0.09858057 0.12239192 -0.7722587
0.33833617 -0.0100772735 0.062510476 -0.2688085 0.5981802 -0.02386693 -0.39159188 -0.050086815
-0.16147296 0.07409677 0.15808502 0.42152908 0.61557883 -0.21771944 0.9354007 0.13627401
-0.28185758 1.0765212 0.72705686 0.45220134 -0.13364004 -0.4021151 0.39479545 -0.015200726
-0.25961125 -0.3785876 1.3585236 0.5891525 -0.5600708 0.3693655 -0.17519154 -0.18291643
-0.54584414 1.0917169 0.09673238 0.20732744 0.18117025 0.38934726 -0.37269232 1.1556363
0.17687163 0.38712373 0.35118362 -0.15505315 -0.13151863 0.52799547 -0.33276278 -0.008528761
1.2682489 0.28501216 -0.24309154 -0.12167352 0.7261124 -0.39836267 -0.5066608 -0.06919817
0.2573668 0.09333283 0.7466102 -0.91287917 -0.9906725 0.07564605 0.46779874 1.0130914
0.11168154 -0.4153341 -0.7328985 -0.7382539 -0.5641073 -0.24398063 0.348861 -0.299391
0.10268974 -0.034279015 -0.5120831 0.06553008 0.20810457 0.45629153 -0.027899371 -0.44261497
0.26648605 0.29062247 0.47656056 -0.29561576 0.3728081 0.0040228465 0.19962415 0.4548443
0.10971428 -0.118509546 -0.2583398 0.21299243 0.08910999 0.6193247 0.11998737 0.4174969
0.45331818 0.14736797 -0.026057558 0.45482865 -0.23827206 -1.0147003 0.5368898 -0.9598716
-1.1047381 0.019242316 0.31994185 0.2379144 -0.256073 -1.0092525 0.5020551 0.21140699
00000000: 972a 643e 3545 82be acf0 c3be 3bd2 7abe
00000010: 0ed3 19be 064a c43e 6410 4a3e 1ca1 0b3e
00000020: 754b 463d 6419 9f3e cf87 19bf 1c10 ec3c
00000030: b7d9 aa3e bec9 ffbd ff55 673e 266e 2abe
00000040: f57c dbbe 47e0 88be 93f0 1e3f 050e ad3e
00000050: a47b b3be e9d0 2dbd aa8c 03bf 3689 053f
00000060: c119 0a3e dc9d 39bf be91 333e 54cd 71be
00000070: e16b 893e 1db8 03bf b5e8 ad3e a341 9abd
00000080: c079 4cbd 52fc d6be 3961 8dbe be20 4e3f
00000090: 74da 313e 9e48 d13d 3cca 943e 199a a3bd
000000a0: 9cea a63e e1d7 1e3c 367c 2cbd dc3f 2f3f
000000b0: 0fc1 babe f4e7 ce3e 9d3c bfbe b1e3 c23d
000000c0: e77e 2bbe b837 99be 2a90 53be ebdc c73c
000000d0: be21 f4be e05a 6c3e a154 e1be 7698 083f
000000e0: 210c a13e 36f7 8c3e 4624 513e ace3 123e
000000f0: be86 313e ad88 72bf 6a91 673e 6d29 8c3e
00000100: 8824 22be b31f 2fbf 59bd c63e 4951 213e
00000110: b0e1 003f 191d 61bd 8e7a ce3d e23d 96bf
00000120: e1ab 123f 8b81 333b e92b 583f 95a7 0bbf
00000130: 4dae 23be 790c 00bf 305f 273f c1c6 12be
00000140: 07c9 8dbe 9ba8 45bf 6cb0 483f d440 2ebf
00000150: 81a7 f33d 01ec 87be 46a4 2dbf 7e48 29be
00000160: e797 2cbe d4c0 3ebd 6540 403f 351c a93d
00000170: c162 a73e f53f 8ebe 0acc 39bf 3286 f5bd
00000180: fc66 223e fe14 373e e9ab 4f3e 49a6 c83e
00000190: 60fb 483f a258 b2bd d324 cf3e 864d c3be
000001a0: 1ecf 933e 7f33 343d 939d 713f e5df 1bbf
000001b0: acbb b03e b963 17be cc47 63be 7314 0b3d
000001c0: c162 6e3f 7a38 0a3f fa43 853e 2e00 0dbf
000001d0: 963d f0be e1ec 69be 348e d13e cfe1 5fbe
000001e0: 178e b83d 6f76 823e ac7f 52be 56fa 073d
000001f0: c186 f03e 69a7 f13e c789 113e f2ae 9bbe
00000200: 0162 483e 36f4 bd3d 5f52 8d3d c3f0 4abe
00000210: c2a5 c93e 62a2 3d3e fb7a d3bd be06 09be
00000220: 31d0 80be 1faf 44bf fdae e63d c417 54bd
00000230: d862 4abd 9ce4 c93d 9da8 fa3d bfb2 45bf
00000240: 663a ad3e 261b 25bc 7e05 803d 45a1 89be
00000250: 5622 193f 9484 c3bc bb7e c8be d527 4dbd
00000260: 2b59 25be 0cc0 973d 0ae1 213e a9d2 d73e
00000270: 9396 1d3f d8f1 5ebe 6c76 6f3f 6a8b 0b3e
00000280: a34f 90be 72cb 893f 6620 3a3f ef86 e73e
00000290: efd8 08be 08e2 cdbe a122 ca3e 770c 79bc
000002a0: c4eb 84be 3cd6 c1be 1ae4 ad3f b3d2 163f
000002b0: cd60 0fbf 7a1d bd3e 6965 33be 724e 3bbe
000002c0: 71bc 0bbf 61bd 8b3f a01b c63d a54d 543e
000002d0: b284 393e 8658 c73e 87d1 bebe e4eb 933f
000002e0: d61d 353e 1535 c63e 57ce b33e 41c6 1ebe
000002f0: d2ac 06be b62a 073f e25f aabe 37bc 0bbc
00000300: fb55 a23f 1ded 913e fdec 78be f72f f9bd
00000310: 81e2 393f 31f6 cbbe 86b4 01bf c5b7 8dbd
00000320: 95c5 833e 4825 bf3d d921 3f3f 73b2 69bf
00000330: b79c 7dbf 51ec 9a3d 5183 ef3e fbac 813f
00000340: 4bb9 e43d aca6 d4be 3c9f 3bbf 35fe 3cbf
00000350: 5669 10bf 0fd6 79be e99d b23e c749 99be
00000360: 004f d23d 2768 0cbd e117 03bf a234 863d
00000370: 5d19 553e 0b9f e93e 398d e4bc 6e9e e2be
00000380: dc70 883e 78cc 943e bfff f33e f35a 97be
00000390: b4e0 be3e 15d2 833b 466a 4c3e 5ae1 e83e
000003a0: e1b1 e03d 22b5 f2bd 1d45 84be b01a 5a3e
000003b0: 4c7f b63d 108c 1e3f f0bb f53d 27c2 d53e
000003c0: 5219 e83e a1e7 163e a976 d5bc 4ddf e83e
000003d0: 97fd 73be b3e1 81bf 9c71 093f 25ba 75bf
000003e0: 0f68 8dbf 10a2 9d3c 6bcf a33e d59f 733e
000003f0: 001c 83be 302f 81bf af86 003f 137b 583e

bias f4 [64]
-0.62197137 -0.57229966 -0.31720546 0.32429394 -0.59309596 -0.4203167 -1.0502363 0.48651612
-0.5956911 -0.009417393 -0.80153763 0.59744376 -0.9161703 -0.2028762 -0.92537385 -0.8695064
-0.4701812 -1.126624 -0.4800444 -0.63961166 -0.6317496 -0.52660096 0.021865515 -0.60017806
-0.70553446 -0.43385476 0.044144526 -0.28574094 -0.31632185 -0.6639398 0.23035036 -1.182264
-0.19124144 -1.4739816 -0.8332345 -0.29028684 -0.5093347 -0.32390678 0.3698126 -0.92710555
-0.3121389 -0.7540318 0.63027585 -0.35931966 0.17851079 -0.2568995 -1.4374778 -1.2598039
-1.0438488 -0.9913251 -1.0440662 -0.47303948 -1.0917804 0.33343878 -0.40230715 -0.809672
-0.4993461 -0.1787808 -0.6404041 0.7684345 -0.25871307 -1.0889571 -1.0503436 -0.24842398
00000000: 8439 1fbf 3b82 12bf c168 a2be db09 a63e
00000010: 23d5 17bf c033 d7be 256e 86bf a418 f93e
00000020: 367f 18bf 694b 1abc 9231 4dbf 13f2 183f
00000030: 238a 6abf c7be 4fbe 4de5 6cbf f997 5ebf
00000040: 97bb f0be 3735 90bf 61c8 f5be 97bd 23bf
00000050: 57ba 21bf 52cf 06bf 4f1f b33c 45a5 19bf
00000060: e89d 34bf 3622 debe e4d0 343d a34c 92be
00000070: f0f4 a1be f5f7 29bf f7e0 6b3e 6d54 97bf
00000080: ccd4 43be 6eab bcbf db4e 55bf 7aa0 94be
00000090: c263 02bf 1cd7 a5be 1458 bd3e ca56 6dbf
000000a0: abd0 9fbe 3a08 41bf c259 213f bff8 b7be
000000b0: 88cb 363e 5588 83be 46ff b7bf 4141 a1bf
000000c0: d69c 85bf 7bc7 7dbf f6a3 85bf 3b32 f2be
000000d0: 76bf 8bbf 7db8 aa3e 34fb cdbe aa46 4fbf
000000e0: 4baa ffbe 5012 37be 86f1 23bf 20b8 443f
000000f0: 0a76 84be f262 8bbf a971 86bf db62 7ebe

weight f4 [32, 64]
0.06965259 -0.16272968 -0.53916055 -0.94314736 0.3670726 -0.04400653 0.17638855 -0.35102633
-0.6476564 -0.66952217 -0.17992195 -0.22295976 -0.19360326 0.43425953 -0.37395936 -0.5860682
0.2585951 0.03372361 0.27410683 0.2801617 -2.500748 -0.23007548 -0.46468234 -0.32266533
-0.20185159 0.08481635 -0.8247574 -0.53515744 -0.281882 -0.36446634 -0.67323935 -0.2045918
-0.30054274 0.15988736 0.21018438 -1.5692422 -0.5039364 -0.012409582 -0.93313885 -0.037298296
-0.28110138 -0.20404802 -0.45730722 -1.5615693 -1.0562545 -0.20792232 0.24040584 -0.38529986
-0.34856573 -0.12689838 -0.86752474 -0.14065652 -0.3932416 -0.77402896 -0.17762357 0.048480585
0.19462384 -0.02924288 -0.21660258 -0.5051753 -0.36008224 0.35050356 -0.3361159 -0.34978312
-0.28744578 -0.8894926 -0.30721438 0.42037907 -0.6731654 -0.44815943 0.12945919 -0.21399936
0.15401472 0.0025421951 -0.3825696 0.13386756 0.11165637 -0.20570338 -0.19389844 -0.80346256
0.22808634 -0.1391202 -0.6265362 -0.45968565 0.03815276 -0.52174735 0.14125079 -0.31368044
-0.65741384 0.062333327 -0.07004919 0.09739082 -0.21569443 -0.62743634 -0.07741607 -0.5296102
0.017229859 -0.6740452 0.048179355 -0.2239907 -0.057163846 -0.12463667 -0.39343825 -0.09634773
-0.30058286 -0.22690691 -0.25492835 -0.07568966 -0.0012218488 -0.17600751 -0.25064912 -0.29087037
-1.0644569 -0.46702525 -0.21153213 -0.6893114 0.23882161 0.20777501 -0.17218858 -0.4996287
0.025166133 -0.9637983 -0.7840751 -0.32052717 -0.28043124 -0.4967704 -0.5534287 -0.32461664
0.33061185 -0.22021262 -0.31735992 -1.200885 0.13281026 -0.4591573 -0.16356875 -0.012486402
-0.55731475 -0.8503921 0.13235518 -0.7537762 -0.21807863 -0.014213623 -0.39086363 0.13109742
-0.35211614 0.23663102 0.2133546 -0.933738 -0.11128639 -0.2578017 -0.106408596 -0.524394
-0.30667597 0.15945679 -0.4217388 0.32020986 -0.5399563 -0.6345848 -0.95482355 -0.26495236
-0.63537884 -0.34703842 -0.5889084 -0.8181138 -0.9058696 -0.44821322 -0.7851983 0.24754876
-0.20500848 0.20927903 0.037611905 -0.94148 -0.7093688 0.14855762 -0.26286653 -0.16702177
0.5136467 0.2944343 -0.19550413 -0.30559772 -0.06642743 -0.12830034 -0.833942 0.27309832
-0.6688345 0.26954928 -0.3386584 -0.70732105 -0.6257008 0.16588265 -0.09611212 -0.051432516
0.050547518 -0.104350656 -0.016543156 -0.8228081 -0.079971746 0.089812584 -0.8829519 -0.98646694
-0.89390266 -0.29988864 -0.09071989 -1.0344309 0.09672255 -0.8181694 -0.6539285 0.6260908
-0.78520286 -0.0792431 -0.0027124095 -0.118396804 -0.4699885 0.16110487 -1.0712374 -0.6373142
-0.5116089 -0.28456035 -0.24751103 -0.13714555 -0.69075805 -0.7597685 0.07725499 -0.8328358
-0.36490625 0.18366532 -0.27464357 -0.76374537 -0.21859838 -1.215933 -0.96886504 0.3064785
-0.40396246 0.086845756 0.19332792 -0.87730265 0.07329628 -0.52801186 0.13861157 -0.5303172
0.20578457 0.061280984 -0.3837059 -0.34176245 0.12044681 -0.36503935 -0.5774788 0.1545409
-0.2110898 -0.6391452 -0.7391443 0.12025005 -0.3371724 -0.82872903 -0.06781649 -0.9828424
00000000: 04a6 8e3d 9ca2 26be 6d06 0abf 1b72 71bf
00000010: f1f0 bb3e 3140 34bd 339f 343e b9b9 b3be
00000020: cfcc 25bf ce65 2bbf 763d 38be 904f 64be
00000030: ef3f 46be 4457 de3e 9a77 bfbe 9108 16bf
00000040: 9466 843e c521 0a3d bb57 8c3e 5b71 8f3e
00000050: 410c 20c0 e898 6bbe d8ea edbe 6434 a5be
00000060: 2fb2 4ebe 32b4 ad3d 4d23 53bf 1400 09bf
00000070: d652 90be 559b babe 6a59 2cbf 8380 51be
00000080: bde0 99be 83b9 233e 933a 573e eedc c8bf
00000090: fa01 01bf 8f51 4bbc 30e2 6ebf 19c6 18bd
000000a0: 85ec 8fbe f7f1 50be 2c24 eabe 81e1 c7bf
000000b0: 5933 87bf 97e9 54be f32c 763e 0646 c5be
000000c0: 3577 b2be a6f1 01be 1a16 5ebf 4308 10be
000000d0: f756 c9be c326 46bf f4e2 35be 9493 463d
000000e0: 794b 473e c48e efbc 11cd 5dbe 2b53 01bf
000000f0: b35c b8be 3475 b33e 6217 acbe c616 b3be
00000100: 182c 93be c9b5 63bf 344b 9dbe ed3b d73e
00000110: 9154 2cbf 2775 e5be f390 043e a622 5bbe
00000120: 09b6 1d3e f59a 263b 2ae0 c3be 9414 093e
00000130: 18ac e43d e8a3 52be 508d 46be b9af 4dbf
00000140: 778f 693e 8775 0ebe ad64 20bf eb5b ebbe
00000150: 1246 1c3d 3c91 05bf 0ca4 103e b99a a0be
00000160: 464c 28bf 3b51 7f3d f375 8fbd d774 c73d
00000170: 00df 5cbe ab9f 20bf 518c 9ebd 8994 07bf
00000180: a225 8d3c 3a8e 2cbf b757 453d d15d 65be
00000190: a324 6abd 8341 ffbd bd70 c9be f551 c5bd
000001a0: ffe5 99be 495a 68be f885 82be 2e03 9bbd
000001b0: 7126 a0ba 503b 34be 1555 80be f6ec 94be
000001c0: 2040 88bf ef1d efbe e19b 58be b676 30bf
000001d0: a78d 743e f9c2 543e 3452 30be 55cf ffbe
000001e0: 3529 ce3c 7cbb 76bf 25b9 48bf 231c a4be
000001f0: af94 8fbe b158 febe 81ad 0dbf 2734 a6be
00000200: f545 a93e 6b7f 61be 007d a2be 9ab6 99bf
00000210: 6aff 073e aa16 ebbe 917e 27be c493 4cbc
00000220: 2eac 0ebf 4cb3 59bf 1e88 073e 7af7 40bf
00000230: 0150 5fbe 41e0 68bc 471f c8be 673e 063e
00000240: 9148 b4be 674f 723e a179 5a3e 7409 6fbf
00000250: 1eea e3bd 96fe 83be c0ec d9bd af3e 06bf
00000260: a204 9dbe a448 233e 26ee d7be 8cf2 a33e
00000270: 933a 0abf 2674 22bf 516f 74bf d6a7 87be
00000280: 30a8 22bf 05af b1be b3c2 16bf e86f 51bf
00000290: 12e7 67bf 347c e5be c102 49bf 6c7d 7d3e
000002a0: beed 51be 3e4d 563e f10e 1a3d d504 71bf
000002b0: 3299 35bf 7d1f 183e 7196 86be c107 2bbe
000002c0: 5a7e 033f 18c0 963e 3c32 48be 4e77 9cbe
000002d0: 1b0b 88bd 2a61 03be 397d 55bf 8bd3 8b3e
000002e0: bd38 2bbf 5d02 8a3e a264 adbe fe12 35bf
000002f0: ed2d 20bf 24dd 293e 6ed6 c4bd e7aa 52bd
00000300: ea0a 4f3d ccb5 d5bd 8385 87bc 8da3 52bf
00000310: 3ac8 a3bd a9ef b73d 2309 62bf 1989 7cbf
00000320: ced6 64bf 018b 99be 5acb b9bd 3b68 84bf
00000330: 7916 c63d 8d73 51bf dc67 27bf 7d47 203f
00000340: 0e03 49bf 354a a2bd aec2 31bb 067a f2bd
00000350: 55a2 f0be adf8 243e 4f1e 89bf 0627 23bf
00000360: cdf8 02bf e5b1 91be 8873 7dbe e26f 0cbe
00000370: 85d5 30bf 3080 42bf dd37 9e3d ba34 55bf
00000380: fed4 babe c312 3c3e 159e 8cbe d184 43bf
00000390: 41d8 5fbe b1a3 9bbf 8a07 78bf c0ea 9c3e
000003a0: 2bd4 cebe 30dc b13d c1f7 453e e896 60bf
000003b0: 5c1c 963d c92b 07bf 31f0 0d3e dec2 07bf
000003c0: 31b9 523e c501 7b3d 1a75 c4be 7dfb aebe
000003d0: d1ac f63d 70e6 babe a7d5 13bf f83f 1e3e
000003e0: ed27 58be 059f 23bf 9038 3dbf a945 f63d
000003f0: dca1 acbe 9627 54bf 5fe3 8abd 8f9b 7bbf

bias f4 [32]
-1.0364084 -0.078747205 -0.20433572 -0.22433896 -0.74918157 -0.2674779 -0.53734446 -0.018130848
-1.2290968 -0.7134623 -1.0772122 -0.118580036 0.31590727 -0.09244939 -0.44486117 0.3903185
-0.40118676 0.015401813 -1.5580317 -0.20975395 -0.4331186 -0.67346776 -0.95959896 0.5229643
-0.73746246 -0.85956335 -0.7216354 0.9338251 -0.45749313 -0.1856824 -0.026865602 -0.26530674
00000000: 08a9 84bf 3746 a1bd 623d 51be 1db9 65be
00000010: 5dca 3fbf ddf2 88be 688f 09bf 2587 94bc
00000020: 0b53 9dbf 77a5 36bf 17e2 89bf 17da f2bd
00000030: 99be a13e 1b56 bdbd d8c4 e3be d4d7 c73e
00000040: 5a68 cdbe e357 7c3c 956d c7bf bdc9 56be
00000050: b9c1 ddbe 6268 2cbf 47a8 75bf fde0 053f
00000060: 57ca 3cbf 580c 5cbf 19bd 38bf 290f 6f3f
00000070: 8a3c eabe 8723 3ebe 4015 dcbc 49d6 87be

weight f4 [1, 32]
-0.11811471 -0.0050184107 -0.07953028 -0.10816185 -0.091094926 -0.06610058 -0.059340946 0.02113017
-0.12808123 0.05410108 0.00317304 -0.0786962 -0.11238904 -0.06618535 -0.135735 -0.09417604
-0.0761281 -0.0793776 -0.01590551 -0.09184633 -0.10596302 -0.06879713 -0.1144098 -0.059254408
-0.12357975 -0.08120671 -0.078146875 -0.13278374 -0.01688075 0.038777493 -0.095736004 -0.12690559
00000000: 20e6 f1bd 7b71 a4bb c5e0 a2bd f683 ddbd
00000010: fa8f babd be5f 87bd 7e0f 73bd 2e19 ad3c
00000020: ba27 03be 1899 5d3d c7f2 4f3b 792b a1bd
00000030: 3a2c e6bd 2f8c 87bd 1efe 0abe 5edf c0bd
00000040: 0de9 9bbd b990 a2bd 464c 82bc ee19 bcbd
00000050: 2403 d9bd 82e5 8cbd af4f eabd c0b4 72bd
00000060: 6117 fdbd b44f a6bd 780b a0bd 76f8 07be
00000070: 8049 8abc 26d5 1e3d 3d11 c4bd 8af3 01be
