Models/TrainedModels/FCNNs/FCNN2.pt (torch, 94795 bytes, 25 tensors)

weight f4 [64, 22]
0	0x3e4670a5	0.19378908
1	0xbf8a0443	-1.078255
2	0xbf3069fb	-0.68911713
3	0xbd8d60af	-0.069032066
4	0xbef15546	-0.4713537
5	0xbefb112a	-0.49036533
6	0xbef15bad	-0.47140256
7	0x3e2b4cea	0.16728559
8	0xbe4f3e0d	-0.20238514
9	0x3da3583a	0.07975812
10	0x3e3921a3	0.18079238
11	0x3e7a2e75	0.24431784
12	0x3e06eead	0.13176985
13	0x3f7f98ad	0.9984234
14	0xbf5599bd	-0.8343771
15	0xbe00268f	-0.12514709
16	0x3d4e3e06	0.05035212
17	0x3db5f8ec	0.08885369
18	0xbe9d06e8	-0.30669332
19	0x3f93bc02	1.154175
20	0xbea98212	-0.33107048
21	0xbce017b4	-0.027355053
22	0xbea17497	-0.31534263
23	0xbf2b3b78	-0.6688762
24	0x3e2d854e	0.16945383
25	0xbe8e082e	-0.27740616
26	0x3ea0837f	0.31350324
27	0xbe7e55ff	-0.24837492
28	0xbed5bc38	-0.41745162
29	0x3e8027b5	0.25030294
30	0x3d913261	0.07089687
31	0x3e1dca37	0.1540917
32	0xbf27bf31	-0.6552611
33	0xbe92c80f	-0.28668258
34	0x3f7f8447	0.99811214
35	0xbf205ce7	-0.6264176
36	0xbec107b0	-0.37701178
37	0xbfab5ed3	-1.3388313
38	0xbe9bfcdb	-0.3046635
39	0xbf5d3be3	-0.86419505
40	0xbf2789b7	-0.6544451
41	0xbdbd02c3	-0.092290424
42	0xbdebe2a2	-0.11517836
43	0x3f63547c	0.8880079
44	0x3eeeb207	0.466202
45	0xbe3170a3	-0.17328124
46	0x3f28d203	0.6594545
47	0x3f344b3c	0.704273
48	0x3e898cb0	0.2686515
49	0x3e2da66a	0.16958013
50	0xbf327c07	-0.697205
51	0xbe7ad6a7	-0.24495946
52	0xbde808ef	-0.11329829
53	0x3eba9c90	0.36447573
54	0x3d986d32	0.07442702
55	0xbeaa741e	-0.33291715
56	0xbe2b9dc8	-0.16759408
57	0xbd897c73	-0.0671319
58	0xbec807b0	-0.39068365
59	0xbf3f314a	-0.74684584
60	0xbea4377f	-0.3207359
61	0x3f828343	1.0196308
62	0x3e0e8c12	0.1392062
63	0xbe2ea364	-0.17054516
64	0xbf408862	-0.75208104
65	0xbcb70f78	-0.022346243
66	0x3f3e4086	0.74317205
67	0xbf676831	-0.9039336
68	0xbeee31ab	-0.4652227
69	0x3e5586e6	0.20852241
70	0xbed236aa	-0.4105733
71	0x3f234d63	0.6378996
72	0x3de080d8	0.10962075
73	0xbf2e791e	-0.6815356
74	0xbf5c7609	-0.8611761
75	0x3e655603	0.22396092
76	0xbf862b54	-1.0481973
77	0x3e58b0f8	0.21161258
78	0x3e62b5c0	0.22139645
79	0xbe9715e3	-0.29508886
80	0xbdcdc3c4	-0.10047105
81	0xbe5ed56d	-0.21761103
82	0x3e955e5a	0.29173547
83	0x3c0ce416	0.008599302
84	0x3f6d2713	0.9263775
85	0x3ebb3c2b	0.36569342
86	0xbf439309	-0.7639623
87	0xbe887a7b	-0.26655945
88	0x3f9b39d0	1.2127018
89	0xbe98d566	-0.2985031
90	0x3c389b93	0.0112675605
91	0x3f4f4c06	0.8097538
92	0xbebab9ae	-0.36469787
93	0xbc755658	-0.014974199
94	0x3cb6c7f8	0.02231215
95	0xbf05a274	-0.5220101
96	0xbe6ea746	-0.23305997
97	0xbea07cff	-0.31345364
98	0xbf311b48	-0.6918225
99	0xbe71db8a	-0.23618904
100	0xbf755b43	-0.9584238
101	0x3e77ad06	0.24187097
102	0xbe414a27	-0.18875943
103	0x3e8407e9	0.25787285
104	0xbed9e56b	-0.42557845
105	0x3e86f096	0.26355428
106	0xbeaaa518	-0.33329082
107	0xbee5b535	-0.44864812
108	0x3e1e16bb	0.15438358
109	0x3f8bb208	1.0913706
110	0xbf0764df	-0.5288829
111	0x3db9d105	0.090730704
112	0x3e9aa50d	0.3020405
113	0xbe316b8f	-0.17326187
114	0xbe2266c6	-0.15859517
115	0xbf5577e0	-0.8338604
116	0x3ee3fa9e	0.44527143
117	0x3e0640aa	0.13110605
118	0x3f3a304e	0.7272996
119	0xbdb95d05	-0.09050945
120	0x3e1f1c82	0.15538219
121	0x3de8ed0d	0.11373339
122	0xbf0944ed	-0.536208
123	0x3e0edd26	0.13951549
124	0x3ec947c2	0.3931256
125	0x3e4965a0	0.19667673
126	0xbf4eeaae	-0.8082684
127	0x3fa3a501	1.278473
128	0x3f067d77	0.52535194
129	0xbfe40524	-1.7814069
130	0x3e7e7745	0.24850185
131	0x3f088f89	0.5334402
132	0xbf6a7386	-0.91582525
133	0x3f70ab67	0.9401154
134	0x3da7ba50	0.08189833
135	0x3e313a3e	0.17307374
136	0x3d6c1622	0.057638295
137	0xbf35a71f	-0.7095813
138	0x3d8933b7	0.06699317
139	0x3dff69a3	0.124713205
140	0x3d9f8cae	0.077905044
141	0xbdf7625c	-0.120793074
142	0x3e5bf6b9	0.21480836
143	0x3ec1f7b1	0.37884286
144	0x3e84e3fb	0.25955185
145	0x3e283498	0.16426313
146	0x3f0ecfc1	0.5578576
147	0x3ecc944f	0.399569
148	0xbf8913f0	-1.070921
149	0x3d160497	0.03662547
150	0xbe065ef3	-0.13122158
151	0xbf8187c4	-1.0119557
152	0xbf6ab85b	-0.91687554
153	0xbe5f3a98	-0.21799695
154	0x3ef92235	0.4865891
155	0xbc96afda	-0.0183944
156	0xbeb0563a	-0.34440786
157	0xbe84b94b	-0.25922617
158	0x3ce9e13a	0.02854978
159	0x3e545d6c	0.20738763
160	0xbf2610e8	-0.64869547
161	0xbe497e30	-0.19677043
162	0xbed09289	-0.40736797
163	0x3d0cc297	0.034365263
164	0xbf21c8a3	-0.6319677
165	0xbef22878	-0.472965
166	0x3f846f4d	1.0346466
167	0x3eb14785	0.34624878
168	0xbec4392c	-0.3832487
169	0xbfad0710	-1.351778
170	0xbcb9d0b4	-0.022682525
171	0x3ea46d9b	0.32114872
172	0x3f10ca47	0.5655865
173	0xbedde485	-0.4333841
174	0xbec40f1c	-0.38292778
175	0xbdf7e661	-0.12104488
176	0x3f1b9689	0.60776573
177	0xbf5884e1	-0.8457776
178	0xbb92e2c8	-0.004482601
179	0x3ee2d948	0.44306397
180	0x3d6a9f1a	0.057280637
181	0x3f7f211b	0.9965989
182	0x3ecfb8b3	0.40570602
183	0x3e08bdf1	0.13353707
184	0xbe38e41c	-0.18055767
185	0xbf47a4ff	-0.7798614
186	0xbe9579a1	-0.29194358
187	0xbdb78e12	-0.08962645
188	0x3ee637af	0.44964358
189	0xbed34c3e	-0.41269106
190	0x3f5b9219	0.857698
191	0xbf00b9ed	-0.502837
192	0x3ec50606	0.38481158
193	0x3c488c25	0.012240444
194	0xbe81a0aa	-0.2531789
195	0xbf1acde9	-0.60470444
196	0xbf375057	-0.71606964
197	0xbf015270	-0.50516415
198	0xbd968f34	-0.073515326
199	0x3f1b45a1	0.6065312
200	0xbe40c482	-0.18824962
201	0xbebb20ea	-0.3654855
202	0x3f6be2b4	0.92142797
203	0xbde207fb	-0.110366784
204	0xbe8155c1	-0.25260738
205	0xbf7e7d21	-0.9940968
206	0x3e212d1e	0.15739867
207	0x3ec30fe3	0.38098058
208	0xbe9a4380	-0.30129623
209	0xbed3f7d1	-0.41400006
210	0xbef44150	-0.4770608
211	0xbf1d6b82	-0.6149217
212	0x3da94fa0	0.082671404
213	0xbf07d843	-0.53064364
214	0x3efbbe50	0.49168634
215	0x3e01c3b2	0.12672308
216	0x3f4ffbd0	0.8124361
217	0x3f6031e0	0.87576103
218	0xbf495247	-0.7864117
219	0x3f43b339	0.7644535
220	0x3f7cd628	0.98764277
221	0xbcb67a3a	-0.022275079
222	0x3d302c9a	0.043011285
223	0x3e91d180	0.28480148
224	0x3f0c65c2	0.5484277
225	0x3ec3a0ea	0.38208705
226	0xbea79dda	-0.3273762
227	0x3f1592f7	0.58427376
228	0x3d39930d	0.045306254
229	0x3f23dd86	0.6400989
230	0xbeb6d905	-0.35712448
231	0x3ee6e79d	0.45098582
232	0x3f042e35	0.51633006
233	0xbf30ead9	-0.6910835
234	0xbc9f139c	-0.01941853
235	0xbf04d639	-0.5188938
236	0xbebbe5f3	-0.36698875
237	0x3f4a698d	0.7906731
238	0x3f054209	0.52053887
239	0x3f65e990	0.89809513
240	0xbe4e2066	-0.20129547
241	0x3d0ea900	0.03482914
242	0xbe9b4fee	-0.3033442
243	0xbdac93da	-0.08426638
244	0xbe95c951	-0.29255155
245	0xbf4f0198	-0.80861807
246	0xbeebf3f8	-0.4608457
247	0xbf88b44a	-1.068002
248	0xbaf905ca	-0.0018998918
249	0xbf0d4460	-0.55182457
250	0x3dcb4337	0.099249296
251	0xbeac7a45	-0.33687034
252	0x3ebd5a1e	0.36982816
253	0xbefc0c38	-0.49228072
254	0x3dc51ba3	0.09624412
255	0x3d12bfa9	0.035827313

bias f4 [64]
0	0x3f2de56b	0.6792819
1	0x3e44d9e6	0.19223747
2	0xbe4afa61	-0.19822074
3	0xbf17aaa7	-0.5924477
4	0xbf2d9f99	-0.6782165
5	0xbfa0c54a	-1.2560208
6	0xbf429f08	-0.7602391
7	0x3eff89e6	0.49909896
8	0xbf1ce98b	-0.6129386
9	0xbd5714ff	-0.052510258
10	0xbdca5e6c	-0.09881291
11	0xbe11548f	-0.14192413
12	0x3ede76dc	0.43450058
13	0x3e843674	0.25822794
14	0xbe5c6b2e	-0.21525261
15	0xbe135c70	-0.14390731
16	0xbe74a1aa	-0.23889795
17	0xbf15057a	-0.5821148
18	0xbece630d	-0.40309945
19	0xbebe8662	-0.372119
20	0x3cbc1716	0.022960227
21	0xbee3d965	-0.44501796
22	0xbee90636	-0.4551255
23	0xbf30be60	-0.6904049
24	0xbedccd62	-0.43125445
25	0xbe6f58d7	-0.23373733
26	0xbe61727b	-0.22016327
27	0xbf9861fd	-1.1904904
28	0x3f013fd4	0.5048802
29	0xbf8c599f	-1.096485
30	0xbf894864	-1.0725217
31	0xc0015359	-2.0207121
32	0x3d60e5b9	0.05490658
33	0x3ea42d7c	0.32065952
34	0xbf1ff407	-0.6248173
35	0xbf44f00a	-0.7692877
36	0xbf3047aa	-0.6885935
37	0x3e2daae1	0.16959716
38	0xbf89acdd	-1.0755879
39	0xbef28bfa	-0.4737242
40	0xbf1f6319	-0.62260586
41	0xbf374700	-0.7159271
42	0xbf0333d0	-0.51250935
43	0xbfc37953	-1.52714
44	0xbf083d16	-0.5321821
45	0xbf5ced56	-0.86299646
46	0xbfa4a620	-1.2863197
47	0xbf1e3b12	-0.61808884
48	0xbeeea389	-0.46609142
49	0xbf0bf6e4	-0.546736
50	0xbf56f0b6	-0.83961046
51	0xbcf69c09	-0.0301037
52	0xbea07718	-0.3134086
53	0xbd039dc8	-0.032132894
54	0xbf495f63	-0.78661174
55	0xbebe1b38	-0.3713014
56	0xbf24767f	-0.6424331
57	0xbf6c62b7	-0.92338127
58	0xbf2e594b	-0.68105
59	0xbf479b8b	-0.77971715
60	0xbf247de6	-0.64254606
61	0xbf7507e2	-0.95715153
62	0xbf3cc821	-0.7374287
63	0xbe9f0115	-0.31055513

weight f4 [128, 64]
0	0xbf2e36dd	-0.68052465
1	0x3e5a33b9	0.21308793
2	0xbe9bfc0d	-0.30465737
3	0xbea4a0bf	-0.3215389
4	0xbee7e0a3	-0.45288572
5	0xbe824cb8	-0.25449157
6	0xbdf1a7ef	-0.11799609
7	0xbf1c2b49	-0.6100355
8	0xbe9fef9e	-0.312375
9	0xbeec42b8	-0.46144652
10	0x3e75c9f9	0.24002828
11	0xbc93d906	-0.01804782
12	0x3e7022ab	0.23450725
13	0xbe237562	-0.15962747
14	0x3ec1d9b8	0.3786142
15	0xbdc0d083	-0.094147705
16	0xbf4b75c6	-0.79476583
17	0x3f01d94d	0.507222
18	0xbe6de29f	-0.2323098
19	0x3e6a6b40	0.22892475
20	0x3e8a805f	0.27051064
21	0xbeb1806e	-0.34668297
22	0xbec05dea	-0.3757165
23	0xbda3e1c7	-0.08002048
24	0x3d218138	0.039429873
25	0xbde0bb23	-0.109731935
26	0xbf090ebd	-0.53538114
27	0xbf0dbabd	-0.55363065
28	0xbf30d8f4	-0.69081044
29	0x3da54d7a	0.08071418
30	0x3e66cbe9	0.22538723
31	0xbe2c7330	-0.16840816
32	0x3dfb0116	0.122560665
33	0x3f2529dd	0.64517003
34	0xbee0f390	-0.43935823
35	0xbf1317f6	-0.57458436
36	0x3e657d04	0.22410971
37	0xbecd4df1	-0.40098527
38	0x3d7f94e7	0.062397864
39	0xbe954794	-0.29156172
40	0x3f0b1aae	0.54337585
41	0xbf49d9a1	-0.788477
42	0xbdab5ff7	-0.08367913
43	0xbeb5b7bb	-0.35491738
44	0x3eedf87b	0.46478638
45	0xbe22c507	-0.15895472
46	0xbee37663	-0.4442626
47	0x3eae0694	0.33989394
48	0x3e6bb450	0.23018003
49	0xbf0bfb16	-0.5468
50	0x3ecf6b06	0.4051134
51	0xbf2303cf	-0.63677686
52	0xbf1203a4	-0.57036805
53	0xbe898732	-0.26860958
54	0xbdf8d32f	-0.12149655
55	0x3f1f26d6	0.62168634
56	0xbf523109	-0.8210607
57	0xbd03d711	-0.032187525
58	0xbf1154f2	-0.5677024
59	0xbd11b808	-0.035575897
60	0xbf1d66ce	-0.6148499
61	0xbe73e1bf	-0.23816584
62	0xbee50cea	-0.44736415
63	0xbebd466f	-0.369678
64	0x3ef80bc5	0.4844648
65	0x3e820af2	0.25398976
66	0x3ee04a51	0.438067
67	0xbec1dd50	-0.3786416
68	0x3e06ff30	0.13183284
69	0xbdc2b0ab	-0.09506353
70	0xbe770674	-0.24123555
71	0xbe31fb06	-0.17380914
72	0xbec3bb71	-0.38228944
73	0x3e93fa85	0.2890207
74	0x3f1528bb	0.58265275
75	0x3eb5ba99	0.35493925
76	0x3eea887d	0.45807257
77	0x3ec4cd1d	0.3843774
78	0x3f0d0acb	0.55094594
79	0xbedd4c1d	-0.43222132
80	0x3e308ba0	0.17240763
81	0x3e78bf11	0.24291636
82	0x3eb13d14	0.3461691
83	0x3d81706e	0.063202724
84	0xbe3ce558	-0.18446863
85	0xbeb2f2cb	-0.3495086
86	0xbeacc4e1	-0.33743957
87	0x3d1c27f1	0.03812403
88	0xbdf0db09	-0.11760528
89	0x3e91382b	0.28363165
90	0x3f0c201f	0.5473651
91	0x3dc4c968	0.09608728
92	0x3c3d8e7f	0.011569618
93	0x3d9f82f6	0.07788651
94	0xbea2349c	-0.31680763
95	0xbe56b50f	-0.20967506
96	0xbe458993	-0.19290762
97	0xba55fae7	-0.00081626925
98	0x3e5e2d8f	0.21697067
99	0x3ea05f00	0.3132248
100	0xbe9368d2	-0.2879091
101	0xbee099d8	-0.43867373
102	0xbea8b3c9	-0.32949665
103	0x3f203c0e	0.62591636
104	0x3d4ec14a	0.050477304
105	0x3e960f3d	0.293085
106	0xbb66382d	-0.0035128698
107	0x3ec70bf5	0.3887631
108	0xbe1410f0	-0.14459586
109	0xbf3cf8fd	-0.73817426
110	0xbee948aa	-0.4556325
111	0xbdce2f09	-0.10067565
112	0xbf3d4d7e	-0.7394637
113	0x3ced8cec	0.02899786
114	0x3d680aa5	0.056650776
115	0xbdbe3cae	-0.092889175
116	0xbf32a47a	-0.6978222
117	0x3e9a9b75	0.3019673
118	0xbea08dd7	-0.31358215
119	0x3e9d5032	0.30725247
120	0xbd264319	-0.040591333
121	0xbdf138ab	-0.11778387
122	0x3e92c15e	0.28663152
123	0x3c40c883	0.011766556
124	0x3e46735b	0.19379942
125	0xbe2a27a4	-0.16616684
126	0xbe8fac4b	-0.28061137
127	0xbeb4208a	-0.35181075
128	0x3e03dda7	0.12877522
129	0xbdd30033	-0.103027724
130	0xbec2915c	-0.38001525
131	0x3bb09405	0.005388739
132	0x3deabdce	0.114619836
133	0xbe3c55bd	-0.18392082
134	0x3e489de8	0.19591486
135	0x3d79a096	0.060944162
136	0x3eabdd0c	0.33567083
137	0xbf0d376d	-0.551627
138	0xbc64aac3	-0.013956728
139	0xbe21fb89	-0.1581861
140	0xbe734012	-0.2375491
141	0x3eba1443	0.36343583
142	0x3cacb27d	0.021081204
143	0x3ea71e50	0.32640314
144	0x3e940cf9	0.28916147
145	0x3b62ae66	0.0034588813
146	0x3e9556fc	0.29167926
147	0xbe9e881c	-0.30963218
148	0x3eb75517	0.35807106
149	0x3da157e2	0.078780904
150	0x3ea2d8fd	0.31806174
151	0xbd4152b2	-0.047198005
152	0xbdb83314	-0.089941174
153	0xbe735dfe	-0.23766324
154	0xbe0a25a2	-0.13490918
155	0x3db570c3	0.08859398
156	0x3e46ce58	0.19414651
157	0xbc179ddb	-0.009253944
158	0xbdfc1a7d	-0.1230974
159	0x3e97a5f3	0.29618797
160	0xbe93ab9a	-0.2884186
161	0xbddced14	-0.107874066
162	0xbed6f7d7	-0.41985962
163	0xbe1d9fa5	-0.15392931
164	0x3d1cc0c6	0.03826978
165	0x3cd17ed0	0.025573164
166	0x3cb02e9e	0.021506604
167	0xbe9762f2	-0.29567677
168	0xbf07647a	-0.5288769
169	0xbeac2199	-0.33619383
170	0x3e5e7243	0.21723275
171	0x3e0ad8db	0.13559286
172	0xbe19594d	-0.14975472
173	0x3e8098fe	0.25116724
174	0xbed30e65	-0.4122192
175	0xbee2b29d	-0.44276896
176	0x3ec49999	0.38398436
177	0x3ea0520b	0.31312594
178	0xbeaeff1f	-0.34179017
179	0x3deee1e9	0.11664183
180	0x3ed7c7d1	0.42144635
181	0x3e7a4cdf	0.24443386
182	0xbea66177	-0.32496235
183	0xbe2a92f3	-0.16657619
184	0xbf0031bf	-0.50075907
185	0x3de430ef	0.11142146
186	0xbd4bce46	-0.049757265
187	0xbf03412b	-0.51271313
188	0xbd3dc509	-0.046330485
189	0x3e88c575	0.26713148
190	0x3eeef477	0.46670887
191	0x3dab9e2d	0.08379779
192	0x3e692994	0.22769767
193	0xbe107485	-0.14106949
194	0x3e8fc12c	0.28077066
195	0x3eab8fa0	0.33508015
196	0xbe25a383	-0.16175656
197	0xbe015991	-0.12631823
198	0xbd791bc1	-0.060817484
199	0x3eaef6a7	0.34172556
200	0xbeda319c	-0.42615974
201	0x3ebd8fdc	0.37023818
202	0x3e6d4e71	0.23174454
203	0x3e3adafe	0.18247601
204	0x3de3fb79	0.11131949
205	0x3ebdff98	0.37109065
206	0x3d857b7e	0.06517695
207	0xbe9f8423	-0.311555
208	0xbf7fa4c2	-0.99860775
209	0x3e84c696	0.2593276
210	0x3e0536d6	0.130092
211	0x3d945070	0.07241905
212	0x3eba3b30	0.3637328
213	0x3f14b298	0.5808501
214	0x3daec61f	0.08533882
215	0x3eebddd6	0.46067685
216	0x3d7f7078	0.062363118
217	0xbef6424e	-0.4809746
218	0x3eb12195	0.34595934
219	0x3f36f551	0.71468073
220	0x3f1fef10	0.62474155
221	0xbe762312	-0.24036816
222	0xbd24adcb	-0.040204804
223	0xbe0c8934	-0.13724214
224	0x3cc9d7c4	0.024639018
225	0xbdd944c2	-0.10608818
226	0xbe97c136	-0.29639596
227	0x3edb3fb9	0.42822054
228	0xbda7fdf9	-0.08202738
229	0xbe52f0ab	-0.2059962
230	0xbeded3e0	-0.43521023
231	0xbc7f923e	-0.015598832
232	0x3ed320ce	0.41235965
233	0x3f4f6865	0.8101867
234	0xbf66cb8e	-0.9015435
235	0x3df2be1f	0.11852669
236	0x3ed8018c	0.4218868
237	0x3d6b2ebb	0.057417613
238	0x3ecce479	0.4001806
239	0xbea93021	-0.33044532
240	0xbf13badd	-0.57707006
241	0xbdd1a9a7	-0.10237437
242	0x3e5318f6	0.2061499
243	0xbe51fa5f	-0.20505665
244	0x3d540731	0.05176467
245	0xbea2279f	-0.31670853
246	0xbed1fa8a	-0.4101146
247	0xbec84121	-0.3911219
248	0x3d6455eb	0.055746
249	0xbe9ce566	-0.30643767
250	0x3e394523	0.1809278
251	0xbec257e3	-0.37957677
252	0x3e5ff3ad	0.21870299
253	0xbeb4a031	-0.35278466
254	0x3d41e1ab	0.047334354
255	0x3cf1355b	0.029444387

bias f4 [128]
0	0xbf149aa5	-0.5804847
1	0xbecf1141	-0.4044285
2	0xbe5c54c9	-0.21516718
3	0x3d35c2a1	0.044375066
4	0xbd7c1562	-0.06154383
5	0xbdf3a5ac	-0.11896834
6	0xbf4c5ce9	-0.7982927
7	0xbe345553	-0.17610674
8	0xbf148a9c	-0.58024
9	0xbee0e1c5	-0.43922248
10	0xbf83911f	-1.0278662
11	0x3ec7fac7	0.39058515
12	0xbf7e6261	-0.99368864
13	0xbf42d075	-0.7609933
14	0x3b8c9ae1	0.004290924
15	0xbf5f826a	-0.8730837
16	0xbdc16e73	-0.09444895
17	0xbe5cd715	-0.21566422
18	0xbf1159cd	-0.5677765
19	0xbf1c82c3	-0.61137027
20	0xbeb8ff25	-0.3613216
21	0xbe3a8520	-0.18214846
22	0x3e339f7b	0.17541306
23	0xbf6aa0cc	-0.91651607
24	0xbf43185d	-0.7620905
25	0x3d9fd99e	0.07805179
26	0xbed66ef8	-0.41881537
27	0xbeb72903	-0.35773477
28	0xbf39de46	-0.7260479
29	0x3d8f0fe2	0.06985451
30	0xbfa55de6	-1.291928
31	0xbf846d41	-1.0345842
32	0xbf428b8d	-0.7599419
33	0xbebdad49	-0.3704627
34	0xbf237666	-0.63852537
35	0xbe5b24af	-0.21400712
36	0xbec70750	-0.38872766
37	0xbea30c11	-0.31845143
38	0xbf44b9d7	-0.7684607
39	0xbf75258a	-0.95760405
40	0xbeb4145e	-0.3517179
41	0xbe25f518	-0.16206777
42	0xbe06d136	-0.13165745
43	0xbea1d63d	-0.31608763
44	0xbf07526c	-0.5286014
45	0xbf6c54bd	-0.923168
46	0xbe3effd3	-0.18652277
47	0xbf1132bf	-0.5671806
48	0xbe5b6377	-0.21424662
49	0xbf7f1cf1	-0.99653536
50	0xbf3ea1a5	-0.744654
51	0x3e407ce0	0.18797636
52	0xbe9244a2	-0.28567988
53	0x3e0bc13c	0.13647932
54	0xbe1b3568	-0.15157092
55	0xbec60e34	-0.3868271
56	0xbecbddf2	-0.39817768
57	0xbf0d1593	-0.55111045
58	0xbe7117de	-0.23544261
59	0xbebdf9f5	-0.37104765
60	0xbea2d516	-0.31803197
61	0xbe0a474a	-0.13503757
62	0xbdab56ba	-0.08366151
63	0xbf09b460	-0.53790855
64	0x3ea22bc9	0.3167403
65	0xbf547a21	-0.82998854
66	0xbee9445c	-0.45559967
67	0x3e3094da	0.17244282
68	0xbf3cff50	-0.73827076
69	0xbe909929	-0.28241852
70	0xbea1177f	-0.3146324
71	0xbebbbfb8	-0.36669707
72	0xbe11af9f	-0.1422715
73	0xbd975d0f	-0.073907964
74	0xbe14023b	-0.14453976
75	0xbf2e8de9	-0.6818529
76	0xbef27baa	-0.47359973
77	0xbe8ae4a5	-0.27127567
78	0xbebeced4	-0.37267172
79	0xbca85a2f	-0.020550815
80	0xbf154171	-0.5830298
81	0xbe8bbab5	-0.27290884
82	0x3d998b21	0.0749724
83	0xbecb5b13	-0.39717922
84	0x3ecc7a2d	0.39936963
85	0xbf13116f	-0.57448477
86	0xbe8bb255	-0.27284494
87	0x3e99da77	0.30049488
88	0xbeb87402	-0.36026007
89	0xbf0c8178	-0.54885054
90	0xbefc0970	-0.4922595
91	0xbe8f306f	-0.2796664
92	0xbd598658	-0.053106636
93	0xbe0e8ae5	-0.13920172
94	0xbf14a503	-0.5806429
95	0xbeace879	-0.33771113
96	0x3d9eb1bc	0.07748744
97	0xbe348c23	-0.17631583
98	0x3e8cedf7	0.27525303
99	0xbdac30ad	-0.08407722
100	0x3ca51b65	0.020154664
101	0xbed23f1b	-0.4106377
102	0x3ce201b1	0.027588697
103	0xbeeaa4af	-0.4582877
104	0xbf2ee2c2	-0.68314755
105	0xbe7f343f	-0.24922274
106	0xbf1ac17f	-0.604515
107	0xbe393d5c	-0.18089813
108	0xbf02982a	-0.51013434
109	0xbf798ed9	-0.97483593
110	0xbf243bc2	-0.64153683
111	0xbcb197eb	-0.021678885
112	0xbf6e7736	-0.9315065
113	0x3bc0a115	0.0058785775
114	0x3e8d94c4	0.27652562
115	0xbefdc44b	-0.49563822
116	0xbd4445dd	-0.04791819
117	0xbf263baa	-0.6493479
118	0x3e16e83f	0.14737032
119	0xbe9346db	-0.28764996
120	0xbf842c35	-1.0325991
121	0xbdb8ee60	-0.090298414
122	0x3e6e98c1	0.23300458
123	0xbdb73156	-0.08944957
124	0xbf188bc8	-0.5958829
125	0xbd3e2758	-0.04642424
126	0x3e8d1465	0.27554622
127	0xbe5a4dc5	-0.21318729

weight f4 [64, 128]
0	0xbeb9e9be	-0.36311144
1	0xbea985db	-0.33109936
2	0xbead275b	-0.33819088
3	0xbed9dbc3	-0.42550477
4	0xbf2b563f	-0.66928476
5	0xbe90292e	-0.28156418
6	0xbe849fe6	-0.25903243
7	0xbb9eee66	-0.0048501967
8	0xbd81b04b	-0.06332453
9	0x3e0e562e	0.13900062
10	0x3f0dde4a	0.5541731
11	0xbf07a048	-0.52978945
12	0xbe0b2fb8	-0.13592422
13	0x3e73dc2b	0.23814456
14	0xbe85fcb4	-0.2616936
15	0xbf0bb829	-0.5457788
16	0xbee06986	-0.43830508
17	0x3e6dd7f9	0.23226918
18	0x3ccb9e7a	0.024855841
19	0xbf0e7123	-0.5564138
20	0xbe2468f3	-0.1605566
21	0xbe4c5bfb	-0.19956963
22	0xbd3d1e9b	-0.046171766
23	0xbeb595e6	-0.35465926
24	0xbaaecbd7	-0.0013335895
25	0xbeac1855	-0.33612314
26	0xbed2ba60	-0.41157818
27	0x3e6652d6	0.22492537
28	0xbe1d1924	-0.15341622
29	0xbeb39652	-0.35075623
30	0xbe822555	-0.25419107
31	0x3e5f274d	0.21792336
32	0x3ea06a08	0.31330895
33	0x3d7fb415	0.0624276
34	0xbe64346f	-0.22285627
35	0x3ef8ef98	0.48620296
36	0x3ef67576	0.4813649
37	0xbeb68ad1	-0.35652784
38	0xbc9f6b97	-0.019460483
39	0x3cc68ff3	0.024238562
40	0x3d1d92a8	0.03846994
41	0x3eacc926	0.33747214
42	0xbf2f0126	-0.6836113
43	0xbe2b719d	-0.16742559
44	0x3cdae8d3	0.026722347
45	0x3e1d8fdb	0.15386908
46	0xbed0377d	-0.40667334
47	0xbdaae206	-0.08343892
48	0x3f25f463	0.6482603
49	0xbed82caa	-0.42221576
50	0xbe826e3f	-0.25474736
51	0x3b92b043	0.0044765784
52	0xbf09c1b4	-0.5381119
53	0x3ea1bc6c	0.31589067
54	0xbeb9b52f	-0.36271045
55	0xbe802202	-0.25025946
56	0xbd6c8148	-0.05774048
57	0x3e6765fc	0.22597498
58	0xbd1b78c1	-0.037956957
59	0xbd9ae3f3	-0.07563009
60	0xbdfc5ba0	-0.123221636
61	0x3ea1afc8	0.31579423
62	0xbd9396c7	-0.07206493
63	0x3ee13128	0.43982816
64	0xbe27b95c	-0.16379303
65	0x3ed78961	0.42097
66	0xbe7d23e9	-0.2472073
67	0x3e8249ea	0.25447017
68	0xbe0139ac	-0.12619656
69	0xbd815e83	-0.06316855
70	0xbe9f15ea	-0.31071407
71	0xbe207f59	-0.1567358
72	0xbe264555	-0.16237386
73	0xbeca31d4	-0.3949114
74	0xbc1ef727	-0.00970248
75	0x3ed1b177	0.40955707
76	0xbf1b8ee8	-0.6076493
77	0xbdb1c52e	-0.08680187
78	0x3ce2a4b7	0.027666433
79	0xbe2db840	-0.16964817
80	0xbdb50f35	-0.08840791
81	0x3eb77563	0.35831746
82	0xbeedf3a6	-0.46474952
83	0x3e0fc37e	0.14039418
84	0xbe8b9601	-0.2726288
85	0xbe3de0d3	-0.18542795
86	0xbe8e44a2	-0.27786738
87	0x3e0ad4d5	0.13557751
88	0x3e169060	0.14703512
89	0xbe1c5f14	-0.15270644
90	0x3e0e53aa	0.13899103
91	0xbdc3e320	-0.09564805
92	0xbe793d9b	-0.24339907
93	0xbe37a58e	-0.17934248
94	0x3da57588	0.08079058
95	0xbdd8b658	-0.10581654
96	0xbe3b1db7	-0.18273054
97	0x3de18207	0.11011129
98	0xbe4f5eeb	-0.20251052
99	0xbebd8a66	-0.37019652
100	0xbdeed621	-0.116619356
101	0x3eb2847c	0.34866703
102	0xbe03bd3e	-0.12865159
103	0xbe0ba5cc	-0.13637465
104	0xbe4a4f59	-0.19756831
105	0xbe3a6fb9	-0.18206681
106	0xbdbe008d	-0.09277449
107	0xbe45b230	-0.19306254
108	0xbd00205d	-0.031280864
109	0xbf1332e8	-0.5749955
110	0x3f07ac6d	0.52997476
111	0xbe0e765f	-0.13912342
112	0xbafd58aa	-0.0019328792
113	0x3e650af6	0.22367463
114	0xbe5c8262	-0.21534112
115	0xbe2e164f	-0.17000698
116	0xbf668e96	-0.9006132
117	0x3e9d87ba	0.30767614
118	0xbeb32063	-0.34985647
119	0xbd8891ab	-0.06668409
120	0xbe700509	-0.23439421
121	0xbe710bc4	-0.23539644
122	0xbdeb806a	-0.114991024
123	0xbeb28b10	-0.3487172
124	0x3cd71183	0.026253467
125	0x3e03575b	0.12826292
126	0xbf04f0b1	-0.51929766
127	0x3e3084bf	0.17238139
128	0x3e9a233a	0.30105
129	0x3e8a8ea5	0.27061954
130	0xbbf4a62d	-0.0074660988
131	0xbd95ba93	-0.07310977
132	0x3de7c359	0.113165565
133	0xbefc4c14	-0.49276793
134	0x3e484b9c	0.19560093
135	0x3e1ad1eb	0.1511914
136	0xbdf66469	-0.120308705
137	0xbf33e66e	-0.7027348
138	0xbe03d743	-0.12875085
139	0x3eac18b8	0.3361261
140	0xbec0d4eb	-0.37662444
141	0x3b9d6503	0.0048033013
142	0xbe641baa	-0.22276178
143	0xbd9cc301	-0.076543815
144	0x3edbe815	0.42950502
145	0x3cad6c4b	0.021169802
146	0x3d8056f0	0.06266582
147	0x3d4040df	0.046936866
148	0x3da29c2f	0.07939946
149	0xbd7e52c5	-0.062090654
150	0xbea8da0c	-0.32978857
151	0xbd99f8f9	-0.07518191
152	0xbdb72bc2	-0.08943893
153	0x3d1fc62b	0.039007347
154	0x3dc05846	0.09391837
155	0xbcdd0bff	-0.02698326
156	0xbe10bd3e	-0.1413469
157	0x3e5882c1	0.21143629
158	0x3ed2e640	0.41191292
159	0xbe067140	-0.13129139
160	0x3e5f50fc	0.21808237
161	0xbb3b2b91	-0.0028559903
162	0xbe16f4ed	-0.1474187
163	0xbcd9bbd7	-0.026578827
164	0x3ce3c1e4	0.027802415
165	0xbcbe8b7c	-0.02325987
166	0xbed5062c	-0.4160627
167	0x3eff61e5	0.49879375
168	0xbe97c3ba	-0.29641515
169	0x3e3b0f3b	0.18267529
170	0x3dbc9cd1	0.09209598
171	0xbe889446	-0.26675624
172	0xbe9c08c6	-0.30475444
173	0xbd4fdd65	-0.050748248
174	0xbcd267f1	-0.025684329
175	0xbde686b4	-0.11256161
176	0x3ea4df79	0.32201746
177	0xbe4cbecc	-0.19994658
178	0xbe855596	-0.2604186
179	0xbde45648	-0.11149269
180	0xbe9acff7	-0.3023679
181	0x3d67f570	0.05663055
182	0x3d0d83b2	0.034549423
183	0x3e834208	0.25636315
184	0x3d901231	0.0703472
185	0xbe9a9ad5	-0.30196252
186	0x3e9934b0	0.2992301
187	0x3f38b141	0.7214547
188	0x3ede4c88	0.43417764
189	0xbf0b996f	-0.54530996
190	0x3d9a4313	0.07532325
191	0x3df60879	0.12013335
192	0xbdfb2c19	-0.1226427
193	0x3db340ba	0.0875258
194	0x3c3dc6c7	0.011583037
195	0xbe247086	-0.1605855
196	0xbe99a0d0	-0.30005503
197	0x3d34b927	0.044121888
198	0x3e94ce19	0.2906349
199	0xbd463d0a	-0.048398055
200	0xbe84db8b	-0.25948748
201	0xbd99e6b9	-0.0751471
202	0xbd85b7e3	-0.06529214
203	0x3dced4fe	0.10099219
204	0xbe09dc8e	-0.13463041
205	0xbd56ee61	-0.05247343
206	0xbed0286e	-0.40655845
207	0x3db4e7bf	0.088332646
208	0xbe3000e6	-0.17187843
209	0x3d62908d	0.055313636
210	0xbeb94b49	-0.3619025
211	0x3efdd8bb	0.49579415
212	0xbea5aaf9	-0.32357004
213	0xbcfe0d6a	-0.031012256
214	0x3ed25546	0.41080683
215	0xbe8ea00b	-0.27856478
216	0x3eca8ebe	0.3956203
217	0x3ea440ca	0.3208068
218	0x3f08ebb4	0.53484654
219	0xbea7a049	-0.32739475
220	0xbc93e692	-0.01805428
221	0xbd2b53c0	-0.041827917
222	0xbe9b9ee6	-0.30394667
223	0xbe16fd0e	-0.1474497
224	0xbba9f5a9	-0.0051867557
225	0x3e49ac85	0.19694717
226	0x3dfc576e	0.123213634
227	0xbe4b571d	-0.1985745
228	0x3d5868d9	0.052834366
229	0x3e243bc5	0.16038425
230	0x3e361af9	0.17783727
231	0xbdc66eb1	-0.096890815
232	0x3efb9fea	0.49145442
233	0x3ded4b98	0.11586684
234	0xbea6fc7c	-0.32614505
235	0xbc030e6c	-0.007999044
236	0x3ee08bbd	0.43856612
237	0xbdba09e6	-0.09083919
238	0x3f164ba0	0.58709145
239	0x3ee683f6	0.45022553
240	0xbf067cf6	-0.52534425
241	0xbed6b51b	-0.41935048
242	0x3dc3f69d	0.09568522
243	0x3e0a6456	0.13514838
244	0x3ea61268	0.32435918
245	0xbe0ff591	-0.1405852
246	0xbdfc91aa	-0.12332471
247	0x3dedad69	0.11605341
248	0x3e6c6ccb	0.23088376
249	0xbef551e6	-0.47914046
250	0x3e976c1e	0.29574674
251	0xbe73a0e3	-0.23791842
252	0x3e0676ca	0.13131252
253	0xbe94fd39	-0.29099444
254	0xbe67402d	-0.22583075
255	0xbde1d7cf	-0.1102749

bias f4 [64]
0	0x3b5b5c9f	0.0033471955
1	0xbf281129	-0.65651184
2	0x3e269000	0.16265869
3	0x3f2c7a5f	0.67374223
4	0x3e27a743	0.16372399
5	0x3e021f66	0.1270729
6	0xbdb7fcf2	-0.08983792
7	0x3e561d7f	0.2090969
8	0x3e815165	0.25257412
9	0xbeb325ea	-0.34989864
10	0xbd90d242	-0.070713535
11	0xbe11df0a	-0.14245239
12	0x3d2f9e89	0.0428758
13	0xbf07912d	-0.52955896
14	0x3f2fefdd	0.6872538
15	0x3d7301c9	0.059327874
16	0xbea75f57	-0.32689926
17	0x3e8c1069	0.2735627
18	0xbd076ede	-0.033064716
19	0xbedf72bf	-0.43642232
20	0xbe0e3b81	-0.13889886
21	0xbed539e2	-0.41645724
22	0xbde9005c	-0.11377022
23	0x3d8a2a81	0.06746388
24	0xbda1bf60	-0.0789783
25	0xbd4a79eb	-0.049432676
26	0x3cde3e1c	0.027129225
27	0x3e1bc898	0.15213239
28	0xbf168778	-0.5880046
29	0x3e0b5261	0.13605644
30	0x3bb2c336	0.0054554
31	0x3ebdcfc7	0.37072584
32	0x3e9e6d48	0.3094275
33	0x3ee72cc1	0.45151332
34	0x3e5ea990	0.2174437
35	0x3e267bca	0.1625816
36	0xbdb5c7f5	-0.088760294
37	0x3e9579b8	0.29194427
38	0x3d9ad282	0.075596824
39	0x3e349409	0.17634596
40	0xbeee7a15	-0.46577516
41	0xbbd8bb8f	-0.0066141556
42	0xbe0fe295	-0.14051278
43	0x3dce5241	0.100742824
44	0xbda19160	-0.07889056
45	0xbec0190a	-0.37519103
46	0x3edcc007	0.43115255
47	0x3f361309	0.71122795
48	0x3dcd9f66	0.100401685
49	0x3ec99ad3	0.39375934
50	0x3e0eeac3	0.13956742
51	0x3d236d02	0.03989888
52	0xbef7c5dd	-0.48393145
53	0x3e26fbaa	0.1630694
54	0x3e9bc480	0.30423355
55	0xbe34d0bd	-0.17657752
56	0xbd2ab5ed	-0.041677404
57	0xbde9beaf	-0.11413323
58	0x3ec8ab94	0.39193404
59	0x3def9f19	0.11700267
60	0x3c8a9ec0	0.016921401
61	0x3e9bc084	0.30420315
62	0x3e0dbc9c	0.1384148
63	0xbe8b3f7f	-0.2719688

weight f4 [32, 64]
0	0x3deefe1a	0.1166956
1	0x3e050b55	0.12992604
2	0x3b9047d6	0.0044030948
3	0xbe50f98f	-0.20407699
4	0xbec5a77f	-0.38604352
5	0xbd733619	-0.059377763
6	0x3e43db5a	0.19126645
7	0x3e89a7e1	0.26885894
8	0xbd40ba66	-0.047052763
9	0xbea6798e	-0.32514614
10	0xbe9adfc6	-0.3024885
11	0xbd6cc0b6	-0.05780097
12	0x3dc3f2ad	0.09567771
13	0xbda79512	-0.0818273
14	0x3da6f3da	0.0815198
15	0xbe317da5	-0.17333086
16	0xbe6babfb	-0.23014824
17	0xbd7f83d2	-0.062381573
18	0x3dbf19c8	0.09331089
19	0xbe8cae58	-0.27476764
20	0xbdef92ea	-0.116979435
21	0x3c5fd1b1	0.013660834
22	0xbdb04b7a	-0.08608146
23	0x3e05018f	0.12988876
24	0x3c07b31b	0.008282448
25	0x3c7ffd22	0.015624316
26	0x3e01effe	0.12689206
27	0x3d7545f2	0.05988116
28	0xbe1fd12f	-0.15607141
29	0xbeae1374	-0.33999217
30	0x3dc26b60	0.094931364
31	0x3d033e76	0.03204199
32	0xbe9aa75a	-0.30205804
33	0xbebf7444	-0.3739339
34	0xbae49573	-0.0017439559
35	0xbe1523ac	-0.14564389
36	0xbd451ba1	-0.048122052
37	0xbf197fbb	-0.59960526
38	0x3d8575d3	0.06516614
39	0x3da7ae0e	0.08187495
40	0xbdb9bc89	-0.09069163
41	0x3b1dfcba	0.0024106936
42	0xbe7048fd	-0.23465343
43	0xbc62a82b	-0.01383404
44	0xbdd0b3b6	-0.10190527
45	0xbe1cf2fb	-0.15327065
46	0x3df0f434	0.11765328
47	0xbe8f9626	-0.28044242
48	0xbc9e6bf4	-0.019338585
49	0x3b9b72f1	0.0047439267
50	0xbe7bb7ea	-0.24581876
51	0x3d9c8e97	0.07644384
52	0xbbcfcecc	-0.006341791
53	0xbc926495	-0.017870227
54	0xbf01869f	-0.5059604
55	0xbd40cf9f	-0.047073003
56	0xbe852c9d	-0.260106
57	0xbb07e6c0	-0.0020736903
58	0x3e6594df	0.22420071
59	0x3cbe135c	0.02320259
60	0xbe3466cd	-0.1761734
61	0xbccc64fe	-0.0249505
62	0xbdf8493f	-0.121233456
63	0x3eb07cb1	0.34470132
64	0x3e8ccff6	0.27502412
65	0xbb406aa1	-0.002936043
66	0xbe7d1b16	-0.24717364
67	0xbed040d2	-0.40674454
68	0xbe126401	-0.14295961
69	0xbe8641ad	-0.26221982
70	0x3e9bb45e	0.30411047
71	0xbdcf56f7	-0.10124009
72	0xbeeaf379	-0.4588888
73	0x3d10f9d9	0.035394523
74	0xbf45ef2e	-0.77318084
75	0xbf229dac	-0.6352184
76	0xbedc347a	-0.43008786
77	0xbf46c8af	-0.7764997
78	0x3ec26449	0.37967137
79	0xbeb59394	-0.35464156
80	0xbdc00acd	-0.0937706
81	0xbc28974b	-0.010289977
82	0xbef3b866	-0.47601622
83	0xbcea40dc	-0.02859538
84	0x3ece8a99	0.40340117
85	0xbebeadfd	-0.37242118
86	0xbea3a6d2	-0.3196321
87	0x3f0ddf70	0.55419064
88	0x3f456f36	0.7712282
89	0x3ebbbed7	0.36669037
90	0xbde0bb1a	-0.10973187
91	0xbc4a2488	-0.012337811
92	0xbf60fa14	-0.8788159
93	0xbf093d04	-0.5360873
94	0xbf45c0c8	-0.77247286
95	0x3e51d834	0.20492631
96	0xbeb29a81	-0.34883502
97	0xbf344b01	-0.70426947
98	0x3ed47c02	0.4150086
99	0xbf29c1a2	-0.66311085
100	0xbecb340d	-0.3968815
101	0xbf226ee2	-0.63450444
102	0x3e9fe48b	0.31229052
103	0x3dab2950	0.08357489
104	0xbc4e5942	-0.012594523
105	0xbdac170d	-0.08402834
106	0x3ecf63e8	0.4050591
107	0xbd51d2d9	-0.05122647
108	0xbdf0ae82	-0.11752035
109	0xbe05bdba	-0.13060656
110	0xbe10de9c	-0.14147419
111	0xbf15dede	-0.58543193
112	0xbec68d9b	-0.3877991
113	0xbeaad665	-0.33366695
114	0xbeef1fae	-0.46703857
115	0x3cb84dd1	0.022498043
116	0xbe835b06	-0.25655383
117	0xbef98c59	-0.4873989
118	0xbeaeefe6	-0.34167403
119	0xbf8bdce5	-1.0926787
120	0xbee28f29	-0.44249848
121	0x3e159d62	0.14610818
122	0x3ec673c6	0.38760203
123	0x3e9a652c	0.30155313
124	0xbef816fb	-0.48455033
125	0xbee02a92	-0.4378248
126	0xbef34791	-0.47515538
127	0x3f494b42	0.7863046
128	0x3e57dbcd	0.21079941
129	0x3e97d25e	0.29652685
130	0x3db6a75a	0.089186385
131	0xbe47ad07	-0.19499598
132	0xbe3336cf	-0.17501377
133	0xbd357ee6	-0.044310473
134	0xbcfeba18	-0.031094596
135	0x3e32c08e	0.17456266
136	0x3cab8b10	0.020940334
137	0x3a2c5622	0.0006574114
138	0xbdd2cffd	-0.10293577
139	0x3dce515d	0.100741126
140	0x3dfe963d	0.124309994
141	0x3dd6a918	0.10481471
142	0x3e698d8e	0.22807905
143	0x3e1bc7aa	0.15212885
144	0x3e8f1a64	0.27949822
145	0x3e0da25e	0.1383147
146	0xbca70166	-0.020386409
147	0x3cd45497	0.025919242
148	0xbac8dba7	-0.001532425
149	0x3e202572	0.15639284
150	0x3c32d6e4	0.010915492
151	0xbe735e01	-0.23766328
152	0xbca63581	-0.020289185
153	0x3da71a3d	0.081593014
154	0x3c717404	0.014737133
155	0xbd93cec9	-0.072171755
156	0xbca967d2	-0.020679388
157	0xbe590465	-0.21193083
158	0xbb04da0d	-0.002027157
159	0xbd8548e5	-0.06508044
160	0x3d119a76	0.035547696
161	0xbd7d671f	-0.061865922
162	0x3d4bb766	0.04973545
163	0xbd8c3361	-0.06845737
164	0xbda98271	-0.08276833
165	0xbe0be8d4	-0.13663036
166	0xbd00d20e	-0.031450324
167	0xbd1202ca	-0.03564719
168	0xbb2580dc	-0.0025253808
169	0xbe204674	-0.15651876
170	0x3d1d56f9	0.03841302
171	0x3dd999f6	0.10625069
172	0xbdd737b7	-0.10508674
173	0x3e8596f6	0.26091737
174	0xbe1fd41f	-0.15608262
175	0xbe6dce19	-0.23223151
176	0x3cbea692	0.023272786
177	0xbdccdf58	-0.10003537
178	0x3d7bfc6b	0.06152002
179	0xbd05c977	-0.032662835
180	0x3e36bb82	0.17844966
181	0x3e40ff13	0.18847303
182	0x3d22b462	0.039722808
183	0xbc4eb8c2	-0.012617292
184	0xbe710870	-0.23538375
185	0x3cf87f4c	0.030334137
186	0x3e11d0eb	0.14239852
187	0xbdbd3ba0	-0.09239888
188	0xbdcf908e	-0.101349935
189	0x3e74d709	0.23910154
190	0xbe131ae3	-0.14365725
191	0xbd28dec4	-0.04122807
192	0xbddb5280	-0.10709095
193	0xbc9fd7cd	-0.019512082
194	0x3dedd3e9	0.11612684
195	0x3dd13577	0.10215276
196	0x3d280672	0.04102177
197	0x3dc75bdc	0.09734318
198	0xbd5f4711	-0.054511134
199	0xbda4fbe8	-0.0805586
200	0x3e45dcda	0.1932253
201	0x3e48203a	0.19543543
202	0xbe9358e0	-0.28778744
203	0x3e44a03d	0.19201751
204	0x3c2f5bf4	0.010703076
205	0x3b7c6723	0.0038513623
206	0xbe18f4a9	-0.1493708
207	0xbd8c0322	-0.06836535
208	0x3df8be5b	0.121456824
209	0xbbb6f5fe	-0.005583524
210	0xbd985917	-0.074388675
211	0xbcc22cd9	-0.023703026
212	0x3d7b2d58	0.06132254
213	0x3d2560d5	0.04037555
214	0xbc8a58df	-0.01688808
215	0xbd8acd54	-0.067774445
216	0xbe071d31	-0.1319473
217	0x3dd1e1d1	0.10248149
218	0x3db90ac3	0.09035256
219	0xbd46c620	-0.04852879
220	0xbe4a9e86	-0.19787034
221	0x3bc7f364	0.0061020125
222	0x3e0da09a	0.13830796
223	0xbe0a572f	-0.1350982
224	0x3df76ccd	0.12081299
225	0xbe0dea59	-0.13858928
226	0xbe2bcf7b	-0.16778366
227	0x3e4a8c0f	0.1977999
228	0xbde590a7	-0.11209231
229	0x3e1098c1	0.14120771
230	0x3d39359f	0.045217153
231	0xbe4dd779	-0.20101728
232	0x3e1d84de	0.15382716
233	0xbe9149d4	-0.2837664
234	0x3e779603	0.24178319
235	0xbdaa5489	-0.08316905
236	0x3df8cc76	0.12148373
237	0xbe513ad1	-0.20432593
238	0xbc7e0662	-0.0155044515
239	0x3cd7c896	0.026340764
240	0xbd1861a5	-0.037202496
241	0xbe3507ff	-0.17678832
242	0x3ea236b0	0.31682348
243	0xbd732983	-0.05936576
244	0x3c908f86	0.017646562
245	0x3e3e0e87	0.18560229
246	0x3c61e40a	0.013787279
247	0x3d9e5f30	0.07732999
248	0x3bc5c6d0	0.006035663
249	0x3dfde9e5	0.123981275
250	0x396dc5dd	0.00022675791
251	0xbe2029c0	-0.15640926
252	0x3ea0d90a	0.31415588
253	0x3d59b00d	0.05314641
254	0xbdc1680d	-0.09443674
255	0xbe09f56d	-0.13472529

bias f4 [32]
0	0x3e930727	0.28716394
1	0x3ec9961b	0.39372334
2	0x3d142347	0.036166456
3	0x3e710542	0.23537162
4	0xbe28c80b	-0.1648256
5	0x3e99f164	0.3006698
6	0x3ee008fd	0.43756858
7	0x3c359403	0.011082652
8	0x3f520617	0.8204054
9	0x3c94fd33	0.018187141
10	0x3d31c7a9	0.0434033
11	0x3ef1a833	0.47198638
12	0x3f71341a	0.94220126
13	0x3f16ccd1	0.58906275
14	0x3ec60871	0.38678315
15	0x3edc9ff3	0.43090782
16	0xbe6633f7	-0.2248076
17	0x3f1174d8	0.56818914
18	0xbedd6c1d	-0.43246546
19	0xbe94ccc2	-0.29062468
20	0x3ec9a701	0.39385226
21	0xbd849bf8	-0.06475061
22	0xbdd654a8	-0.10465366
23	0x3e60b951	0.21945693
24	0x3f003702	0.50083935
25	0x3f62f28a	0.88651335
26	0x3efda8d3	0.49542865
27	0xbcab5754	-0.020915665
28	0x3c57b795	0.013166328
29	0xbc737d0b	-0.014861356
30	0x3e012627	0.1261221
31	0x3ee5dd2f	0.44895312

weight f4 [1, 32]
0	0x3e085b79	0.13316144
1	0xbe633275	-0.22187217
2	0x3bbd73ec	0.005781641
3	0x3c88992a	0.016674597
4	0x3cf177f5	0.029476145
5	0x3e581cb3	0.21104698
6	0x3e721259	0.23639812
7	0xbe3e3e2a	-0.18578401
8	0xbe7e0412	-0.2480624
9	0x3d790a86	0.06080105
10	0x3b7d5acd	0.0038658858
11	0x3e55da37	0.20884024
12	0xbe7e2422	-0.24818471
13	0x3e33b678	0.17550075
14	0xbe7cd834	-0.2469185
15	0x3e10d018	0.14141881
16	0xbc4eab16	-0.012614032
17	0x3e5960a8	0.21228278
18	0xbcc77754	-0.024348892
19	0x3b74e597	0.0037368292
20	0xbdb955e7	-0.09049588
21	0xbbfd313c	-0.0077268165
22	0xbda33259	-0.079685874
23	0x3d52148d	0.05128913
24	0xbe5ccd7c	-0.21562761
25	0xbe5175a5	-0.20455034
26	0x3e506403	0.20350651
27	0x3ddc0fbb	0.10745188
28	0xbbeff1f4	-0.007322544
29	0xbbdb10b6	-0.0066853417
30	0xbd934b38	-0.07192081
31	0xbe3e33a6	-0.1857439

weight f4 [64]
0	0x3f8fa2bd	1.1221539
1	0x3fb5d051	1.4204198
2	0x3f8956c3	1.0729603
3	0x3fd28879	1.6447898
4	0x3fb1b34e	1.3882844
5	0x3f83590b	1.0261549
6	0x3f9af46b	1.210584
7	0x3fa1f109	1.2651683
8	0x3fd0bf9a	1.6308472
9	0x3f96d3c1	1.1783372
10	0x3f7ac2d8	0.9795356
11	0x3f88956b	1.0670599
12	0x3f951465	1.1646849
13	0x3f4797c4	0.7796595
14	0x3faa7628	1.3317308
15	0x3fc12f4a	1.5092556
16	0x3fa241bf	1.2676314
17	0x3f99158a	1.1959698
18	0x3fa961eb	1.3233007
19	0x3fb0c4b1	1.3810025
20	0x3f8b86d3	1.090052
21	0x3f98f242	1.1948931
22	0x3f9ad0d9	1.2094985
23	0x3f82eda9	1.0228778
24	0x3fab0776	1.3361652
25	0x3f8acde4	1.0844083
26	0x3f760382	0.960991
27	0x3fb1e912	1.3899252
28	0x3fba7b06	1.4568794
29	0x3f0bd26f	0.5461797
30	0x3f925791	1.1432973
31	0x3f4580b2	0.771495
32	0x3f6cab55	0.9244893
33	0x3f9b5980	1.2136688
34	0x3facedbe	1.3510053
35	0x3fce3911	1.6111165
36	0x3f7c887f	0.98645777
37	0x3fa29a2c	1.27033
38	0x3f866d4a	1.0502102
39	0x3f9ce30f	1.2256793
40	0x3fa83be8	1.3143282
41	0x3fbac328	1.4590807
42	0x3fa410ff	1.2817687
43	0x3f7111f4	0.9416802
44	0x3f8a916a	1.0825627
45	0x3fb261c4	1.3936086
46	0x3fc5fc30	1.5467587
47	0x3f8ccb69	1.0999576
48	0x3fbb161b	1.4616121
49	0x3fcd6c13	1.6048607
50	0x3f8e77ad	1.1130272
51	0x3fdeb89d	1.740009
52	0x3f98da68	1.1941652
53	0x3fa7a916	1.3098476
54	0x3fb4128e	1.4068162
55	0x3fb6dbc5	1.4285818
56	0x3f9f798c	1.2458968
57	0x3fb980ad	1.4492394
58	0x3fa667d6	1.3000438
59	0x3f67dcce	0.90571296
60	0x3f9e53a6	1.2369277
61	0x3f6301d9	0.88674694
62	0x3fab62c2	1.3389513
63	0x3f9f7c11	1.2459737

bias f4 [64]
0	0xbe2e8fc6	-0.17047033
1	0x3eebb0fa	0.4603346
2	0x3e7ebf27	0.24877606
3	0x3e2c11a8	0.1680361
4	0x3e1cbd6d	0.15306635
5	0x3ee33805	0.44378677
6	0x3ee91ed3	0.4553133
7	0xbd9a3ea6	-0.075314805
8	0x3e6c430b	0.2307245
9	0x3e89e163	0.2692977
10	0xbeff2246	-0.49830836
11	0xbf077008	-0.5290532
12	0xbd6e96a0	-0.058249116
13	0xbdaf8e68	-0.08572084
14	0xbe1507ec	-0.14553803
15	0x3e146f18	0.14495504
16	0x3e28f334	0.16499025
17	0x3d6a694a	0.057229318
18	0xbe436e69	-0.19085087
19	0x3ed73a2a	0.42036563
20	0x3f283487	0.6570515
21	0x3dc29b0d	0.0950223
22	0xbe5ff3b2	-0.21870306
23	0xbda40934	-0.08009568
24	0xbdf3628c	-0.11884031
25	0xbf11da78	-0.5697398
26	0xbec59467	-0.38589785
27	0xbddbab79	-0.10726065
28	0x3ddfe756	0.10932796
29	0xbef7aa05	-0.48371902
30	0xbe90966e	-0.2823977
31	0xbeaed553	-0.34147128
32	0x3e0da88e	0.1383383
33	0x3d7f7219	0.06236467
34	0x3f397b3e	0.7245368
35	0x3e8b3076	0.2718541
36	0xbee0983e	-0.43866152
37	0x3eb78d5f	0.35850045
38	0xbdab09c8	-0.08351475
39	0xbe9449ce	-0.28962559
40	0x3d647155	0.055772144
41	0xbf146512	-0.5796672
42	0x3dd2ec4b	0.102989756
43	0x3db32401	0.087471016
44	0xbee915f1	-0.45524552
45	0x3eb0b78b	0.34515032
46	0x3f3220b1	0.69581133
47	0x3f1e6078	0.6186595
48	0x3e2f6ec6	0.171321
49	0x3dc6f8bf	0.09715413
50	0xbe3118ae	-0.17294571
51	0x3e878fab	0.26476797
52	0x3f1821a4	0.5942633
53	0x3f2ea2e6	0.68217313
54	0xbd8926d8	-0.06696862
55	0xbea06927	-0.31330225
56	0x3ed40e42	0.41417128
57	0x3eb09236	0.3448655
58	0xbe7d57c8	-0.24740517
59	0x3e6a4392	0.22877339
60	0xbe899002	-0.26867682
61	0xbd741cec	-0.059597895
62	0x3f1788d5	0.59193164
63	0x3f36959c	0.71322036

running_mean f4 [64]
0	0x3f76b25a	0.9636589
1	0x3f868128	1.0508165
2	0x3f14d2c4	0.581341
3	0x3e714dac	0.23564786
4	0x3f33fd4e	0.7030839
5	0x4020972e	2.5092273
6	0x3f94c93d	1.1623913
7	0x3f1c62ef	0.6108846
8	0x3ea3f8e3	0.32025823
9	0x3f882c2c	1.063848
10	0x3f4773bf	0.7791099
11	0x3f5a2296	0.85209024
12	0x3fb7a6b5	1.434775
13	0x3f28f32f	0.6599607
14	0x402a928d	2.6651947
15	0x3fff58d9	1.9948989
16	0x3f15b885	0.5848468
17	0x3f94fd71	1.1639844
18	0x3eb4b129	0.35291412
19	0x3d40e062	0.047088988
20	0x3fcad90c	1.5847487
21	0x3eb4290e	0.35187572
22	0x3fa5f56a	1.296552
23	0x3ee58a43	0.44832048
24	0x3f9b9b49	1.2156764
25	0x3f42953e	0.76008976
26	0x3f678fc3	0.9045374
27	0x3e7fb0bd	0.24969764
28	0x3fb51010	1.4145527
29	0x3f397c23	0.7245504
30	0x3f0bcbe8	0.5460801
31	0x3d364d1a	0.044507124
32	0x3ec890e9	0.39173058
33	0x3f1af872	0.6053535
34	0x3eea5576	0.45768327
35	0x3e051024	0.12994438
36	0x3f50f2cb	0.8162047
37	0x3feed176	1.8657672
38	0x3bb475f0	0.0055072233
39	0x3eeab759	0.45843008
40	0x3f0e2500	0.5552521
41	0x3fce404f	1.6113375
42	0x3eba28bd	0.36359206
43	0x3eff9d5c	0.49924743
44	0x3fb2d62c	1.397161
45	0x3d6aef97	0.057357397
46	0x3e1cae19	0.15300788
47	0x3f7db5cd	0.9910553
48	0x3de182dc	0.110112876
49	0x3ec40367	0.38283846
50	0x3e9541ae	0.29151672
51	0x3fb52aa4	1.4153638
52	0x402f057a	2.7347093
53	0x3f43397c	0.7625959
54	0x3efd5fa0	0.4948702
55	0x3f6a549c	0.91535354
56	0x3ebc5a81	0.367878
57	0x3d02ea44	0.031961694
58	0x3fa2e17a	1.272506
59	0x3dbb64d0	0.09150088
60	0x3d98fa31	0.07469595
61	0x3ca742c1	0.020417573
62	0x3ec7d910	0.39032793
63	0x3ef72b71	0.4827533

running_var f4 [64]
0	0x3ff1d712	1.8893759
1	0x402ffe68	2.7499027
2	0x3f86c26f	1.0528086
3	0x3f27334e	0.6531266
4	0x3f4fac83	0.81122607
5	0x4047828a	3.1173425
6	0x40040f56	2.063436
7	0x3fc74931	1.5569211
8	0x3f2ef4ea	0.6834246
9	0x4012f254	2.2960405
10	0x3fb7bb8f	1.4354113
11	0x3fbd96ed	1.4811684
12	0x400a4c21	2.1608965
13	0x3f9bda13	1.2175926
14	0x4081da33	4.0578856
15	0x407ba469	3.9319098
16	0x3f50e8a5	0.8160499
17	0x3ff2a1a7	1.8955582
18	0x3f70c241	0.9404641
19	0x3e7cce72	0.24688128
20	0x4038e6ce	2.8890872
21	0x3f23ae75	0.63938075
22	0x402837de	2.6284099
23	0x3f422a2e	0.7584561
24	0x3fe5c9f3	1.7952255
25	0x4007c8cb	2.1216304
26	0x3fc03791	1.5016958
27	0x3eeaabe4	0.45834267
28	0x4035d079	2.8408492
29	0x3f896560	1.0734062
30	0x3f97de4a	1.1864712
31	0x3d6eb297	0.058275785
32	0x3ede65ed	0.43437138
33	0x3f9ffb80	1.2498627
34	0x3f40937c	0.75225043
35	0x3e8000e7	0.25000688
36	0x3fa588a0	1.293232
37	0x40454277	3.0821817
38	0x3d34824b	0.04406957
39	0x3f3c7e52	0.7363025
40	0x3f6dc196	0.92873514
41	0x403548e2	2.8325734
42	0x3f27695b	0.65395135
43	0x3f75b4aa	0.95978796
44	0x40096db0	2.1473198
45	0x3e0762c2	0.13221267
46	0x3eb6d59a	0.3570984
47	0x3ffad84b	1.9597257
48	0x3e9de470	0.30838346
49	0x3f3e4a28	0.74331903
50	0x3ed8c86a	0.42340404
51	0x40145553	2.3177078
52	0x405c0039	3.4375136
53	0x3fb1fe96	1.3905818
54	0x3f94eefd	1.1635433
55	0x3fd28102	1.644562
56	0x3f1644bb	0.58698624
57	0x3da6d636	0.08146326
58	0x4033c348	2.808794
59	0x3e0c6054	0.13708621
60	0x3e5d10bc	0.21588415
61	0x3d82b73f	0.06382608
62	0x3f8172fc	1.0113215
63	0x3f99eb2c	1.2024894

weight f4 [128]
0	0x3faab1ab	1.333547
1	0x3f7b1548	0.9807935
2	0x3f684252	0.90726197
3	0x3fa0a023	1.254887
4	0x3fb09de7	1.3798188
5	0x3fb21796	1.3913448
6	0x3fa4dc60	1.2879753
7	0x3f86f9df	1.0545005
8	0x3fadeb00	1.3587341
9	0x3fac74b0	1.347311
10	0x3fa9f7f2	1.3278792
11	0x3fb5b010	1.4194355
12	0x3fd4d64f	1.6627902
13	0x3f97bc6c	1.1854377
14	0x3fb6c78b	1.4279646
15	0x3f9fa976	1.247359
16	0x3fae7bec	1.3631568
17	0x3f812533	1.0089477
18	0x3f949799	1.1608764
19	0x3fb34d83	1.400803
20	0x3fa560d8	1.2920179
21	0x3fc95742	1.5729754
22	0x3efb6f4d	0.49108353
23	0x3fc541aa	1.5410664
24	0x3ec96bfb	0.39340195
25	0x3f688d11	0.9084025
26	0x3fab0afd	1.3362728
27	0x3f8112b7	1.0083836
28	0x3f5ee165	0.87062675
29	0x3f77fdad	0.96871454
30	0x3fc62b1a	1.5481904
31	0x3fb98471	1.4493543
32	0x3fab37dc	1.3376422
33	0x3f8faf2e	1.1225336
34	0x3fa36d72	1.2767775
35	0x3f957a7b	1.1678003
36	0x3f94c4ed	1.1622597
37	0x3fd72018	1.6806669
38	0x3fadd26d	1.3579842
39	0x3fd67f66	1.6757629
40	0x3f60e173	0.8784401
41	0x3f440505	0.7657016
42	0x3fc9c2fd	1.5762631
43	0x3f8e7e59	1.1132308
44	0x3f9f0ea0	1.2426338
45	0x3fd78116	1.6836269
46	0x3f5c8474	0.8613961
47	0x3f8853c1	1.065056
48	0x3fb79224	1.4341474
49	0x3fb0804a	1.3789151
50	0x3fa23488	1.2672281
51	0x3fab3388	1.3375101
52	0x3faf6f22	1.370579
53	0x3f5ae7e1	0.8551007
54	0x3f9f1e8d	1.2431198
55	0x3fad16a2	1.3522532
56	0x3f438076	0.7636789
57	0x3f5dd701	0.86656195
58	0x3f9327fc	1.1496577
59	0x3fa87344	1.3160176
60	0x3f86c34a	1.0528347
61	0x3f875dea	1.0575535
62	0x3f8dd4a8	1.1080523
63	0x3f88d605	1.0690314
64	0x3f04c024	0.51855683
65	0x3f81a9bd	1.0129925
66	0x3fa5c4be	1.2950666
67	0x3f41aecd	0.7565735
68	0x3f8649aa	1.049123
69	0x3f86cdf4	1.0531602
70	0x3f8d4af3	1.1038498
71	0x3faec212	1.3652976
72	0x3f93f82b	1.156011
73	0x3f86a7ea	1.0519993
74	0x3f3eb30e	0.74491966
75	0x3fb86c2d	1.4408013
76	0x3fb9bf66	1.4511535
77	0x3f7d2de2	0.98898137
78	0x3f43cbf6	0.76483095
79	0x3f9cccfe	1.2250059
80	0x3f76567c	0.96225715
81	0x3f907295	1.1284968
82	0x3fa8abc2	1.3177416
83	0x3faed20e	1.3657854
84	0x3fdd1b34	1.7273927
85	0x3fb816a6	1.4381912
86	0x3f92b9b8	1.1462927
87	0x3fd8a7a8	1.6926165
88	0x3f9edb3d	1.2410656
89	0x3fcd3ac4	1.6033559
90	0x3fae8c95	1.3636652
91	0x3f9144d1	1.1349126
92	0x3fc8fde1	1.5702478
93	0x3f9069b9	1.1282264
94	0x3efbb468	0.49161077
95	0x3f84ed8d	1.0384995
96	0x3f59c6e9	0.8506914
97	0x3f6a1d48	0.9145093
98	0x3f686d5a	0.9079186
99	0x3f543f77	0.8290934
100	0x3f5b82d8	0.85746527
101	0x3f75a597	0.95955795
102	0x3fc0d3e1	1.506466
103	0x3f7487f6	0.9551996
104	0x3fc8cc06	1.5687263
105	0x3f88b798	1.0681028
106	0x3fbeccb3	1.4906219
107	0x3f95a115	1.1689783
108	0x3efb1561	0.49039748
109	0x3fa2dc05	1.2723395
110	0x3fd829b9	1.6887733
111	0x3f8dabe7	1.1068085
112	0x3fd99d2f	1.7001094
113	0x3f961d74	1.1727738
114	0x3f7759d7	0.9662146
115	0x3f4bd82f	0.79626745
116	0x3f9eeba0	1.2415657
117	0x3fb184c8	1.3868647
118	0x3f5cdae9	0.8627153
119	0x3fc42559	1.5323898
120	0x3f9d4313	1.2286094
121	0x3f8f21e4	1.1182218
122	0x3fd53222	1.6655924
123	0x3fb977cd	1.4489685
124	0x3f4d349d	0.80158406
125	0x3f0a4330	0.5400877
126	0x3fbb2ed7	1.4623669
127	0x3f70e18a	0.94094145

bias f4 [128]
0	0x3e0ecc2a	0.1394507
1	0x3db0a355	0.08624903
2	0xbf0e1fa5	-0.55517036
3	0x3ea702d8	0.32619357
4	0xbe77b566	-0.24190292
5	0x3e53b590	0.2067473
6	0xbe38c4b9	-0.18043794
7	0xbe85262e	-0.2600569
8	0x3f09ac1b	0.5377824
9	0x3e7becec	0.24602097
10	0x3e1bc929	0.15213455
11	0x3d8fb551	0.07017005
12	0xbeb8d68a	-0.3610118
13	0xbc1b1a46	-0.009466713
14	0x3ec7abc8	0.38998246
15	0x3eb1fce5	0.34763256
16	0xbf18a7b1	-0.59630877
17	0x3c085a2e	0.008322282
18	0xbd548deb	-0.051893156
19	0xbe65b818	-0.22433507
20	0x3d831800	0.06401062
21	0x3f1122ac	0.5669353
22	0x3eee5778	0.46551108
23	0x3ea50464	0.32229912
24	0x3e5c231e	0.21497771
25	0x3e0c19d1	0.13681723
26	0x3d9e942a	0.07743104
27	0xbdc17f39	-0.09448094
28	0xbea1340d	-0.31485024
29	0xbe736b78	-0.23771465
30	0x3e5b15ca	0.2139503
31	0xbe894ebd	-0.26817885
32	0xbd7e11ac	-0.062028572
33	0xbe8d91f7	-0.27650425
34	0x3d8c576e	0.068526134
35	0x3d775d8a	0.06039194
36	0xbe5ca8e5	-0.21548803
37	0xbe922ffb	-0.2855223
38	0x3d755090	0.059891284
39	0xbf0122b7	-0.50443596
40	0x3f3b9771	0.73277956
41	0xbb82a6d4	-0.0039871726
42	0xbde9b2ed	-0.114110805
43	0x3decaa3b	0.115559064
44	0xbd4209a3	-0.04737247
45	0xbe9f257b	-0.31083283
46	0xbeb16c4f	-0.34652945
47	0x3eb8fafa	0.3612898
48	0x3df75308	0.12076384
49	0x3eb7e872	0.3591953
50	0x3f0b0be1	0.54315
51	0xbdbd3297	-0.09238165
52	0x3ef31e00	0.47483826
53	0xbdfee4ee	-0.124460086
54	0xbdf51535	-0.119669355
55	0x3f40aef0	0.75266933
56	0xbd4bb9e2	-0.04973782
57	0x3eb63376	0.35586137
58	0xbd3eceb0	-0.04658383
59	0xbeacbc69	-0.33737496
60	0x3ef040d3	0.46924457
61	0x3f44b782	0.7684251
62	0x3e529bc6	0.20567235
63	0xbe6ca7e1	-0.23110916
64	0xbe922c8c	-0.28549612
65	0x3d40d706	0.047080062
66	0x3e6d8401	0.23194887
67	0xbde460fc	-0.11151311
68	0xbeb79422	-0.35855204
69	0x3b04a482	0.0020239656
70	0x3bd4ec64	0.0064979065
71	0xbe82773f	-0.25481603
72	0x3d573e2e	0.052549534
73	0xbe188e8a	-0.14898124
74	0xbed92f7c	-0.4241904
75	0x3d233862	0.039848693
76	0x3f1c3d9f	0.61031526
77	0x3f28bb62	0.65910923
78	0x3e39a8ac	0.1813075
79	0x3f088313	0.53325003
80	0xbe0d476f	-0.13796781
81	0xbf206d90	-0.6266718
82	0xbe059dd2	-0.13048485
83	0xbe6b36a6	-0.22970065
84	0x3e576950	0.21036267
85	0xbe178048	-0.14795029
86	0xbec550c9	-0.38538197
87	0x3e85d257	0.2613704
88	0xbe6bc378	-0.23023784
89	0x3b02cc4c	0.0019958196
90	0xbd97c76b	-0.07411083
91	0x3e8bd216	0.2730872
92	0xbe5d0a0f	-0.21585868
93	0x3eb5ec85	0.35532013
94	0x3f00ca50	0.50308704
95	0x3ee3d7c0	0.44500542
96	0x3e8f2a00	0.2796173
97	0x3e1313c4	0.14363009
98	0x3e21e0fb	0.1580848
99	0x3ecd6024	0.40112412
100	0xbdd65c94	-0.104668766
101	0xbdb6cfd6	-0.0892636
102	0x3f0e90fa	0.55689967
103	0x3f5617b4	0.8362992
104	0xbda0f922	-0.07860018
105	0xbdc06bd4	-0.093955666
106	0x3e8a06a3	0.26958188
107	0x3d94ed53	0.072718285
108	0xbee9b9b2	-0.45649487
109	0x3e511654	0.20418674
110	0x3e2a763f	0.1664667
111	0xbe778288	-0.24170887
112	0x3ea8e4a0	0.32986927
113	0xbc60a6f0	-0.013711676
114	0x3e7fa82e	0.24966499
115	0xbe4fb727	-0.20284711
116	0xbd08b0cf	-0.033371743
117	0x3ea1f553	0.3163248
118	0x3f510179	0.8164287
119	0x3d7bcf49	0.06147698
120	0xbe6ab65b	-0.22921126
121	0xbef437cc	-0.4769882
122	0x3eb93ba3	0.36178312
123	0x3e5e650f	0.21718238
124	0xbe16e1d5	-0.14734586
125	0x3ed5be72	0.4174686
126	0x3f000d08	0.50019884
127	0xbd3e7a8e	-0.046503596
