Models/TrainedModels/FCNNs/FCNN4.pt (torch, 84783 bytes, 9 tensors)

weight f4 [64, 22]
0	0xbd567539	-0.052357886
1	0x3d90a7cb	0.07063254
2	0xbb9e35de	-0.004828199
3	0xbf2cd1e1	-0.6750775
4	0x3f5b0a05	0.85562164
5	0x3ee571c2	0.44813353
6	0xbef54ed4	-0.47911704
7	0x3d4d3648	0.050100595
8	0x3df0f9d7	0.11766403
9	0x3ecd01b3	0.4004036
10	0xbe147543	-0.14497857
11	0x3dc26d8f	0.09493553
12	0xbe996cf0	-0.29965925
13	0x3f10f8c8	0.5662961
14	0xbd21177d	-0.03932904
15	0x3e65b750	0.2243321
16	0xbd488cca	-0.048962392
17	0xbb358c5d	-0.0027702071
18	0x3c79fc2c	0.015257876
19	0x3efcd9d5	0.49384943
20	0xbe2ff807	-0.17184459
21	0xbf17eb14	-0.59343076
22	0x3f1e1d66	0.6176361
23	0x3ebc3a1a	0.36763078
24	0x3e336640	0.17519474
25	0xbe5df0d0	-0.21673894
26	0x3c659034	0.0140114315
27	0x3ee96bf3	0.4559017
28	0xbe0d7cd3	-0.13817148
29	0x3ec1c11a	0.37842637
30	0x3ea1aa9c	0.31575477
31	0x3ef7934c	0.48354566
32	0xbd666c0f	-0.056255396
33	0xbe8ce7c4	-0.27520573
34	0xbed6b0b3	-0.41931686
35	0x3eb25407	0.34829733
36	0x3e13a77a	0.14419356
37	0x3ece3e93	0.40282115
38	0x3f181209	0.5940252
39	0xbeb76784	-0.35821164
40	0x3d7f6a89	0.06235746
41	0x3e960ca9	0.29306534
42	0x3ea2ca8b	0.31795153
43	0x3f259275	0.646766
44	0x3de145e3	0.10999658
45	0x3d731e5a	0.059355117
46	0x3e98dd6e	0.29856437
47	0xbe7c6bf3	-0.24650554
48	0x3f290893	0.6602871
49	0xbe6977c8	-0.22799599
50	0x3d6add43	0.057339918
51	0x3f3739ce	0.7157258
52	0x3e811e09	0.25218228
53	0x3e7c0064	0.24609524
54	0x3ef1a65b	0.47197232
55	0x3e59d596	0.21272883
56	0xbf47b9fc	-0.78018165
57	0x3f2a7718	0.6658797
58	0x3eb71df4	0.3576504
59	0x3eff48c0	0.4986019
60	0xbe49450b	-0.19655244
61	0xbece11b7	-0.4024789
62	0x3d1b630f	0.037936267
63	0x3e0bbf3f	0.13647173
64	0x3f5b18e3	0.8558485
65	0x3df6f226	0.12057905
66	0xbed4be2a	-0.41551334
67	0xbe9767c1	-0.29571345
68	0x3da222c2	0.07916786
69	0x3d961ef8	0.073301256
70	0x3dc16b64	0.09444311
71	0xbd85f7dc	-0.06541416
72	0x3e55d7f0	0.20883155
73	0xbd826227	-0.06366377
74	0x3caa73ce	0.020807173
75	0x3e9e472e	0.3091368
76	0xbe348bfc	-0.17631525
77	0xbed2b797	-0.41155693
78	0x3ee640b1	0.4497123
79	0xbe92491f	-0.28571412
80	0x3d8a48dc	0.06752178
81	0xbee980e3	-0.45606145
82	0xbe396fff	-0.1810913
83	0xbdc06704	-0.09394649
84	0xbe054712	-0.13015392
85	0x3ec90320	0.39260197
86	0xbe6fab25	-0.2340513
87	0xbe5cae36	-0.21550831
88	0xbdcc6f71	-0.09982193
89	0x3f02f3be	0.5115317
90	0xbbf7cb29	-0.0075620604
91	0x3e3dfd98	0.1855377
92	0x3e82080b	0.2539676
93	0xbcaabf50	-0.020843178
94	0xbd8bfeeb	-0.06835731
95	0x3f16c1ed	0.5888966
96	0xbe817a16	-0.25288457
97	0xbf5d0d7f	-0.8634872
98	0x3db259ec	0.087085575
99	0xbe60b9da	-0.21945897
100	0x3f04552a	0.5169245
101	0x3f3aba66	0.7294067
102	0xbe418b08	-0.18900692
103	0xbdfb2059	-0.12262029
104	0x3f437a0f	0.7635812
105	0x3e88b422	0.2669993
106	0x3e3785e5	0.1792217
107	0xbdc23eff	-0.09484672
108	0x3f1847bf	0.59484476
109	0xbf018455	-0.5059255
110	0xbf8338ba	-1.0251687
111	0x3e8b13cc	0.2716354
112	0x3d49213c	0.04910396
113	0xbf10d43d	-0.5657385
114	0x3f393802	0.72351086
115	0x3f09d635	0.5384248
116	0xbf04ed02	-0.51924145
117	0x3f03eaf4	0.51530385
118	0x3d20a296	0.039217554
119	0x3ee42424	0.44558823
120	0x3e828e58	0.25499225
121	0x3db93db1	0.0904497
122	0x3f5abad4	0.8544133
123	0xbd8333e5	-0.064063825
124	0xbec219b2	-0.3791023
125	0x3e263fc9	0.1623527
126	0x3fb61156	1.422404
127	0x3f733780	0.9500656
128	0x3ec72285	0.38893524
129	0xbe7e4a1e	-0.24832961
130	0xbe394e44	-0.18096262
131	0x3e73b302	0.23798755
132	0x3d73357b	0.059377175
133	0x3e6ad5f8	0.22933185
134	0xbe07ef96	-0.13274989
135	0x3f802fcb	1.0014585
136	0xbe950aaa	-0.291097
137	0x3eae4e3c	0.34044063
138	0xbe20909c	-0.15680164
139	0xbe958825	-0.29205433
140	0xbef65b92	-0.48116738
141	0x3f3b21d5	0.730985
142	0x3f6113d4	0.8792088
143	0xbe6aa006	-0.22912607
144	0x3f420e21	0.7580281
145	0x3e1da041	0.15393163
146	0xbe88a205	-0.2668611
147	0xbed8be8e	-0.42332882
148	0xbe5c5d95	-0.21520074
149	0x3def8b0a	0.116964415
150	0xbdffd4b3	-0.12491741
151	0x3f12cb25	0.57341224
152	0xbee04e2f	-0.4380965
153	0xbf383ca8	-0.71967554
154	0xbf31984b	-0.69373006
155	0x3d6f234d	0.058383275
156	0x3ea750d2	0.32678849
157	0x3ed27081	0.4110146
158	0xbf0f109f	-0.55884737
159	0xbf58191e	-0.84413326
160	0x3ea1e5cb	0.3162063
161	0x3e84991c	0.25898063
162	0x3c8a440f	0.016878156
163	0xbe475b12	-0.19468334
164	0xbf4b6b04	-0.7946017
165	0x3f2d4c36	0.67694414
166	0x3ecef104	0.40418255
167	0xbf9c0b3a	-1.2190926
168	0x3ecbc192	0.3979612
169	0xbdefb192	-0.11703791
170	0xbed57f35	-0.41698614
171	0xbe5c833f	-0.21534441
172	0x3e05701a	0.13031045
173	0x3ec00862	0.37506396
174	0xbdec0ae8	-0.11525518
175	0x3dcc8415	0.0998613
176	0x3eebe1e3	0.46070775
177	0xbebe92b7	-0.3722131
178	0x3aed52c5	0.0018106332
179	0xbd04c752	-0.03241665
180	0x3e271c13	0.16319303
181	0xbf1da62a	-0.6158167
182	0xbebbee2c	-0.36705148
183	0x3dc54c41	0.09633685
184	0x3d0c499a	0.03424988
185	0x3f1ea1cb	0.61965626
186	0xbeb66962	-0.35627276
187	0x3e681e85	0.22667892
188	0xbedab11a	-0.42713243
189	0xbe01b865	-0.12667997
190	0x3de6032b	0.11231073
191	0xbd4c9f5a	-0.049956657
192	0x3dead121	0.114656694
193	0xbed091a1	-0.40736106
194	0xbef6d876	-0.48212022
195	0x3f1496ca	0.58042586
196	0xbf3b38b6	-0.7313341
197	0xbe422294	-0.18958503
198	0x3eda58ba	0.42645818
199	0x3f8d8844	1.105721
200	0xbe1ef77d	-0.15524097
201	0xbcdf834a	-0.027284283
202	0x3e928308	0.28615594
203	0x3f1d7e87	0.6152119
204	0xbedb05bf	-0.4277782
205	0x3f23e012	0.6401378
206	0x3d139280	0.036028385
207	0xbe6495c6	-0.22322759
208	0x3e138c58	0.14409006
209	0xbf35c7df	-0.71008104
210	0x3e0dcb96	0.13847193
211	0xbd4da748	-0.05020836
212	0x3ea69df5	0.32542387
213	0xbf39bacc	-0.72550654
214	0x3f053fac	0.5205028
215	0xbf0bf322	-0.54667866
216	0x3e9f94e3	0.3116828
217	0x3f07b2fc	0.53007483
218	0x3f20ad02	0.6276399
219	0x3ebdb2a1	0.37050346
220	0xbf6fc894	-0.9366543
221	0xbe29d5c5	-0.16585453
222	0x3f50dbad	0.815852
223	0xbd6f891c	-0.058480367
224	0x3f146609	0.57968193
225	0xbf001d56	-0.50044763
226	0xbe11dc86	-0.1424428
227	0x3ef28d55	0.47373453
228	0x3f333f48	0.70018435
229	0x3f70739d	0.9392641
230	0x3f3439bf	0.70400614
231	0x3f0b3b63	0.5438749
232	0xbe671d17	-0.2256969
233	0x3e271b76	0.1631907
234	0x3f8558c9	1.041772
235	0x3f46662e	0.77499664
236	0x3ed3ff88	0.41405892
237	0x3c11108a	0.008854041
238	0xbf0609b5	-0.5235856
239	0xbea0ab27	-0.3138058
240	0xbe62d58f	-0.22151779
241	0x3e268d91	0.16264941
242	0x3eb87d15	0.3603293
243	0x3e61d312	0.22053173
244	0xbd28851c	-0.041142568
245	0xbeb0f0a3	-0.3455859
246	0x3e2b1816	0.16708407
247	0xbebb0ee0	-0.36534786
248	0x3ea0def9	0.31420115
249	0x3e1eff3f	0.15527056
250	0x3e481b49	0.19541658
251	0x3e99a456	0.3000819
252	0x3c949afc	0.018140309
253	0xbf347c3e	-0.7050208
254	0x3f0bf32c	0.54667926
255	0xbd7c357c	-0.061574444

bias f4 [64]
0	0xbfa7ba59	-1.3103744
1	0xbfb8ebec	-1.4446998
2	0xbf4fd18f	-0.81179136
3	0xbfbf18d4	-1.4929452
4	0xbf19957e	-0.5999373
5	0xbbb3701e	-0.005476012
6	0xbf7dc366	-0.9912628
7	0xbfaed89f	-1.3659858
8	0xbf99b9a4	-1.2009778
9	0xbf406747	-0.7515759
10	0xbf081b9d	-0.53167135
11	0xbfad72ca	-1.3550656
12	0xbf7fb06a	-0.9987856
13	0xbf5e9461	-0.8694516
14	0xbfcba2e9	-1.5909091
15	0xbf8c2daa	-1.0951436
16	0xbf0df22f	-0.5544767
17	0xbdb34e50	-0.08755171
18	0xbfbf66ac	-1.4953208
19	0xbfc96cff	-1.5736388
20	0xbfbb673d	-1.4640881
21	0xbf29641b	-0.66168374
22	0xbf847c21	-1.0350381
23	0xbf8e9a6b	-1.1140875
24	0x3ee9030b	0.45510134
25	0xbf999e32	-1.2001402
26	0xbef662d3	-0.48122272
27	0xbf999d0d	-1.2001053
28	0xbebe5245	-0.37172142
29	0xbf82c418	-1.0216093
30	0xbd29ad10	-0.04142481
31	0xbf556162	-0.8335172
32	0xbf278038	-0.6543002
33	0xbf53bd18	-0.8271041
34	0xbf872b95	-1.0560175
35	0xbf86d39a	-1.0533326
36	0xbf3d5e7b	-0.7397229
37	0xbff87c36	-1.9412906
38	0xbfbc1010	-1.4692402
39	0xbd4f1b60	-0.050563216
40	0xbf9c8074	-1.2226701
41	0xbf8a4c01	-1.0804445
42	0xbeb16c3b	-0.34652886
43	0xbe966c7a	-0.29379636
44	0xbeefb112	-0.4681478
45	0xbef53b1c	-0.4789666
46	0x3e59635e	0.21229312
47	0xbf8aefd3	-1.0854439
48	0xbf28f7f9	-0.66003376
49	0xbf79d124	-0.9758475
50	0xbfadfaab	-1.3592123
51	0xbf7daba7	-0.99090046
52	0xbf3019d5	-0.68789417
53	0xbfa9a46d	-1.3253304
54	0xbf20ff63	-0.6288969
55	0xbea663ed	-0.32498112
56	0x3e6ef342	0.23334983
57	0xbf031947	-0.51210445
58	0xbe97c3bb	-0.29641518
59	0xbfc8588d	-1.5652024
60	0xbfc17101	-1.5112611
61	0xbfeb7f52	-1.839823
62	0xbfa510b9	-1.2895728
63	0xbf6581ab	-0.8965098

weight f4 [128, 64]
0	0x3e99b6e1	0.30022338
1	0xbeb0117b	-0.34388337
2	0xbde724b3	-0.11286297
3	0xbf415337	-0.755176
4	0xbf319344	-0.69365335
5	0xbf4ba58e	-0.7954949
6	0x3ecbc3ce	0.39797825
7	0xbedf6e49	-0.43638828
8	0xbe2ab3ed	-0.16670199
9	0xbf262c02	-0.649109
10	0x3db638f1	0.088975795
11	0xbe8a1dc1	-0.26975825
12	0x3e4ce757	0.20010124
13	0x3eb6b309	0.35683468
14	0xbf113cd0	-0.5673342
15	0x3ec55749	0.38543156
16	0xbf606b41	-0.87663656
17	0xbeebb151	-0.4603372
18	0xbf0e9be8	-0.55706644
19	0xbdd28f4f	-0.1028124
20	0xbd9abe2b	-0.07555803
21	0xbe39334a	-0.18085971
22	0xbefafa22	-0.4901896
23	0xbe977cba	-0.29587346
24	0x3d437c11	0.04772574
25	0xbd6c76a7	-0.057730343
26	0xbf45c645	-0.7725566
27	0xbe5de816	-0.21670565
28	0xbf8454e6	-1.0338409
29	0x3e4b3227	0.1984335
30	0xbef5ec07	-0.48031637
31	0xbe81a744	-0.25322926
32	0xbe9d0fda	-0.30676156
33	0xbef84947	-0.48493406
34	0xbe382881	-0.17984201
35	0xbf1f82f9	-0.62309223
36	0xbeb74984	-0.35798275
37	0x3d7a5d46	0.06112411
38	0xbdac92a5	-0.08426408
39	0xbe825885	-0.2545816
40	0x3e04eb3c	0.1298036
41	0x3e628540	0.22121143
42	0xbdea954b	-0.114542566
43	0x3db6f5ec	0.089336246
44	0xbef9a2ce	-0.48757023
45	0xbef8b75f	-0.485774
46	0xbf0c975a	-0.54918444
47	0xbe7011e6	-0.23444328
48	0xbd550f88	-0.052016765
49	0x3e832a5d	0.25618258
50	0xbeb95376	-0.36196488
51	0xbe36f8c2	-0.17868331
52	0xbf09515f	-0.5363979
53	0xbee14716	-0.43999547
54	0xbf2991fd	-0.66238385
55	0xbf588144	-0.84572244
56	0xbf37d74b	-0.71812886
57	0xbe037948	-0.12839234
58	0xbf0daa86	-0.55338323
59	0xbe4fefd6	-0.20306334
60	0xbf17b4c3	-0.59260195
61	0xbd945867	-0.07243424
62	0x3d8e3066	0.06942825
63	0xbe8672ff	-0.2625961
64	0xbd842df0	-0.064540744
65	0xbf227d07	-0.63472027
66	0xbe26c337	-0.16285406
67	0xbcb95e49	-0.022627966
68	0x3ce882ed	0.028382743
69	0x3d81d47c	0.06339356
70	0xbf483d16	-0.7821821
71	0x3e89ce1a	0.26915056
72	0x3dfe6032	0.124206915
73	0xbee38447	-0.44436857
74	0xbf91a8fd	-1.1379696
75	0x3eb3ddb4	0.35130084
76	0x3d4d77c0	0.05016303
77	0xbe5ec22e	-0.21753761
78	0xbebb15f2	-0.3654018
79	0xbf1a7184	-0.6032946
80	0x3d382fd2	0.04496748
81	0xbf412f1e	-0.7546252
82	0x3db8db97	0.090262584
83	0xbdcbf764	-0.099592954
84	0x3ead49d8	0.338454
85	0x3f648d35	0.89277965
86	0xbec73d49	-0.38913944
87	0xbf33bff2	-0.7021476
88	0xbee4e3e7	-0.44705126
89	0x3ea51176	0.32239884
90	0xbeac9c49	-0.33712986
91	0x3b2413e1	0.0025036263
92	0xbe5c3f8e	-0.21508619
93	0xbf45c3c7	-0.7725186
94	0xbf0fc104	-0.56153893
95	0x3d0873b9	0.033313487
96	0x3df8a414	0.121406704
97	0x3d75a639	0.059972975
98	0xbeb0f849	-0.34564427
99	0xbe3758b6	-0.17904934
100	0xbe8a6d09	-0.27036312
101	0x3e6e804a	0.23291126
102	0x3f67a01a	0.9047867
103	0x3ebdc723	0.37065992
104	0xbed77d7d	-0.42087927
105	0x3e537e4b	0.20653646
106	0xbef614ea	-0.4806283
107	0xbee99cca	-0.45627433
108	0xbe6980e5	-0.22803076
109	0xbed4c4b2	-0.41556317
110	0xbf19e665	-0.6011718
111	0xbf28f43f	-0.6599769
112	0xbe7b3f72	-0.24535921
113	0x3d95d4db	0.073159896
114	0x3eacd6a9	0.33757523
115	0xbf067d09	-0.5253454
116	0xbf37d016	-0.7180189
117	0x3e5fdd2f	0.21861719
118	0xbf05241d	-0.5200823
119	0xbf41d819	-0.75720364
120	0xbedbc5d1	-0.4292436
121	0xbf020b5e	-0.50798595
122	0xbea18a2b	-0.31550726
123	0x3de82093	0.11334338
124	0x3e9ad78e	0.3024258
125	0xbf1e0440	-0.61725235
126	0x3dde359a	0.108500674
127	0xbde45e66	-0.111508176
128	0xbe97641a	-0.2956856
129	0x3de11bdb	0.10991641
130	0x3d9f8284	0.07788566
131	0x3e85701b	0.26062092
132	0xbd9b2596	-0.07575528
133	0x3ed4b894	0.41547072
134	0x3f2c1a82	0.6722795
135	0xbecc597f	-0.3991203
136	0xbdac1bea	-0.08403762
137	0x3f5ac649	0.8545881
138	0xbfa384c5	-1.2774893
139	0x3afc47df	0.0019247493
140	0x3e9a1c6a	0.30099803
141	0xbdc9c520	-0.09852052
142	0xbf1f521b	-0.6223466
143	0x3e7adca5	0.24498232
144	0x3f305777	0.6888346
145	0xbeaba9d8	-0.33528018
146	0xbe26acae	-0.1627681
147	0xbef7e7cf	-0.48419043
148	0xbf64a263	-0.8931028
149	0xbd402eda	-0.04691968
150	0x3eeddfe6	0.46459883
151	0xbef72f4a	-0.48278266
152	0x3f5736a2	0.8406774
153	0xbe068465	-0.13136442
154	0x3ef8dbda	0.48605233
155	0x3eef7cd6	0.4677493
156	0x3f2f21d6	0.68411005
157	0xbe64ac65	-0.22331388
158	0xbec3be1a	-0.38230973
159	0xbeaa6dff	-0.33287045
160	0xbe05c2c1	-0.13062574
161	0xbf2c4796	-0.6729673
162	0xbdfea520	-0.12433839
163	0x3f6ca983	0.92446154
164	0xbeed3127	-0.46326563
165	0x3e76c6c5	0.24099262
166	0x3f411bdf	0.7543315
167	0x3e20d5d5	0.1570657
168	0x3f73a3bc	0.95171714
169	0x3f09ece4	0.5387709
170	0x3d3f8094	0.04675348
171	0xbe74ca6e	-0.23905346
172	0xbf306e24	-0.6891806
173	0x3f8b6195	1.0889155
174	0xbef39368	-0.475734
175	0xbde67490	-0.11252701
176	0x3ea5321c	0.32264793
177	0xbe439ccb	-0.1910278
178	0x3f18bb0c	0.5966041
179	0xbe364d66	-0.17802963
180	0x39e59bfd	0.00043794504
181	0x3e4970f8	0.19672
182	0xbd1bfa3d	-0.038080443
183	0x3db86a3f	0.0900464
184	0xbe113587	-0.14180575
185	0xbee70fd5	-0.45129266
186	0xbc1e8d2e	-0.009677215
187	0xbf22913b	-0.63502854
188	0xbf207b25	-0.62687904
189	0xbf7f9133	-0.9983093
190	0xbeb6e3d2	-0.35720688
191	0xbe58a6ce	-0.21157381
192	0x3ea54d8c	0.32285726
193	0xbf1f283f	-0.62170786
194	0x3e88802f	0.26660296
195	0xbf4d4857	-0.80188507
196	0xbb01ce35	-0.0019806747
197	0xbf135dd4	-0.57565045
198	0xbea45ba5	-0.3210117
199	0xbf10f3bc	-0.5662191
200	0xbd4744c3	-0.04864956
201	0xbef1a70d	-0.47197762
202	0xbf0ef8de	-0.5584849
203	0xbe975bd2	-0.2956224
204	0xbe8e3239	-0.27772692
205	0xbf17107f	-0.59009546
206	0xbede903d	-0.4346942
207	0xbf188f8c	-0.59594035
208	0x3e84b933	0.25922546
209	0xbd98c824	-0.07460049
210	0xbeb11f99	-0.3459442
211	0xbef4c8a3	-0.47809324
212	0xbeea4a94	-0.45760024
213	0xbe7f7e08	-0.24950421
214	0xbe90d14a	-0.28284675
215	0xbf3de207	-0.74173015
216	0xbf3ef2bb	-0.7458913
217	0x3ea754ec	0.32681978
218	0xbf5dc3c1	-0.8662682
219	0xbc9d47fd	-0.019199366
220	0xbf864000	-1.0488281
221	0xbec883c3	-0.39163026
222	0x3d9189f0	0.071063876
223	0x3dcf204a	0.101135805
224	0x3f177b7c	0.591728
225	0xbe276d1e	-0.16350219
226	0xbed45909	-0.41474178
227	0x3e07bb05	0.13254936
228	0x3dc17290	0.09445679
229	0xbf5f0b31	-0.8712645
230	0xbf606e88	-0.8766866
231	0xbee02d3d	-0.43784514
232	0xbe001401	-0.12507631
233	0xbe0d588b	-0.13803308
234	0xbeca553b	-0.3951815
235	0xbf66430d	-0.8994606
236	0xbf44aec8	-0.76829195
237	0xbef6de4e	-0.4821648
238	0xbce10af6	-0.027471047
239	0xbf478b4d	-0.7794693
240	0xbe8e250f	-0.27762648
241	0xbec739af	-0.38911197
242	0xbe8e5fa8	-0.27807355
243	0xbf7c8343	-0.9863779
244	0x3e988746	0.29790705
245	0xbee79ec7	-0.45238325
246	0xbf053681	-0.5203629
247	0xbf5671cc	-0.8376739
248	0xbf57a546	-0.8423656
249	0xbf44d09f	-0.7688083
250	0xbf1156df	-0.5677318
251	0xbf89727b	-1.0738062
252	0xbf228d66	-0.63497007
253	0xbf4e6b55	-0.80632526
254	0xbdccba83	-0.09996512
255	0xbec1d5d5	-0.37858453

bias f4 [128]
0	0xbf59334a	-0.84843886
1	0xbed3655b	-0.41288266
2	0xbcbd32eb	-0.023095569
3	0xbd350209	-0.044191394
4	0xbe056007	-0.13024913
5	0xbf862851	-1.0481054
6	0xbef5fef5	-0.4804608
7	0xbf1aa5d4	-0.60409284
8	0xbf484834	-0.78235173
9	0xbf11e3f9	-0.56988484
10	0x3e13c74c	0.14431494
11	0x3e244a73	0.16044025
12	0xbe161b84	-0.14658934
13	0xbf14a463	-0.58063334
14	0xbf9e5c75	-1.2371966
15	0xbf35792c	-0.7088802
16	0xbc5ba391	-0.0134056965
17	0xbef06bca	-0.46957237
18	0x3d9e466b	0.07728275
19	0x3eb44a05	0.35212722
20	0xbf0a89dc	-0.54116607
21	0xbf11bdd7	-0.569303
22	0xbf4c8dc2	-0.79903805
23	0xbfa344c9	-1.2755367
24	0xbfa9775a	-1.3239548
25	0xbf57f435	-0.84357005
26	0xbf0bc997	-0.54604477
27	0xbf66fef0	-0.90232754
28	0xbf28c9a4	-0.6593268
29	0xbf040d11	-0.5158244
30	0xbf044d04	-0.51680017
31	0x3e7a46a5	0.24441011
32	0xbf0f1992	-0.5589839
33	0xbf002f2c	-0.5007198
34	0xbf6bf761	-0.92174345
35	0xbf45afcf	-0.7722139
36	0xbf1cf3c1	-0.6130944
37	0xbe34871b	-0.17629664
38	0xbee18201	-0.44044498
39	0xbfa49e37	-1.2860783
40	0xbf2fb352	-0.68632996
41	0xbea16413	-0.31521663
42	0xbdb0ddfa	-0.08636089
43	0xbf61f09c	-0.88257766
44	0xbe8f1828	-0.27948117
45	0xbf1e3462	-0.6179868
46	0xbe40d5d2	-0.18831566
47	0xbf818e01	-1.0121461
48	0x3ef58ccf	0.4795899
49	0xbe83f492	-0.2577253
50	0xbf0061fe	-0.50149524
51	0xbe78d103	-0.24298482
52	0xbf0e5f32	-0.55614007
53	0xbf96bd89	-1.1776592
54	0x3f920b86	1.1409767
55	0xbea4398e	-0.3207516
56	0xbf11dcf5	-0.5697778
57	0xbeb999ec	-0.36250246
58	0xbf4444ba	-0.7666737
59	0xbdb0e1b9	-0.08636803
60	0xbfa125cf	-1.2589663
61	0xbfa41776	-1.281966
62	0xbfd0a924	-1.6301618
63	0xbef4864d	-0.47758713
64	0xbf80916d	-1.004438
65	0xbecccd14	-0.40000212
66	0xbf27cf3b	-0.65550584
67	0xbf358484	-0.7090533
68	0xbfacd936	-1.3503788
69	0xbef95219	-0.48695448
70	0x3ebd698e	0.36994594
71	0xbf9ade8e	-1.2099168
72	0xbf3eb277	-0.74491066
73	0xbf16cad9	-0.5890327
74	0xbf7d2462	-0.9888364
75	0xbf05164e	-0.5198716
76	0xbf6957fa	-0.91149867
77	0xbf3b51ce	-0.731717
78	0xbf35eef3	-0.7106773
79	0xbe93a57d	-0.28837195
80	0x3f6ad302	0.9172822
81	0xbd932e35	-0.07186548
82	0x3ed8bba7	0.42330667
83	0xbec2bcb2	-0.38034588
84	0xbf0391a0	-0.5139408
85	0xbe2b793f	-0.1674547
86	0xbf039bcb	-0.51409596
87	0xbed0edbb	-0.40806374
88	0xbf66c65c	-0.9014642
89	0xbf4b57a2	-0.7943059
90	0xbfbfc372	-1.498152
91	0xbf7ff473	-0.99982375
92	0xbf8002c6	-1.0000846
93	0xbd11ae4d	-0.035566617
94	0xbe5d4b78	-0.2161082
95	0xbef11404	-0.47085583
96	0xbf0d32f4	-0.55155873
97	0xbf604bbe	-0.87615573
98	0xbf19ff2f	-0.60155004
99	0x3f297df6	0.66207826
100	0xbf45b455	-0.7722829
101	0xbf1a48f3	-0.6026756
102	0xbe94db41	-0.29073527
103	0xbf069984	-0.52577996
104	0xbf3b364e	-0.7312974
105	0xbf5ed416	-0.8704237
106	0xbf6319f4	-0.88711476
107	0xbebd286b	-0.369449
108	0xbeec086a	-0.4610017
109	0xbf410dc9	-0.7541166
110	0xbf6003d5	-0.8750585
111	0xbf208782	-0.6270677
112	0xbf2d010d	-0.6757973
113	0xbd961119	-0.0732748
114	0xbf53328d	-0.8249901
115	0xbf6e2757	-0.9302878
116	0x3e9bd498	0.30435634
117	0xbfc47bdd	-1.53503
118	0xbe8254e3	-0.25455388
119	0xbec9e132	-0.39429623
120	0xbd1b4345	-0.03790595
121	0xbf62d18b	-0.8860099
122	0xbf73cb68	-0.9523225
123	0xbf9e914e	-1.2388093
124	0xbf16f33b	-0.5896489
125	0xbc3ec064	-0.011642549
126	0xbe9ab83f	-0.30218694
127	0xbf6751c6	-0.9035915

weight f4 [64, 128]
0	0xbe89b25f	-0.268939
1	0xbf6f5c65	-0.9350036
2	0x3ead545a	0.33853418
3	0xbf5dcbeb	-0.8663928
4	0x3ec741d3	0.38917407
5	0xbf0b8edd	-0.5451487
6	0x3ef74fc2	0.48303038
7	0x3e98c6fb	0.2983931
8	0xbf71ac25	-0.94403297
9	0x3f6038ed	0.8758686
10	0x3f1cd339	0.612598
11	0x3e3090a4	0.17242676
12	0x3cd57e26	0.026061129
13	0xbecce1fd	-0.40016165
14	0xbf8674f0	-1.0504436
15	0xbe89cfee	-0.2691645
16	0x3f70ff61	0.9413968
17	0xbe23e067	-0.16003571
18	0xbf435f3d	-0.763172
19	0x3dcd420c	0.10022363
20	0xbf8a1abc	-1.0789409
21	0xbf814ab4	-1.0100923
22	0x3f671081	0.9025956
23	0xbe5f3157	-0.21796165
24	0xbf8e5eb7	-1.1122655
25	0x3dbef138	0.093233526
26	0x3d362f91	0.044478957
27	0xbb414f1a	-0.002949661
28	0xbf06f8f8	-0.52723646
29	0x3e798d55	0.2437032
30	0xbef9ac62	-0.4876433
31	0x3e86e96f	0.2634997
32	0x3eb4063a	0.35161
33	0xbe94b5a6	-0.29044837
34	0xbde9dda4	-0.11419228
35	0xbe8874d2	-0.26651627
36	0x3f5da9b2	0.8658706
37	0x3e036272	0.12830523
38	0xbe96f0a7	-0.29480478
39	0xbf600046	-0.8750042
40	0xbecdce3e	-0.40196413
41	0x3e219513	0.15779524
42	0x3f8a7d4f	1.0819491
43	0xbdde2268	-0.10846406
44	0xbe8ae372	-0.27126652
45	0x3f0c88d9	0.5489631
46	0x3eb363de	0.3503713
47	0x3ef647d5	0.48101678
48	0x3ec549eb	0.38532957
49	0xbce590f9	-0.02802323
50	0xbf1c93d1	-0.6116305
51	0x3e0c256f	0.13686155
52	0x3d29516a	0.041337408
53	0x3ea8cbd9	0.32968023
54	0xbe62a423	-0.22132926
55	0xbd92b351	-0.07163108
56	0x3e0fe313	0.14051466
57	0x3ed0259d	0.40653697
58	0xbd8b0ce6	-0.067895696
59	0xbd20d592	-0.039266177
60	0xbfb89706	-1.4421089
61	0xbebe9cd6	-0.3722903
62	0x3de081bd	0.109622456
63	0xbebbd969	-0.36689308
64	0xbe9aaaf1	-0.30208543
65	0x3e431141	0.1904955
66	0xbdd3084a	-0.103043154
67	0xbf5f5ae8	-0.87248087
68	0xbeee5615	-0.4655005
69	0xbec78dfe	-0.3897552
70	0x3e0719f1	0.1319349
71	0xbf140ff6	-0.57836854
72	0x3f3717ac	0.71520495
73	0x3ec09ebc	0.37621105
74	0xbd1e64f5	-0.0386705
75	0xbe76f23f	-0.24115847
76	0xbf033d81	-0.5126572
77	0xbded636c	-0.11591229
78	0x3ea8c974	0.32966197
79	0x3dbbe435	0.091743864
80	0x3ef5218b	0.47877154
81	0x3ed4f791	0.41595128
82	0x3eb8e0ef	0.3610911
83	0xbf176185	-0.5913318
84	0xbee3414c	-0.44385755
85	0xbf3b6df5	-0.73214656
86	0x3d3b3f85	0.045714874
87	0xbf3c0f9a	-0.73461306
88	0x3dfbe367	0.12299233
89	0x3e95989f	0.29218003
90	0xbf98e702	-1.1945498
91	0x3ebb7198	0.36610103
92	0x3f4fd081	0.81177527
93	0x3d1f1c19	0.038845155
94	0xbcdfebcf	-0.027334122
95	0xbe835390	-0.2564969
96	0xbf5d8355	-0.8652852
97	0x3ed9150d	0.42398873
98	0xbec43a1e	-0.3832559
99	0xbdedcd01	-0.11611367
100	0xbf848005	-1.0351568
101	0x3ec66377	0.3874776
102	0x3d90cc47	0.07070213
103	0x3f0b1665	0.54331046
104	0xbe8b6cb9	-0.27231386
105	0x3e81f3c5	0.25381294
106	0xbe5effdb	-0.21777289
107	0xbf027643	-0.50961703
108	0xbe1616f7	-0.14657198
109	0xbef7e2ed	-0.48415318
110	0x3db077ee	0.08616625
111	0x3e7f3634	0.2492302
112	0x3e84e4eb	0.259559
113	0x3dc386e7	0.09547215
114	0xbdfef75e	-0.12449525
115	0xbe5fd518	-0.21858633
116	0x3ed7f76c	0.42180955
117	0x3e7ce024	0.24694878
118	0x3eb5aa58	0.35481524
119	0x3f4caaa3	0.7994787
120	0x3e10ca59	0.1413969
121	0x3ed4a51d	0.4153222
122	0xbeb62ac9	-0.35579517
123	0xbf1b1ac5	-0.6058772
124	0xbe3a818c	-0.1821348
125	0xbf359639	-0.70932347
126	0x3e075a31	0.13217999
127	0x3ea48d82	0.32139212
128	0x3daff38a	0.08591373
129	0x3ecc985c	0.3995999
130	0xbf534000	-0.8251953
131	0x3fb84c4d	1.4398285
132	0x3da0e724	0.078565866
133	0x3eb654b0	0.35611486
134	0x3eb00d34	0.34385073
135	0x3f15708d	0.58374864
136	0x3fa92d57	1.3216962
137	0xbf839033	-1.0278381
138	0xbf5813c7	-0.8440518
139	0xbf68d0dd	-0.909437
140	0xbec26303	-0.37966165
141	0xbe8fdb0a	-0.280968
142	0x3ecf521a	0.40492326
143	0x3f872505	1.0558172
144	0xbb293708	-0.0025820155
145	0xbe0a4da9	-0.13506187
146	0xbe8a9ddc	-0.27073562
147	0xbecc470c	-0.39897954
148	0x3f315a8e	0.692788
149	0x3e9142a9	0.2837117
150	0x3e28bd95	0.1647857
151	0x3f7c794f	0.986226
152	0x3fe9230c	1.821382
153	0x3cbbff8b	0.022949
154	0xbeead4e5	-0.4586555
155	0x3efcd3cd	0.4938034
156	0x3f57c6a3	0.8428747
157	0xbed11b49	-0.4084113
158	0xbf2444fd	-0.6416777
159	0x3d6f2ca3	0.05839218
160	0xbe7f0b05	-0.24906547
161	0x3fb44f2e	1.4086664
162	0xbe7ed8fa	-0.24887457
163	0x3dc94007	0.09826665
164	0xbe5dee6b	-0.2167298
165	0xbe7ed753	-0.24886827
166	0xbdd57958	-0.10423535
167	0x3e7a2a33	0.2443016
168	0x3ee01e41	0.43773082
169	0x3f44bb8a	0.7684866
170	0xbe78a9d2	-0.24283531
171	0xbf164f74	-0.58714986
172	0xbf336aec	-0.70085025
173	0xbf04df94	-0.51903653
174	0xbe0b8a4c	-0.13626975
175	0x3ddf05d5	0.10889784
176	0xbf83a49d	-1.0284611
177	0xbe48f8a9	-0.19626106
178	0x3f775022	0.9660665
179	0xbee52d40	-0.44761086
180	0xbe3a1c24	-0.18174797
181	0xbf04a54b	-0.5181472
182	0xbfc88a98	-1.5667295
183	0xbe244140	-0.16040516
184	0xbe8cf6cf	-0.2753205
185	0x3df08d8d	0.11745749
186	0x3d08f3f4	0.033435777
187	0xbe6f7cb4	-0.23387414
188	0x3fb71fc2	1.4306567
189	0x3f2db4a2	0.6785375
190	0xbc334ac0	-0.010943115
191	0xbdbfb2a9	-0.093602486
192	0xbea7f19f	-0.3280153
193	0x3e0c6723	0.13711219
194	0xbf2f5d4d	-0.6850174
195	0x3df8a901	0.1214161
196	0x3f6a30a0	0.91480446
197	0x3e6b8cd1	0.23002936
198	0xbfd19c7e	-1.6375883
199	0xbee161bb	-0.44019875
200	0xbe93eba7	-0.28890726
201	0xbd0b8e24	-0.034071103
202	0xbe8d2fc3	-0.27575502
203	0xbd0877b8	-0.033317298
204	0xbda13a26	-0.07872419
205	0xbe9f4575	-0.3110768
206	0x3f1ad6a0	0.6048374
207	0x3daaa671	0.083325274
208	0xbf143f9d	-0.57909566
209	0xbe1eaaaf	-0.15494798
210	0xbf005392	-0.5012752
211	0x3f7ea81e	0.99475276
212	0xbec72e31	-0.3890243
213	0x3f246561	0.6421719
214	0xbee4dbe4	-0.44699013
215	0x3e0b4b48	0.13602936
216	0x3e7beda5	0.24602373
217	0x3c560727	0.013063229
218	0x3fa6ef68	1.3041811
219	0xbd44df40	-0.04806447
220	0x3e9580b9	0.2919977
221	0xbee206d8	-0.44145846
222	0x3e3231d3	0.17401819
223	0x3d5ca4c7	0.05386808
224	0x3eee19a7	0.46503946
225	0xbf214f52	-0.6301166
226	0xbd376ce6	-0.044781588
227	0xbf384be3	-0.71990794
228	0x3e299a7e	0.1656284
229	0xbf2a41b3	-0.665065
230	0x3ec0b23b	0.3763598
231	0x3f695dc0	0.91158676
232	0x3e132f89	0.14373602
233	0x3ea8c4c7	0.3296263
234	0x3dd5db3a	0.10442205
235	0x3ce604e8	0.028078511
236	0x3ee45301	0.44594577
237	0xbea2a1ea	-0.31764156
238	0x3ebd0c29	0.3692334
239	0x3e163972	0.14670351
240	0xbe107945	-0.1410876
241	0xbf3e8ed7	-0.74436706
242	0xbf011a42	-0.5043069
243	0x3e9e212e	0.3088469
244	0xbf477dc6	-0.7792629
245	0x3edd28a2	0.43195063
246	0xbed6a1c5	-0.41920295
247	0xbf7a5554	-0.9778645
248	0x3eca6f58	0.39538074
249	0x3d8d3d06	0.06896405
250	0xbd80b936	-0.06285326
251	0x3f050c8a	0.5197226
252	0x3f27e5d3	0.6558506
253	0xbea85c55	-0.32882944
254	0xbf33ca10	-0.702302
255	0x3eebeb24	0.46077836

bias f4 [64]
0	0x3eef24ee	0.46707863
1	0xc010bb22	-2.2614217
2	0xbf607cf0	-0.8769064
3	0xbed3b194	-0.4134642
4	0x3eebeaa6	0.4607746
5	0xbe87001b	-0.26367268
6	0xbe95fc69	-0.29294136
7	0x3e9fc303	0.3120347
8	0xbf610ddf	-0.8791179
9	0x3f3dc0f9	0.7412258
10	0x3dbc5156	0.09195201
11	0x39b4d8a0	0.00034493674
12	0xbecfd180	-0.40589523
13	0xbbe011e8	-0.006838072
14	0xbf1e695d	-0.6187952
15	0x3f257051	0.64624506
16	0x3c48c10b	0.012253056
17	0xbfe717ce	-1.805414
18	0xbea046d5	-0.3130404
19	0x3f2525d1	0.6451083
20	0xbf013616	-0.50473154
21	0xbf028453	-0.5098316
22	0x3f25ca39	0.6476169
23	0xbf5ca801	-0.86193854
24	0xbe06a060	-0.13147116
25	0x3f2b80ce	0.66993415
26	0x3e8b9e01	0.27268985
27	0xbe64f17c	-0.22357744
28	0x3e81e938	0.25373244
29	0x3dc253cc	0.09488639
30	0x3f024617	0.508882
31	0x3dabd6d8	0.083905876
32	0xbff1c9c9	-1.8889705
33	0xbf4587a3	-0.7716009
34	0xc00df0f5	-2.2178319
35	0xbeabda8c	-0.33565176
36	0xbf919ee0	-1.137661
37	0xbf967c75	-1.1756731
38	0xbd62db84	-0.055385128
39	0xbffb13a4	-1.9615369
40	0xbfdbf959	-1.718547
41	0x3f208b28	0.62712336
42	0xbf1aaf4e	-0.60423744
43	0x3dfd5c97	0.12371176
44	0xbe8f949c	-0.28043067
45	0xbf223936	-0.63368547
46	0xbfb49fea	-1.4111302
47	0xbf08f521	-0.5349904
48	0xbc5ac9d7	-0.013353786
49	0xbf2e94f1	-0.68196017
50	0xbf2503fe	-0.64459217
51	0x3de118be	0.10991047
52	0xbd73e30b	-0.059542697
53	0xbde7422a	-0.11291917
54	0xbf918796	-1.1369503
55	0x3e65d990	0.22446275
56	0xbf7aa24d	-0.979039
57	0xbf616a4a	-0.8805281
58	0x3e5c2aeb	0.21500747
59	0xbfaa3c9a	-1.3299744
60	0xbdea9590	-0.11454308
61	0xbf9b982e	-1.2155817
62	0xbfe87da8	-1.8163347
63	0xbf656b85	-0.89617187

weight f4 [32, 64]
0	0xbf1731f1	-0.5906058
1	0x3e382ac5	0.17985065
2	0xbdc96982	-0.09834577
3	0x3e96290a	0.29328185
4	0xbe9230f5	-0.28552976
5	0xbe75d767	-0.2400795
6	0xbf0196c1	-0.5062066
7	0xbd2c2a6f	-0.042032655
8	0x3e3cab05	0.18424614
9	0x3e4af125	0.19818552
10	0xbf1577a0	-0.5838566
11	0xbed6b78b	-0.41936907
12	0xbf0c101e	-0.5471209
13	0xbe689ab2	-0.22715262
14	0x3df921b4	0.121646315
15	0xbf2a9b2b	-0.6664302
16	0xbde2ea02	-0.1107979
17	0xbd5fc3ef	-0.054630216
18	0xbec04356	-0.37551373
19	0xbebb7367	-0.36611483
20	0xbd591449	-0.05299786
21	0xbdb6285b	-0.08894416
22	0xbf70901d	-0.939699
23	0xbeba3dea	-0.36375362
24	0x3e06d788	0.13168156
25	0xbed38a40	-0.41316414
26	0x3e06a78e	0.13149855
27	0x3d7805cf	0.060552415
28	0xbeb71b23	-0.3576289
29	0xbf4a76cc	-0.7908752
30	0xbea81739	-0.32830217
31	0xbc985ad3	-0.018597996
32	0xbe8ac7ef	-0.27105662
33	0xbed3ee94	-0.41392958
34	0xbe6eafde	-0.23309276
35	0xbdce5558	-0.10074872
36	0xbd4ad1d9	-0.049516533
37	0x3b48e423	0.0030653558
38	0x3ee755dc	0.45182693
39	0xbe8518b3	-0.25995407
40	0x3e42d4ed	0.19026537
41	0xbe59c867	-0.21267854
42	0xbdcf9028	-0.101349175
43	0xbf190005	-0.59765655
44	0x3e87e932	0.265451
45	0xbd3286e7	-0.043585684
46	0xbcb86fea	-0.022514302
47	0x3ce02435	0.027361015
48	0x3e050f56	0.12994131
49	0xbec8833a	-0.39162618
50	0x3e5b79d3	0.21433191
51	0xbe2cb054	-0.16864139
52	0xbea11e72	-0.3146854
53	0x3dc7fa11	0.09764493
54	0xbe072666	-0.13198242
55	0x3e3f2192	0.1866515
56	0x3d106ba6	0.03525891
57	0xbe2df6fa	-0.16988745
58	0xbe8405cb	-0.2578567
59	0x3f2ef542	0.68342984
60	0xbf09fa55	-0.538976
61	0x3e22f1a1	0.15912487
62	0x3ef6b0b1	0.4818168
63	0x3ea6af3b	0.32555565
64	0xbed92bcd	-0.4241623
65	0x3fa648c9	1.2990962
66	0xbdd13293	-0.102147244
67	0x3eba3c91	0.36374334
68	0xbce35542	-0.027750615
69	0xbf161b5e	-0.5863551
70	0xbe0335ba	-0.12813464
71	0xbf2b4b26	-0.6691154
72	0x3e3b296f	0.18277524
73	0xbefa2051	-0.4885278
74	0xbeb726c7	-0.35771772
75	0xbdb523bb	-0.08844706
76	0x3e7ad929	0.24496903
77	0xbf01ee76	-0.5075449
78	0xbdc6ca62	-0.0970657
79	0xbe0a087d	-0.134798
80	0xbeba5add	-0.36397448
81	0x3eb51eca	0.35375053
82	0xbe4c69a0	-0.19962168
83	0xbf0c42cb	-0.5478942
84	0x3e5e8e86	0.21734056
85	0x3d88577d	0.06657312
86	0x3b433544	0.0029786387
87	0x3f498f41	0.78734213
88	0xbebbebee	-0.36703438
89	0xbdb84efa	-0.089994386
90	0xbe929593	-0.2862974
91	0xbe97f58e	-0.2967953
92	0xbe0d7346	-0.13813505
93	0xbf065f17	-0.52488846
94	0xbeeffafd	-0.46871176
95	0xbea11cb0	-0.314672
96	0xbd4756a6	-0.04866662
97	0x3ee24156	0.44190472
98	0x3f00d484	0.50324273
99	0x3d191662	0.03737486
100	0xbe8eb117	-0.27869484
101	0x3f29e1bb	0.6636006
102	0xbd9dc737	-0.07704013
103	0x3ca0930f	0.019601373
104	0xbd5b616b	-0.053559702
105	0xbe9a795e	-0.3017072
106	0x3e6d1b75	0.23155005
107	0xbd5d6c25	-0.054058213
108	0xbe67a62b	-0.22621982
109	0xbec90b2d	-0.3926634
110	0xbe85fbf9	-0.26168802
111	0xbebf45cf	-0.37357947
112	0xbed36b91	-0.41293004
113	0x3f2d847d	0.67780286
114	0xbce87217	-0.028374715
115	0xbe6ddfaf	-0.2322986
116	0x3ea28dc6	0.3174879
117	0x3dec8f33	0.115507506
118	0x3dc0ed9d	0.09420321
119	0xbe91c2f0	-0.28469038
120	0x3f31dc0f	0.6947641
121	0xbf16c60d	-0.5889595
122	0xbe2af3f3	-0.16694622
123	0x3f08ba80	0.53409576
124	0xbeea331e	-0.45742124
125	0x3e989ec1	0.2980862
126	0x3eb639ad	0.35590878
127	0x3d074d79	0.033032868
128	0xbe81dcec	-0.25363863
129	0x3d334d18	0.043774694
130	0xbd085e49	-0.033293042
131	0x3ccc596f	0.024944989
132	0xbd8da4ea	-0.069162205
133	0xbe4795d3	-0.19490747
134	0xbe0710db	-0.13190024
135	0xbe650a0a	-0.22367111
136	0xbd82c67b	-0.063855134
137	0xbd26893b	-0.040658217
138	0x3ca90c26	0.020635676
139	0xbe0b604d	-0.13610955
140	0xbeb3219e	-0.34986585
141	0xbd43e660	-0.047827125
142	0x3e699f78	0.22814739
143	0x3dab95a8	0.08378154
144	0x3d3ea2df	0.046542045
145	0x3f21d060	0.6320858
146	0xbcc65e31	-0.024214836
147	0xbdb96219	-0.09051914
148	0x3e0216a0	0.12703943
149	0x3e3984e0	0.18117094
150	0xbe315396	-0.17317042
151	0x3f2adadf	0.6674022
152	0xbe8816d9	-0.2657993
153	0xbe3a3ce6	-0.18187293
154	0xbe9fd811	-0.31219533
155	0xbe2590b9	-0.16168489
156	0xbef13462	-0.47110277
157	0xbe9a14ee	-0.30094093
158	0xbee4c666	-0.44682616
159	0xbee89772	-0.45428044
160	0x3ed910b3	0.42395553
161	0xbeaa07d8	-0.3320911
162	0x3f2627c3	0.6490442
163	0x3c2ea669	0.010659792
164	0xbde06abc	-0.10957858
165	0xbe304139	-0.1721238
166	0xbe9e28f1	-0.3089061
167	0xbc4ec61a	-0.012620473
168	0xbe7ee9d5	-0.24893887
169	0xbeba74d5	-0.3641726
170	0xbe4bf247	-0.1991664
171	0xbec9c41b	-0.3940743
172	0x3e6c4648	0.23073685
173	0xbed2bc75	-0.41159406
174	0x3f3cd395	0.7376035
175	0xbe9cde51	-0.30638364
176	0xbe5d8bc1	-0.21635343
177	0x3e5367ec	0.20645112
178	0xbe3f0c3c	-0.18657011
179	0xbdc9ab7e	-0.09847163
180	0xbe7cb91c	-0.24679989
181	0xbe9ab241	-0.30214122
182	0x3eb41c57	0.35177872
183	0xbf1f5bc2	-0.62249386
184	0xbf230946	-0.63686025
185	0xbf443eb5	-0.76658183
186	0xbdcea7b6	-0.10090582
187	0xbf05fb1c	-0.5233629
188	0xbe9a61f7	-0.30152866
189	0xbd3a861a	-0.045538045
190	0xbda82f7b	-0.08212181
191	0xbed37d84	-0.41306698
192	0xbe4c1415	-0.19929536
193	0xbe66b576	-0.2253016
194	0xbd5a0939	-0.05323145
195	0xbddd5a5e	-0.10808252
196	0xbf6637b5	-0.8992875
197	0xbdd840eb	-0.10559257
198	0x3e89cb9c	0.26913154
199	0xbf023238	-0.5085788
200	0x3ede6289	0.4343455
201	0xbe42521b	-0.18976633
202	0xbd63c900	-0.05561161
203	0xbeab9c4e	-0.3351769
204	0xbe5b87f7	-0.21438585
205	0xbda43e24	-0.08019665
206	0xbe2f0278	-0.17090786
207	0xbf2d708f	-0.67749876
208	0xbeb289ed	-0.34870854
209	0xbb8eecfb	-0.0043617464
210	0xbdb1a867	-0.08674698
211	0xbe4f1b76	-0.2022532
212	0xbeb3474f	-0.35015342
213	0xbf070deb	-0.5275561
214	0xbeef7dad	-0.4677557
215	0xbdd809d2	-0.10548748
216	0xbe20a348	-0.15687287
217	0xbd798f4b	-0.06092767
218	0xbe27e3c7	-0.16395484
219	0x3e4a188e	0.1973593
220	0xbe4fc48b	-0.20289819
221	0xbee197a1	-0.44060996
222	0xbe978512	-0.29593712
223	0xbea3f53f	-0.32023045
224	0xbe496c34	-0.19670182
225	0xbf0295e1	-0.5100995
226	0x3de0f876	0.1098489
227	0xbe62b3a5	-0.22138841
228	0xbe93cca0	-0.28867054
229	0x3baf2fa5	0.005346256
230	0x3e0559e7	0.13022576
231	0x3e819314	0.25307524
232	0xbded49ac	-0.115863174
233	0xbe256d50	-0.1615498
234	0xbe1d618d	-0.15369244
235	0xbd68d947	-0.056847837
236	0xbd88fa4d	-0.06688366
237	0xbf28ef60	-0.6599026
238	0x3e5d2174	0.21594793
239	0xbe8a1788	-0.26971078
240	0xbe3bedb7	-0.183524
241	0xbe954381	-0.29153064
242	0xbea45031	-0.3209243
243	0xbe579f59	-0.2105688
244	0x3dffb768	0.12486154
245	0xbe96ede7	-0.2947838
246	0x3c8c02dd	0.01709121
247	0xbd18f863	-0.037346255
248	0xbe4fae00	-0.2028122
249	0x3e847808	0.25872827
250	0xbec376d3	-0.38176593
251	0x3f095cdd	0.53657323
252	0xbf1082d5	-0.56449634
253	0x3e3cd590	0.18440843
254	0xbe3afcdd	-0.18260522
255	0xbd96aea5	-0.073575296

bias f4 [32]
0	0xbe110fcb	-0.14166181
1	0xbf8ca518	-1.0987883
2	0xbfa17961	-1.2615167
3	0xbf1ff74e	-0.6248673
4	0xbf87734a	-1.0582058
5	0xbf864ad9	-1.0491592
6	0xbefd663d	-0.49492064
7	0xbf83f402	-1.030884
8	0xbf1bad30	-0.6081114
9	0xbe9f7392	-0.3114286
10	0xc004bbfb	-2.0739734
11	0xbf6d854c	-0.9278152
12	0xbf97dcf1	-1.1864301
13	0xbf2b5994	-0.6693356
14	0xbf5e4c15	-0.8683484
15	0xbfb3658f	-1.4015368
16	0xbf3a7dde	-0.7284831
17	0xbf48f90b	-0.7850501
18	0xbfb9d34a	-1.4517605
19	0xbf4b3af6	-0.7938684
20	0xbf26e200	-0.651886
21	0xbf60297c	-0.875633
22	0xbf820ab8	-1.0159521
23	0xbf534af4	-0.82536244
24	0xbf2f02c6	-0.68363607
25	0xbf8d1d76	-1.1024616
26	0xbf7c0865	-0.9845031
27	0xbf82e212	-1.0225241
28	0xbf2cb7b6	-0.6746782
29	0xbf0b27a8	-0.54357386
30	0xbf09a1da	-0.5376259
31	0xbfa2015a	-1.2656662

weight f4 [1, 32]
0	0xbc944e86	-0.01810385
1	0xbc5ddce8	-0.013541438
2	0xbcd195d0	-0.025584131
3	0xbcba1f5b	-0.02272003
4	0xbcc12dae	-0.023581352
5	0xbccf2589	-0.025286453
6	0xbc631c0f	-0.01386167
7	0xbc96ca25	-0.018406937
8	0xbce387b0	-0.027774662
9	0xbc9e7075	-0.019340733
10	0xbceffde1	-0.029295864
11	0xbd0af301	-0.033923153
12	0xbcf653ca	-0.03006925
13	0xbcc3dea9	-0.023909884
14	0xbc4d5b5c	-0.012533989
15	0xbc8056e3	-0.01566643
16	0xbc6e28f3	-0.01453613
17	0xbccb0ff8	-0.024787888
18	0xba1b0efa	-0.00059150124
19	0xbce67c12	-0.028135333
20	0xbceafaeb	-0.0286841
21	0xbc9b2af2	-0.018941376
22	0xbc75071b	-0.014955307
23	0xbd0ba365	-0.034091372
24	0xbc8bb7f9	-0.017055498
25	0xbbf16c6d	-0.0073676617
26	0xbc6be769	-0.014398434
27	0xbc6609ce	-0.014040424
28	0xbc8b6340	-0.0170151
29	0xbcbecb31	-0.023290249
30	0xbb657d1d	-0.00350172
31	0xbba70943	-0.0050975396
