Models/TrainedModels/Recurrents/LSTM.pt (torch, 22545 bytes, 11 tensors)

weight_ih_l0 f4 [88, 22]
00000000: be23 56bd 03c6 c23d c08f 503d 66b9 a63d
00000010: 6268 6e3d 61c6 cb3d f7b7 2d3d defd 563e
00000020: 4fe6 8abc d68a c5bc f29a 9fbd 9b60 403e
00000030: afe6 513c 8db8 bdbd 49b8 39be 98eb dcbc
00000040: 8406 1f3e b49b d13d 4c12 d33d 2758 4b3d
00000050: 6982 cdbd a852 d43d c0b2 ccbd f0b9 d33d
00000060: b88b ecbc 294a 48bd 22a7 5dbd 63d7 313d
00000070: 142a 3fbe 1953 103d 53bd 76bd 69e8 0c3e
00000080: 6bbb 433d 8847 b13d 9b37 5a3e 8539 99ba
00000090: 660d 513e 8e13 6b3d d13f 563e fac1 4dbe
000000a0: b449 343e d89b 98bd 89b3 04bd b994 4dbe
000000b0: 9b6d 6b3c 65e0 023e 93c0 0cbd 0ef3 b93d
000000c0: 5b73 2ebe e53c 2ebe c313 623d 57fe 4dbe
000000d0: 9b7b 54bb ecf8 3bbe 0ea0 6bbd f726 a2bd
000000e0: 4e5e f8bd 79fb 10be e453 353e d34a 333e
000000f0: f94b 0bbe 7f1a b53d fa8c 01be 8258 313e
00000100: de67 563e e24a bc3d e5cd 6dbd 3245 333e
00000110: d11e a93d 9a20 3b3e fff9 363e 9299 d23d
00000120: 0988 503e 87fb 193e 6a61 f0bd 92e2 c8bc
00000130: d793 1b3d 4874 7d3d 5021 25be 5c27 203e
00000140: 68a2 553e 172a ce3d b0ac 443e e8dc 363e
00000150: 78e7 42bc dff7 f3b9 8fe0 333e 1864 6f3d
00000160: a6e8 2cbe 7f99 003c 0763 07be 7cc9 3dbe
00000170: 66d5 103e dbad 4ebe 1726 a7bd 9e73 deba
00000180: f1b7 c4bd 86e8 32be 21ee 35be 1c98 593e
00000190: 2ac3 b83c 907f 66bc 0576 253e 7f22 603c
000001a0: 34cb cd3d 0582 373e c39f dabd 8f84 743d
000001b0: 73bb 04bd 63c7 b33d ef6c 9d3d 8948 dc3d
000001c0: 0378 7c3d 905a 813d ff78 3ebe fb7a e73c
000001d0: c12a 5bbc 9971 a1bb a917 193e ea9d ce3d
000001e0: 253a d9bd ace7 323d 1411 983d 9327 41be
000001f0: ea23 00bd fc18 03be efad 56be 5ee1 2ebe
00000200: b49c 303d 9f3c e83d ec45 2e3e f37d 3abe
00000210: 508b 403d 6147 19bd 758e 9e3d 0a41 c1bd
00000220: e383 4d3e c148 52bd f63d 0b3d 867c 9e3d
00000230: a509 4ebe 5a2e 963d c01b 373d cc43 523d
00000240: dba6 413e f958 f93d fffa 12be b730 bd3d
00000250: d281 54be e0f6 e73d 2913 f23c 6877 2e3e
00000260: 7c18 413e 307c 11be 26ad 76bd 9a23 4c3d
00000270: 8d1c 5d3d 51e8 c8bd a3cf 91bd 307a 2a3d
00000280: 4b9c 003d 5adf 6fbc 5362 4f3e 8d7f 3dbe
00000290: 16bb b4bd 03ea f33d 5345 b63b e038 b3bd
000002a0: f1e7 d93d e717 4ebe d31f 13bc a26b 95bd
000002b0: ee4f 363e 27cd d43d f023 64bd 6a99 4b3e
000002c0: 8a69 e9bd 07c8 463c d617 47be 6781 a1bd
000002d0: fda1 5d3d aeba 3cbe b33c 2c3e 5cbe 703c
000002e0: 4afd 92bc 4b24 22be d3bb 543e e3af 973d
000002f0: deed 68bd 81b2 d33c 6a62 19be ae9e da3b
00000300: 7b0d 3bbe 4740 703d bbbd 39bc a31b 733c
00000310: 56b8 3dbe 2af0 043e f1a3 20bd d899 48bd
00000320: 60f7 bbbd 0e71 463e d03c 4cbd f016 0abe
00000330: 6490 54bd 26b1 fabd d0df eabd 53fe f8bc
00000340: f2a8 3dbc 0f2d 27be fd7c 39be 09dc 9bbc
00000350: bc9d a3bd 69a9 56be b084 703c c22c 62bd
00000360: 33cb 083e 55ea 123e bd11 4ebe 64bf 1b3e
00000370: 7cda 273e d27a e93d 2d84 59be 46b7 b23d
00000380: a330 033e 844c 29be aeb2 593e c54c 813d
00000390: ccec f33d e63c e83d 3d56 2dbe 48c6 d7bd
000003a0: d679 3fbe f209 58bd 6c62 1fbe d614 b9bd
000003b0: a999 3bbe 6333 7d3d b550 ac3d acc0 da3d
000003c0: fd45 c9bd 3656 33be a38d b3bd cbd2 a33d
000003d0: 1873 01be 6dac 273e 8f7b 293e 5d36 ccbc
000003e0: f631 1cbe 6bd9 ee3d 869a 003e 4017 46be
000003f0: c0e6 e33c e540 3cbe 9e0c 603d ce33 863c
-0.05228018 0.09510424 0.05091834 0.08140831 0.058205016 0.09949947 0.04241177 0.2099528
-0.016955523 -0.024114054 -0.07793225 0.18786852 0.012811347 -0.09263716 -0.18136705 -0.026967809
0.1552983 0.10234776 0.10306224 0.049644616 -0.100346394 0.10367328 -0.09995031 0.10338199
-0.028875217 -0.04889885 -0.05411447 0.0434183 -0.18668395 0.035235498 -0.060239147 0.13760532
0.047786158 0.08656222 0.21310274 -0.0011690116 0.20415267 0.057391696 0.20922782 -0.20093527
0.1760624 -0.074516 -0.03239778 -0.20076264 0.014369394 0.12780912 -0.03436334 0.09079562
-0.17036192 -0.17015417 0.055194627 -0.20116554 -0.0032422307 -0.18356675 -0.057525687 -0.07917588
-0.12127362 -0.14158429 0.17707783 0.17509012 -0.136032 0.08842944 -0.12651435 0.1731892
0.2093806 0.0919397 -0.058057684 0.17506865 0.08257831 0.18274155 0.17868803 0.102831975
0.20364393 0.15037356 -0.1173733 -0.0245221 0.037982788 0.061878473 -0.16125989 0.15640014
0.20862734 0.10066622 0.192065 0.17857707 -0.011896007 -0.0004653325 0.17566131 0.058445066
-0.16885623 0.007849096 -0.1322137 -0.18533891 0.14143905 -0.20183508 -0.08161562 -0.0016971712
-0.096053965 -0.17471513 -0.1776662 0.21249431 0.022553999 -0.014068499 0.16158302 0.0136800995
0.100485235 0.17920692 -0.106750034 0.05969673 -0.032405328 0.087782644 0.07686793 0.107560225
0.06163789 0.063161016 -0.18600844 0.028256884 -0.013376893 -0.004926872 0.14950432 0.100887135
-0.10606793 0.04367797 0.074251324 -0.18862753 -0.03128425 -0.128025 -0.20964788 -0.17078158
0.043118194 0.113396876 0.1701886 -0.18212108 0.04700786 -0.037421588 0.07742015 -0.09436233
0.20069842 -0.051338915 0.033994637 0.07738595 -0.20120867 0.073330596 0.0447042 0.051334187
0.18911307 0.12175173 -0.1435356 0.09237807 -0.20752648 0.113263845 0.029550152 0.17037737
0.18856996 -0.1420753 -0.06022372 0.04983864 0.053982306 -0.09809936 -0.07119682 0.041620433
0.031399053 -0.0146406535 0.20252351 -0.18505688 -0.08824746 0.119098686 0.0055624633 -0.087510824
0.106399424 -0.20126306 -0.008979755 -0.0729592 0.17803928 0.10390692 -0.055698335 0.19882742
-0.11397083 0.012132651 -0.19442686 -0.0788601 0.054109562 -0.18430588 0.1682003 0.014693823
-0.017943043 -0.15834157 0.20774774 0.074065946 -0.056867473 0.025841953 -0.14978948 0.006671748
-0.18266861 0.05865505 -0.011336739 0.014838132 -0.1852735 0.1298224 -0.039218847 -0.04897484
-0.091780424 0.19379064 -0.049862683 -0.13485312 -0.051895514 -0.1224082 -0.1146847 -0.030394709
-0.011575924 -0.16325782 -0.18114085 -0.01902582 -0.0798907 -0.20963062 0.014680073 -0.055218466
0.13358764 0.14347203 -0.20123954 0.15209728 0.16391939 0.11400379 -0.21241827 0.08726363
0.12811522 -0.16533095 0.21259567 0.06313471 0.119104 0.113397405 -0.16927429 -0.10535866
-0.1869882 -0.05274386 -0.15564889 -0.09037177 -0.18320335 0.061816584 0.08413831 0.106812805
-0.09827802 -0.17513356 -0.087672494 0.0799919 -0.12641561 0.16374369 0.1655104 -0.024928266
-0.15253434 0.11662563 0.12558946 -0.19344807 0.027819991 -0.1838413 0.054699533 0.016382124

weight_hh_l0 f4 [88, 22]
00000000: 6d14 d13d 998f 81bd ff09 f9bc 3349 fb3d
00000010: 5e25 353d f801 ce3b f3ba 0bbe 99cb 47be
00000020: 1ad8 bd3d ab75 7dbd a8c0 77bd 98b6 02be
00000030: 38a3 1f3d 730f b53d 319b 393b 4f21 cabd
00000040: 5949 393d d677 e93b b62f 973d 4480 d03d
00000050: 4a22 0abe 8858 4b3e 374a 27bd c9e0 223d
00000060: 13a1 153e 43a1 c2bd 435d be3d ba74 893c
00000070: a98c 213e 59e6 583e f1a8 4fbe 812a a93d
00000080: 647a 1fbd 9eef febd 6514 863d 6353 11be
00000090: 0ab1 8f3d 2c5b b3bc d606 9b3c 4a0a 0d3e
000000a0: 1735 d83d 39ad d0bd ce6d 39be 346e d83d
000000b0: d9ce 433d 4c7d c03b 43d0 46bd b22c d43d
000000c0: eb31 53be 7244 163e 6169 7bbd 4e6b 6238
000000d0: e75a 4ebd 5639 613d 8278 2a3e 3383 9d3d
000000e0: 9cc7 493e c8e7 35bd 13f9 d5bc 34dd 39be
000000f0: 1910 313e d114 913d 9c6e 1d3e ab93 8dbd
00000100: 558b 0c3e 1606 1abd f294 3f3e 6211 c9bd
00000110: 8d88 163e fbb8 55be 3516 17bd 5931 513e
00000120: c5dc 0e3e 8104 38be 405d b2bc cd20 5a3e
00000130: 2504 40bd e468 2bbe f149 0fbe 9aaa c0bd
00000140: 73e8 973b 00d1 f0bd f89a 51be 2080 c5ba
00000150: 878f 463e bcae e7bb 627c 0cbe 9e1d 3c3d
00000160: 004b 133d 6828 473e bd23 133e ab37 4c3d
00000170: 4031 e3bd 1c32 7e3d 46eb a43d b63c 38be
00000180: 900f 8a3d 58e4 0abe 9fd0 81bd 1f96 e3bd
00000190: 28b8 90bc 7f6b 28be 00b8 05be bb14 de3d
000001a0: 9b93 d73d dec4 313e 909c eb3d 05e4 d6bd
000001b0: e1f0 413d 489b fbbd 7801 35be 0710 be3b
000001c0: 9d62 a73d e727 7d3c 7275 2d3c 2e32 503e
000001d0: 15bd 38be 2fcd 593d 61f0 ca3d 989f 653c
000001e0: d6ff 49bd cf2c cbbd 96ba 4abe 8ddd fe3d
000001f0: fc21 3fbe 0d73 0fbd 9ea4 e4bd 4b48 463d
00000200: afc7 94bd 273a 1fbe 0f23 39be ffc0 07be
00000210: b370 10be f264 853d 0890 e43d e895 9d3d
00000220: 6819 ccbd 134e 06be 1463 853b a5ec c5bc
00000230: f926 3abe c4d5 2b3e a89f df3d 7eff 013e
00000240: 2c98 d33d 81e2 fb3d e412 4c3d 1f88 813c
00000250: 14dc 42be 18e7 efbd bdcb ad3d d00b b93c
00000260: 0213 153e bf48 213e 5656 45bc 635e 0c3e
00000270: f543 523c 947f 223e 126a 903c 24bc 573e
00000280: f654 54be 8034 3e3e 95b7 443e d642 22be
00000290: 724d 0a3d d04f 043d b0f3 2fbd 5e66 2abe
000002a0: ed3d 22bd 5673 943d 0bb6 9abd 2848 03be
000002b0: a04f 033d 642d ca3d 55a4 253e 3054 0c3d
000002c0: 0a10 29be 1773 43be e317 26be b9e8 0c3e
000002d0: 3a02 3b3e 40a5 04bd bc22 7fbd caba f13b
000002e0: 7f23 13be 4062 4f3e c67a 463e 5c53 3e3e
000002f0: ee19 9abd d099 303e e7fd ddbd 4a72 d0bd
00000300: 6b32 17be cf06 413a fb7e a43b 8aa9 a13d
00000310: 2833 9f3d a378 ecbd fab3 bc3d 0b42 33bd
00000320: ccc6 f43d b072 633d 33c9 373e b507 46be
00000330: 766d 4cbe 0a7c 1a3e 48ab f63b 8fca a33c
00000340: 00fb 17bd 6528 e93d ba40 a8bc 4085 0a3b
00000350: 77dc 9e3d 0e40 433d 5566 4a3e db35 ed3c
00000360: 1929 e6bd 48ee f93d c27a 16bd fce8 463e
00000370: c46a 943c 2f74 53be a3a3 d73c a517 943d
00000380: a9ab 39be 681e ad3d f7bb e53d 8bed 323e
00000390: 2adf 28bd d343 49be 643c e63d 260f 19be
000003a0: bdee 383d 6858 983d 11a5 ca3d 1c08 dc3c
000003b0: e91d debb 6358 d2bd 8875 253e b65e 2cbe
000003c0: c53c 313e 7165 993b bd3e 563c 97da 95bc
000003d0: 702f 51be 9bd3 24be 5cd3 293c 4e5d 79bc
000003e0: a499 4e3e 3225 2b3e c041 4cbe 5777 0f3c
000003f0: a261 2f3e 0cab dcbc 9a0b 113e 0093 e3bd
0.10208974 -0.06326217 -0.030400274 0.12269821 0.04422509 0.006286856 -0.13645534 -0.1951126
0.09269734 -0.061879795 -0.060486466 -0.12764966 0.038974017 0.08840837 0.002832126 -0.09869634
0.045235965 0.0071248813 0.07382147 0.10180715 -0.13489643 0.1985799 -0.04084226 0.039765153
0.14612226 -0.095034145 0.09295132 0.016779292 0.15776314 0.2118162 -0.2027929 0.0826006
-0.03893508 -0.12448047 0.06546859 -0.14191966 0.070161894 -0.02189406 0.018924158 0.13773456
0.10557001 -0.101892896 -0.18108293 0.105678946 0.047804687 0.0058743116 -0.048538458 0.103600875
-0.20624511 0.14674547 -0.061379794 5.3982534e-05 -0.05037966 0.05498632 0.16647533 0.0769104
0.19705051 -0.044410497 -0.026119744 -0.18150789 0.17291297 0.070840485 0.15374225 -0.06912931
0.13725026 -0.03760346 0.18709162 -0.09817769 0.14700527 -0.20871346 -0.036886413 0.20428981
0.13951404 -0.17970468 -0.02177298 0.21301575 -0.046878953 -0.16739231 -0.1399305 -0.0940754
0.0046358644 -0.117586136 -0.20469272 -0.0015068091 0.19390689 -0.0070703905 -0.13719323 0.045926683
0.035960197 0.19449008 0.14369102 0.049857777 -0.11093378 0.062059507 0.08052687 -0.1799191
0.067412496 -0.13563669 -0.063386194 -0.11112618 -0.017665938 -0.16447257 -0.13058472 0.10843798
0.105262004 0.17360255 0.11504471 -0.1049271 0.04734886 -0.12285477 -0.17676342 0.0058002505
0.08173106 0.015451408 0.010587083 0.20331642 -0.18040879 0.053174194 0.0990913 0.014015101
-0.04931625 -0.09920656 -0.1979774 0.12444601 -0.18665308 -0.03502183 -0.11164211 0.048408788
-0.07264649 -0.15549527 -0.1807978 -0.13257216 -0.14105491 0.065133944 0.11160284 0.07694608
-0.09965783 -0.1311572 0.004070649 -0.024160692 -0.1817893 0.16780764 0.10919124 0.12695119
0.10331759 0.122990616 0.049822703 0.015811978 -0.19029266 -0.117139995 0.084861256 0.02258864
0.14558032 0.15750407 -0.01204451 0.1370788 0.012833585 0.1586898 0.017628703 0.21067864
-0.20735535 0.18574715 0.19210656 -0.15845808 0.033765264 0.032302678 -0.042957008 -0.16640612
-0.03960984 0.07248561 -0.07554253 -0.12820494 0.03205836 0.09871939 0.16175969 0.034259975
-0.16510025 -0.19086872 -0.1622005 0.13760652 0.18262568 -0.032384157 -0.062288985 0.0073770033
-0.1436901 0.20252323 0.19382772 0.18586487 -0.07524477 0.17246175 -0.10839444 -0.10178049
-0.14765327 0.000736338 0.00502002 0.07893665 0.07773429 -0.11546447 0.09214015 -0.043764155
0.1195198 0.055529296 0.17947845 -0.19338877 -0.19963631 0.1508638 0.0075277425 0.019994048
-0.037104607 0.11384658 -0.020538677 0.0021136552 0.07756894 0.04766851 0.19765599 0.028956344
-0.112383075 0.12203652 -0.036738165 0.19424814 0.018117316 -0.2064979 0.026323145 0.07231072
-0.1813189 0.08453065 0.11217492 0.17473428 -0.04122845 -0.19654779 0.11241987 -0.14947185
0.045149554 0.07438737 0.09894765 0.026859336 -0.006778468 -0.10270765 0.16158116 -0.16833004
0.17308338 0.004681282 0.013076481 -0.018292708 -0.20428252 -0.16096346 0.010365333 -0.0152199995
0.20175797 0.16713408 -0.19946957 0.00875648 0.17127088 -0.02693703 0.14164582 -0.111120224

bias_ih_l0 f4 [88]
00000000: c544 49be f764 39be e707 633d b27c b0bc
00000010: 6f0f 923d e184 d4bc 4e97 1dbd 9e90 3abe
00000020: d2c0 83bd 68f1 173c dc2c 41be 421e 4cbe
00000030: bcce aabd 2fc9 22be cbf9 30bc 6e8b dfbd
00000040: 1b41 403e c652 8abc d486 2bbe 6215 333e
00000050: 0fec 57be d77b 4c3e 8adb cc3b d042 9ebd
00000060: d2d1 2d3e 45b9 2e3e 6d27 3abd 2bfa 103e
00000070: 0519 ba3d e009 423d 4c07 173e 68ca c03d
00000080: 9ff7 543e a0a9 adbc 453b 403e 0fb9 413e
00000090: 4d2f bc3d c6ed 8e3d f607 58be b51b c73c
000000a0: a989 53be 594b 26be d880 20bd 013b 50ba
000000b0: fc01 1e3e 9504 883d 8bd5 203e 9300 e5bd
000000c0: 5721 16be 3c3c 1dbe 2e0a 0cbd 4ae3 a1bd
000000d0: 3f40 83bd b09f d3bd f0c0 8fbd 08b1 b7bd
000000e0: 22be e1bc ee77 eabd 8211 1d3e 1856 9fbc
000000f0: d22e b9bd b155 373e 162e 40be 1198 e7bd
00000100: 20f8 0a3e 26cd 05be 2390 d03d 8c86 c6bd
00000110: 1155 493e ce17 00be 03f4 903a 7ec3 633d
00000120: 6566 90bc 37a7 cebd 2027 9f3d 6719 12be
00000130: 3866 41bd 41e4 23be f8e5 823d 6782 4dbe
00000140: b67b 54be a429 9e3c 126c 793d 777f 4c3e
00000150: 24df 16be 07dc d73c e0e0 15be 3c42 173e
-0.1965514 -0.18104921 0.055427458 -0.021543834 0.0713185 -0.025942268 -0.038474374 -0.1821923
-0.06433262 0.009273864 -0.18864769 -0.19933417 -0.08340213 -0.15897058 -0.010801743 -0.10915266
0.18774836 -0.016885173 -0.16750652 0.17488626 -0.21086143 0.19969116 0.006251757 -0.07727587
0.16974571 0.17062862 -0.045447756 0.14157932 0.09086803 0.0473727 0.14748877 0.09413606
0.20797585 -0.021199048 0.1877261 0.1891825 0.091887094 0.069789454 -0.21096787 0.024305204
-0.20657982 -0.1623968 -0.039185375 -0.00079433626 0.15430444 0.06641499 0.1570646 -0.1118175
-0.14661156 -0.15355009 -0.034189396 -0.0790468 -0.06408738 -0.10333192 -0.07019222 -0.08969313
-0.027556483 -0.11448656 0.1533871 -0.019450232 -0.090421334 0.17903782 -0.1876758 -0.11308301
0.13571215 -0.13066539 0.10183742 -0.096936315 0.19661357 -0.12509081 0.0011059049 0.055606358
-0.01762695 -0.100904875 0.077711344 -0.14267503 -0.047216624 -0.1600504 0.06391519 -0.20069276
-0.20750317 0.019306965 0.06089408 0.19970499 -0.14733559 0.026350034 -0.14636564 0.1477136

bias_hh_l0 f4 [88]
00000000: d05a 20bd 15ba 083e 7ee8 bb3d 7873 a63c
00000010: 8cd9 3c3e f31e 38bc 9f26 483e 8e8e 343d
00000020: aebe ad3c 9f14 babd ef71 133d 7c4c 8a3c
00000030: 891e 483c 613f 90bc 07c0 50be 385f 743d
00000040: 1b3f 583e 6897 153e 73db 89bd 9fc8 0c3e
00000050: dcee 513e a0d3 3abe b036 9fbd 42ae 6c3d
00000060: e38d 8d3c f770 413e fa0f 3ebd 6652 cbbb
00000070: e131 23be c192 e83d 71d6 403e 4d90 d7bd
00000080: 8c12 2dbd 6881 24be c5f7 b6bc d3a5 db3d
00000090: e86a 58be 2f0a 24be 650a 31bd 7b5f 493d
000000a0: 2420 06be e77a 483d 9629 403e aae3 50be
000000b0: cda8 d03b d9cf 80bd 6411 a0bd 357b 06be
000000c0: d348 1fbd 884e 4b3e dede b8bd 365c c0bd
000000d0: 7587 173e 14d8 513e 026e 543e 6d84 103e
000000e0: 7e0f b93c 0859 a83c 9b20 ae3d 7a3e fe3d
000000f0: 37e5 0b3e f7e2 3dbe 574c 5a3e 82ee f73d
00000100: d466 603c cf25 a2bc 19f1 533e eb9d fb3d
00000110: 6b82 2ebe 16e3 77bc c853 17be 1f27 893d
00000120: bc98 19be 1655 a5bc 2954 59be 2d1e 063e
00000130: b2a2 723d 9899 28be 24bb a2bd e60c 123e
00000140: 6613 08bc f084 51be df10 543e a731 eabd
00000150: 1fb9 4ebe 5478 b53d 23be e73c 44ed 2f3d
-0.039149106 0.13352235 0.09175204 0.020318732 0.18442363 -0.011237848 0.19545983 0.044081263
0.021209087 -0.090859644 0.035997327 0.016882174 0.012214311 -0.017608346 -0.20385753 0.05966112
0.21117823 0.14608538 -0.0673131 0.13748406 0.20501274 -0.18244791 -0.07774103 0.057783373
0.01727957 0.18890749 -0.046401955 -0.006204891 -0.15936996 0.11356116 0.18831803 -0.1052557
-0.042254016 -0.1606499 -0.022334943 0.10724988 -0.21134531 -0.1601951 -0.043222804 0.049163323
-0.13098198 0.048945334 0.18765864 -0.20399347 0.006367779 -0.06289644 -0.07815817 -0.13132937
-0.03888781 0.19854176 -0.090268835 -0.09392588 0.14797767 0.20492584 0.2074509 0.14113016
0.022590395 0.020550266 0.08502313 0.1241426 0.13661657 -0.18543611 0.21318184 0.12106039
0.013696391 -0.01979342 0.2069744 0.1228598 -0.17041938 -0.015129825 -0.14778054 0.06696915
-0.1499967 -0.020182174 -0.21223511 0.13097449 0.05923719 -0.16464841 -0.079458505 0.14262733
-0.008305406 -0.20460868 0.20709561 -0.11435252 -0.20187806 0.088608414 0.028288906 0.042950884

weight f4 [6, 22]
00000000: 5ff2 9e3c 461d 51be a6bb 34be 1ae0 0fbe
00000010: 8f0c 853d a4d7 213e 53ac 1b3e 7766 17be
00000020: e811 293d 1100 0b3e 96d3 3e3d 7797 bfbd
00000030: d9f7 29be 38ea ea3d 48b2 6c3d 1633 ab3d
00000040: 456e 34be c599 51bd 0019 a03d 92e2 81bb
00000050: bb12 eebd f427 fbbd 0536 2cbd 493e 3f3e
00000060: 0b78 e03c e5ae 3bbe cb53 1a3e 98a7 a13d
00000070: 6bc3 a73c a3e7 4c3e 1128 8bbd 9a30 09be
00000080: 4149 a43d c105 3f3e a393 52be 7066 173e
00000090: ae65 2cbe 0a72 b33c 40ff 08bd 8593 c0bc
000000a0: 3c1c bcbc 926e e23d 8546 d73d 0067 103e
000000b0: 137d 82bd 6aee 563d b98b eebc d790 f23b
000000c0: 0b1a 573e 17e3 2bbe 59b2 45be 748c 15bb
000000d0: 34e6 0abd 1616 923d bd63 133e 040d 17bd
000000e0: c48f 523e 63ee 3c3e 2044 0d3e 53af 483d
000000f0: f869 98bc edbf fdbd 3d21 7e3c 27f6 413e
00000100: 92fb 30be 3c59 3c3e 7253 2d3e 29af 463e
00000110: f0c4 c83c e229 913d 8514 ad3d f9ba 4ebd
00000120: 3c87 1dbc 7201 13bd b166 ab3d 64a4 d23d
00000130: 2e79 33bc 6d5b f83d 43c1 ff3d 5f6a 433e
00000140: bc0f 5ebd b668 b3bc da5b 4c3e 173d 173e
00000150: 7eaa 353e e916 82bd fd86 473e 0047 3dbe
00000160: f551 833d 3ec0 563e b16a 3b3b d253 1dbe
00000170: 08fa 543e 06ca 0f3e f781 41be 84be 06be
00000180: 1c2b 113e 8fef 163e 9dfe 46be 8fc8 01bc
00000190: 3342 523d d857 563d d051 8abc 1086 3e3e
000001a0: 3d50 6cbc 7a86 40be 2506 403e 2f1f 8f3d
000001b0: c0d9 6abb 50c4 393d 25c1 473e 7007 b4bd
000001c0: 8950 19be 93b0 463c 750b ef3d 3fae 29be
000001d0: b765 fb3d 7d9b 13be 629c 75bd c3eb 1e3e
000001e0: 4dff 953d 12ae c7bc 0b92 e6bd 3653 96bc
000001f0: c6fc cf3d e4b6 1abe 399c 0a3d 2c02 483e
00000200: 665f 4dbe 366a bcbd 8398 d8bd 19d1 3bbe
0.01940268 -0.20421323 -0.17649707 -0.14050332 0.06496536 0.15804917 0.15202455 -0.14785181
0.041276842 0.13574244 0.046588503 -0.093550615 -0.16598453 0.11470455 0.05778721 0.08359353
-0.1762019 -0.051172037 0.07817268 -0.003963777 -0.11624666 -0.1226348 -0.042043705 0.18676104
0.027400991 -0.18328436 0.15071027 0.07893294 0.020478925 0.20010237 -0.067947514 -0.13397446
0.080217846 0.18654539 -0.20564131 0.1478517 -0.16835663 0.021904964 -0.03344655 -0.023507843
-0.022962682 0.11056246 0.105114974 0.14101791 -0.06371512 0.052473463 -0.02911936 0.00740252
0.21006028 -0.16785847 -0.19306315 -0.0022819312 -0.033910945 0.07133119 0.14393516 -0.036877647
0.20562655 0.18450312 0.13795519 0.048995327 -0.018605217 -0.123901226 0.015510854 0.18941556
-0.17283466 0.18393415 0.16926363 0.19402756 0.02450797 0.07088067 0.084511794 -0.05047128
-0.009614762 -0.03589005 0.08369196 0.10285261 -0.010954184 0.12126813 0.124880336 0.19083546
-0.054214224 -0.021900516 0.19956914 0.14769398 0.17740819 -0.06352026 0.19485088 -0.18484116
0.064121164 0.20971772 0.0028597529 -0.15364006 0.20798504 0.1404191 -0.18897234 -0.13158613
0.14176601 0.14739822 -0.19433065 -0.007921352 0.051332664 0.052329868 -0.016884714 0.18605828
-0.014423427 -0.18801299 0.18752344 0.0698837 -0.0035835356 0.045353234 0.19507273 -0.08790481
-0.14972128 0.0121270595 0.11672107 -0.16570376 0.1227526 -0.14414783 -0.05996359 0.15519623
0.073240854 -0.024374995 -0.11258324 -0.018350225 0.101556346 -0.1510883 0.03384039 0.19532079
-0.20055923 -0.09199946 -0.10575964 -0.18341483

bias f4 [6]
00000000: 023d 91bd 731f 573b 375a 353e 7b72 013d
00000010: 1668 fabd 3329 34be
-0.070917144 0.0032825142 0.17710195 0.031603318 -0.12226884 -0.17593841

weight f4 [1, 6]
00000000: 9ebb 883e c4cd bdbe 448a f7bd ef9a 30be
00000010: a33f 84be dab9 9ebe
0.2670564 -0.3707105 -0.12086919 -0.17246602 -0.258298 -0.31001168

weight f4 [6]
00000000: 0000 803f 0000 803f 0000 803f 0000 803f
00000010: 0000 803f 0000 803f
1.0 1.0 1.0 1.0 1.0 1.0

bias f4 [6]
00000000: 0000 0000 0000 0000 0000 0000 0000 0000
00000010: 0000 0000 0000 0000
0.0 0.0 0.0 0.0 0.0 0.0

running_mean f4 [6]
00000000: 24e9 48be f0e4 15be 6911 2e3e d5cd 193e
00000010: c28e 66be 3e08 57be
-0.19620186 -0.14638114 0.16998829 0.15019925 -0.22515395 -0.20999238

running_var f4 [6]
00000000: c456 9f3b 3391 4c3b 4a20 953b 38bf 7b3b
00000010: f818 fa3b f49d e83b
0.004862638 0.0031214475 0.0045509683 0.0038413536 0.007632371 0.0070989076
